checkpoint_critic_v2.pth (torch_old, 52800 bytes, 5 tensors)

fc1.weight f4 [128, 33]
000000 c9 c9 6d 3d d2 3a 90 3e a3 d6 8c bd 1b ed 97 be
       0.058053765 0.28169876 -0.06876876 -0.29673085
000010 e0 27 3a be 37 5f 07 3d b1 3d c8 be 18 e6 a4 bd
       -0.18179274 0.03304979 -0.39109567 -0.080516994
000020 92 f4 b6 3b f1 6a bc 3c 84 81 b9 3c d1 fb d1 bd
       0.0055833543 0.023000212 0.022644766 -0.10253108
000030 b1 88 da bc d4 d3 6f be fd dd 43 be 01 0c df bc
       -0.026676508 -0.2342065 -0.1912765 -0.027227404
000040 44 16 98 be 49 47 80 3e 61 c1 2e be d4 2c 1c be
       -0.29704487 0.25054386 -0.17065956 -0.15251476
000050 66 b2 0c 3d e0 a3 4f bd 71 a3 bd bd df 9f 52 be
       0.03434982 -0.050693393 -0.092596896 -0.20568798
000060 d6 e7 a3 3c 37 9b b1 bd 62 5f a1 be 28 5b 57 3f
       0.020008009 -0.08672183 -0.31518084 0.8412347
000070 96 f7 a3 3e 1a 14 28 3d 94 4d 52 bf bb cf 99 3d
       0.3202483 0.041034795 -0.82149625 0.075103246
000080 84 4d 69 40 93 38 60 bf 81 56 79 3e 59 65 c3 3e
       3.6453562 -0.87586325 0.24349405 0.3816326
000090 18 87 60 bc a0 9b be be 24 ca 0d 3f d4 5f b4 bd
       -0.013704084 -0.37228107 0.5538657 -0.0880734
0000a0 01 ae 19 3d 18 35 cb be 34 7e e1 bd b5 7d 83 bc
       0.03751946 -0.39688945 -0.110103995 -0.016051153
0000b0 fa 53 26 3e 29 c5 fd bc 23 72 54 3f 6f 60 ae bd
       0.16242972 -0.030977802 0.8298666 -0.08514487
0000c0 5f 17 de be 59 5e ed 3d 6b 08 6e bc c2 49 d9 bd
       -0.43377206 0.11590261 -0.014528374 -0.10609771
0000d0 c5 08 db 3d db 35 22 be 87 a6 3b bd 03 04 93 3c
       0.10695032 -0.15840857 -0.04581311 0.017946249
0000e0 a3 9f 11 3e ab e2 c8 bd eb cb 6f 3d b6 a8 b9 be
       0.14221053 -0.098088585 0.05854408 -0.3626153
0000f0 9a 77 c3 3e c7 b4 76 3d 1e 56 2f 3d 68 36 d5 be
       0.38177186 0.060230996 0.042806737 -0.4164307
000100 e6 88 6d 3d 2c c8 86 3f 2e 9b 46 3f 3c 7c 49 bd
       0.057991885 1.0529838 0.77580535 -0.049190745
000110 4f 4e e0 be b2 19 d3 bc a1 b9 bf bd 8b 05 3b be
       -0.43809745 -0.025769088 -0.09361578 -0.18263833
000120 60 99 ab 3e 72 63 8f be 72 75 5e be 3a 70 ad bd
       0.33515453 -0.28005558 -0.2172449 -0.08468671
000130 d5 c1 7d 3d d5 78 c7 3c b5 50 0d be 1f b8 d0 be
       0.06195243 0.02434961 -0.13800319 -0.40765473
000140 e3 62 be 3e 44 36 b4 bc 4f 16 1b 3e e8 8b ff be
       0.3718482 -0.021998532 0.15145229 -0.49911427
000150 e7 63 b4 be a2 e7 6b bd e7 39 c2 bd 0a 09 71 bd
       -0.3523247 -0.05759395 -0.094837 -0.05884651
000160 c6 02 78 be d3 5d dd bc 9c 77 f9 3d 92 07 82 bd
       -0.24219808 -0.027022278 0.12181017 -0.063491
000170 51 fa b3 be 15 8a 27 3e f8 84 68 3e 9b b9 7a bd
       -0.35151914 0.16361268 0.22706974 -0.061212163
000180 3a 56 47 be d6 f3 77 bd 48 79 c5 be 57 31 ef be
       -0.19466487 -0.060535274 -0.38569093 -0.4671733
000190 74 e0 30 3b 50 5c 7b bd 5e 8d 24 be 16 0e 93 be
       0.0026989253 -0.061367333 -0.16069552 -0.28721684
0001a0 ed e7 ff be 24 11 d1 3e 4b d7 4c 3e a0 21 f6 be
       -0.49981633 0.4083339 0.20004003 -0.4807253
0001b0 45 06 34 3e 8a d0 75 be 17 78 25 be 6e c9 f3 bc
       0.17580517 -0.24005333 -0.16159092 -0.029759135
0001c0 91 0a aa bc 85 83 1b 3f 41 43 70 3e 94 a5 7d 3e
       -0.020756992 0.6074756 0.23463155 0.24770194
0001d0 89 19 44 be 8e 12 8b 3d 99 8c 8e 3e 75 1e 89 3d
       -0.19150366 0.067906484 0.27841642 0.06695262
0001e0 07 fa d2 3d a0 ba e5 bd 46 3a b0 be 6a b9 7f 3e
       0.10301595 -0.112172365 -0.3441946 0.24973074
0001f0 a7 c3 76 be 8a dd 07 3e 36 f5 0b 3f 06 ba bd be
       -0.24098073 0.13268104 0.5467104 -0.37055987
000200 a0 72 0c 3c 97 8a 04 bf 1e f6 53 3d 41 fd 07 c0
       0.008572251 -0.5177397 0.051748388 -2.1248324
000210 93 90 56 be cc e7 4a 3e 8f ed 0c be 2e 5a 86 3d
       -0.20953588 0.19814986 -0.13762496 0.06560169
000220 24 fd 9c be 3d ff cc be 64 81 85 3c 11 b7 42 be
       -0.3066188 -0.4003848 0.01629705 -0.19015147
000230 cd 39 c7 be c0 77 0e 3e 65 e0 e4 3c 7a ed 1c 3d
       -0.38911286 0.13912868 0.02793903 0.038312413
000240 ed 8e 16 3d 9f 90 68 3e 2a f8 2b 3e 67 fa 8b 3e
       0.0367574 0.22711419 0.16793886 0.2733948
000250 41 68 81 3e e7 ca b0 3e 51 54 2f 3e 5b ad 39 3e
       0.25274852 0.34529802 0.17122008 0.18132536
000260 95 c9 da 3d cd 07 a1 3e 53 e3 b9 3e 16 39 ca 3e
       0.1068298 0.31451264 0.36306247 0.39496678
000270 75 9d 8a 3d c0 26 2c 3e 3b 7a be 3d 6d 71 69 3f
       0.06768314 0.16811657 0.09300657 0.911887
000280 d7 42 23 be 2f 99 05 bd 77 03 54 bf 2c 61 87 bd
       -0.15943466 -0.03261679 -0.82817787 -0.06610331
000290 fe ad 71 3f db 3f 9e 3e bc 81 de 3e e4 52 44 be
       0.94406116 0.30908093 0.43458354 -0.19172245
0002a0 c3 c3 31 be cb e3 82 bf 7f 5e b8 bf 83 10 ef be
       -0.17359833 -1.0225767 -1.4403838 -0.46692285
0002b0 d7 95 67 3d a2 1c 42 3f d0 58 d6 3d c2 80 16 3e
       0.056539383 0.7582494 0.104661584 0.14697555
0002c0 df a1 61 3d 9c 60 21 3d 23 af f5 be 88 1e 07 bf
       0.055086013 0.039398775 -0.4798518 -0.5278096
0002d0 f3 69 ef 3d db a0 26 3e 0d 7d 8e 3d a2 9e 12 bf
       0.1169013 0.16272299 0.06957445 -0.57273304
0002e0 17 8b 1e 3e dc 79 ca 3d 3a 3c a6 3e ac 67 58 be
       0.15482746 0.09886524 0.32467824 -0.21133298
0002f0 56 13 da be 1b 37 dd bd 7a ad 42 3d ea 01 18 3e
       -0.42592877 -0.10801526 0.04752872 0.1484448
000300 e7 16 7e 3f c4 10 8e be 08 ea 6e bc 90 44 8d bf
       0.99253696 -0.27747166 -0.014582165 -1.1036549
000310 2d 83 44 bd 50 02 d2 bf 16 aa af bd e1 9f 14 3e
       -0.04797666 -1.6406956 -0.08577363 0.14514114
000320 12 74 fa 3e a3 d5 8a bd 5e 4c 70 be 6c 8b 3b bf
       0.4891668 -0.06779029 -0.23466632 -0.73259616
000330 a1 df 34 3d 9e ec 41 bd 56 9e d9 3c c2 78 e3 bd
       0.04415858 -0.047344796 0.026564758 -0.11107017
000340 5f d9 01 3e 9a 4f 0d 3e a5 d5 17 bd 07 7a b1 3e
       0.12680577 0.13799897 -0.03706898 0.34663412
000350 73 54 50 3e 56 27 a4 be f3 49 3b 3e 8c 7c 9f 3d
       0.20344715 -0.3206126 0.18289928 0.07787427
000360 1a a2 b9 bd 83 1b 7a be cb 13 5d bd 6d e3 98 3d
       -0.090641215 -0.24424557 -0.053973954 0.07465253
000370 36 45 81 be 7c 92 74 bc ae f8 45 bd 0c dc 88 be
       -0.25248116 -0.014927503 -0.048332863 -0.26730382
000380 98 32 07 bf e3 31 62 3f 70 ad cc bd fe 51 17 bd
       -0.52811575 0.8835737 -0.09994018 -0.03694343
000390 c4 1a 66 bf 35 83 5a bd 04 03 ef 3f 4f 84 db bd
       -0.8988459 -0.053347785 1.8672795 -0.10718595
0003a0 c6 97 31 3e b6 17 a3 3d 72 55 77 bd 0e 16 dd bd
       0.17343053 0.07963507 -0.06038422 -0.10795222
0003b0 36 3a fa 3d 9b 19 93 bd fd 06 56 bd 66 a1 8d 3c
       0.12218134 -0.07182618 -0.05225276 0.017288875
0003c0 d5 48 51 bd 1e b6 6b 3c b9 e6 7b bb cf a9 cc 3b
       -0.05109485 0.014386682 -0.0038437082 0.0062458287
0003d0 61 41 49 3d b0 36 a6 bd ef e5 d3 3b 5d 3d 32 be
       0.049134616 -0.081158996 0.006466619 -0.1740622
0003e0 f2 18 d7 3d 24 be 8e bd 52 07 66 bd b4 10 ae bc
       0.10502805 -0.0696986 -0.056159325 -0.021248199
0003f0 e7 9d ff b9 cc 8f a8 bb 36 f4 94 ba 68 f9 78 bc
       -0.00048755037 -0.005144095 -0.0011364284 -0.015196182

fc1.bias f4 [128]
000000 72 ca 38 bf d1 da b6 be 21 31 6e be 04 8f 0d bf
       -0.7218391 -0.3571382 -0.23260929 -0.5529635
000010 99 8a 47 bf 08 ae 7a bf f1 b8 70 bf cd 56 16 bf
       -0.7794586 -0.979218 -0.940322 -0.587262
000020 f9 f9 5f be e7 d0 42 bf 16 10 18 3e fa 95 a6 be
       -0.21872701 -0.7610001 0.14849886 -0.32536298
000030 d2 4a 5d be b8 e6 4b 3f e4 4d 7c bf 8d 23 e7 be
       -0.21610573 0.79648924 -0.9855635 -0.4514431
000040 20 b7 97 bf 83 cf eb be be 83 2f bf ac 1d 1d bf
       -1.185276 -0.46056756 -0.685604 -0.613734
000050 da 02 32 3f 38 a2 f7 bd 7d 75 07 bf 67 ba d9 bd
       0.695356 -0.12091488 -0.5291365 -0.106312566
000060 29 0a cf bf ee 7f 67 bd 7d 40 3a bf ce ab 90 bf
       -1.6174976 -0.056518488 -0.7275465 -1.1302431
000070 09 f5 51 bf 0a d6 93 bf 7d dc 8a bf 4f c9 84 be
       -0.8201452 -1.1549695 -1.0848538 -0.25934836
000080 3a 2e 85 bf 54 e3 9c bf c6 54 93 bf 58 0f b4 bf
       -1.0404732 -1.2256875 -1.1510246 -1.4067183
000090 d3 61 26 bf ec 5b ba be d5 86 94 bf f4 1f af be
       -0.6499302 -0.36398256 -1.1603647 -0.34204066
0000a0 b3 90 23 bf 2f 95 57 bf 50 ae 63 bf 5e 84 56 be
       -0.6389267 -0.8421201 -0.88937855 -0.20948932
0000b0 54 ce 6d be a9 b4 63 bf 82 9d 7d bf 11 f0 ad bf
       -0.23223239 -0.8894754 -0.9906846 -1.3588887
0000c0 6a 4d eb be 53 9f 74 bf ff 27 51 bf d4 be 11 bf
       -0.459575 -0.9555561 -0.81701654 -0.56931806
0000d0 4c 19 6d bf 66 c3 1b bf e8 c6 63 bf 8f 7a b3 be
       -0.92616725 -0.6084503 -0.8897538 -0.35054442
0000e0 4c ad 1f bf c8 35 72 be 9a f2 d6 be dd de c2 be
       -0.62373805 -0.23653328 -0.41981965 -0.38060656
0000f0 f7 f0 20 bf cf 37 74 bf 71 a3 42 bf 08 93 3f bf
       -0.62867683 -0.9539766 -0.7603064 -0.74833727
000100 1c ea 8a bf e4 8d b1 be 0e 3a 5f bf 75 2f 61 bf
       -1.0852695 -0.34678566 -0.8719796 -0.8796304
000110 ab 26 bf bf c3 78 99 bf 7a fe f7 be 9c e4 b1 bf
       -1.4933676 -1.1989979 -0.48436338 -1.3897891
000120 af 83 31 bf cc fe 73 bf 06 6c 9f bf b3 54 b6 bf
       -0.6934156 -0.95310664 -1.2454841 -1.4244598
000130 8c f7 80 bf 49 e6 a9 bf 62 23 fd be 9d 91 69 bf
       -1.0075545 -1.3273402 -0.49441057 -0.91237813
000140 09 0e 7d be 4d b1 e7 be 92 b6 18 be 74 e3 9f bd
       -0.24712385 -0.45252457 -0.14913395 -0.07807055
000150 e9 72 bc be db fb 94 be ff bc 82 be a5 d9 90 bf
       -0.3680642 -0.290984 -0.25534818 -1.131642
000160 27 51 da bb 37 41 5c bf 79 84 76 bf 21 ae 3d be
       -0.006662506 -0.8603701 -0.9629589 -0.18523456
000170 d4 00 21 bf b8 1b 91 be 8f 21 80 bf dd 25 4b 3f
       -0.6289189 -0.2834146 -1.0010241 0.7935465
000180 e9 9d 83 bf 01 4e e4 be da 0d a0 bf 26 9f 8d bf
       -1.0282565 -0.44590762 -1.2504227 -1.1064193
000190 76 58 88 bf 30 01 c5 be 1b f4 84 bf 10 6b 87 bf
       -1.0651996 -0.38477468 -1.0386995 -1.0579548
0001a0 a8 80 49 bf 08 48 73 bf e9 36 4d bf 5a 0b 86 bf
       -0.7871194 -0.95031786 -0.8016191 -1.0472214
0001b0 46 e1 98 bf 99 3a 53 bf b1 1c 73 bf 83 e2 f6 be
       -1.1943748 -0.8251129 -0.94965655 -0.4821969
0001c0 97 fb 1e bf 46 78 19 bf 35 4e 62 bf 31 fe 27 bf
       -0.62102646 -0.5994915 -0.88400584 -0.6562224
0001d0 74 b9 92 bf 1b 4e 95 3d a6 a3 98 bf 55 e1 66 bf
       -1.1462846 0.07290288 -1.1924942 -0.9018758
0001e0 c3 77 a2 bf f0 ae 4f bf 43 ca 49 bf 45 9d 63 bf
       -1.2692798 -0.8112631 -0.7882425 -0.8891185
0001f0 ec c9 c1 be c0 df 95 bf 20 bf 56 be 96 08 1d be
       -0.37849367 -1.1708908 -0.20971346 -0.15335307

fc2.weight f4 [64, 132]
000000 11 d0 14 3e 99 4e 62 3e 10 9a b6 3c 05 13 f2 3e
       0.14532496 0.22100295 0.02229026 0.47280136
000010 33 60 1e be 47 89 de bd 9f 03 77 3e 78 7b ec 3c
       -0.15466385 -0.10866027 0.24122475 0.028867468
000020 28 b3 c0 3e 90 fa 12 3f 60 4a d6 be 55 29 91 be
       0.37636685 0.5741358 -0.4185362 -0.28351846
000030 04 b1 70 bf 3e 65 8a be f2 0c b0 39 4e a2 8a bf
       -0.94020104 -0.27030367 0.0003357898 -1.0830781
000040 37 6c ea 3d 3a 50 c1 3e 05 55 47 3e 90 b9 71 3e
       0.114464216 0.3775652 0.19466026 0.23605943
000050 e7 02 c7 be cf 8a 75 bf 90 30 0c 3e 0e 92 25 be
       -0.38869402 -0.9591493 0.136904 -0.16168997
000060 6a cc 0e bf 53 11 0e bf ed 67 06 bf e5 f9 0f bf
       -0.5578066 -0.55495185 -0.5250233 -0.56240684
000070 d9 a4 40 be fa 4a e0 be de 8f df 3d 28 46 e5 bf
       -0.18812884 -0.43807203 0.10916112 -1.7912035
000080 c7 f6 0c bf c5 62 0f 3e a1 ee 90 3e c9 f5 2f bf
       -0.5506405 0.14002521 0.2830706 -0.68734413
000090 89 69 df be 6c 3d 61 3e 04 ff 9d bd b6 ac bd be
       -0.43635204 0.21996087 -0.07714656 -0.3704583
0000a0 6d 2a 35 be 9b 9b 7c 3e 9c 63 71 bf d9 05 19 bf
       -0.17691965 0.24668734 -0.94292617 -0.5977455
0000b0 1b 77 f0 bd c5 f5 77 be 3f 51 06 3e 40 53 47 3e
       -0.117414676 -0.24214847 0.1311693 0.19465351
0000c0 e0 c8 93 be 14 03 95 3e 6a 20 ed 3d 24 2c 01 3f
       -0.28864193 0.2910391 0.11578448 0.5045798
0000d0 9b 4e 88 3e 9c ec 88 be a2 e6 25 bf e0 b1 69 3e
       0.2662247 -0.2674302 -0.6480504 0.2282176
0000e0 00 15 0c be 07 8b 2a 3e e5 bd 93 3e 7b 20 46 3e
       -0.13679886 0.16654597 0.28855816 0.19348328
0000f0 95 34 36 bd f5 f7 8f 3c c8 78 3f be bf cb 37 be
       -0.04448374 0.01757429 -0.18698418 -0.17948817
000100 cf c6 46 bf 96 f1 0e bf 24 aa b2 bd 44 7a 06 be
       -0.7764711 -0.5583738 -0.08723858 -0.13132578
000110 b9 af 9c be 40 73 b5 be b7 5c 0a bf 8b 04 b2 bd
       -0.30602816 -0.3543949 -0.5404772 -0.08692273
000120 f7 d8 fd 3d 1c ad 09 bf f4 c9 4a be bd 3c e8 3d
       0.123948984 -0.5377977 -0.19803602 0.1133971
000130 8b 05 5d bf e1 42 02 3f 62 cd b1 bd 0d cf 8f bf
       -0.8633658 0.508833 -0.08681752 -1.1235062
000140 2e 38 da ba 4e b6 56 3e f2 37 25 bc 98 ec c1 3d
       -0.0016648823 0.20967981 -0.010084139 0.09468955
000150 da 2d ee be 8d 33 dd be ba ab 25 be cb b3 10 be
       -0.46519357 -0.43203393 -0.1617879 -0.14131086
000160 71 0b bd 3d 04 34 06 bf 90 1f 39 3d a5 13 eb be
       0.09230698 -0.5242312 0.045196116 -0.45913425
000170 64 a1 cb 3d dc 85 43 be c0 0d 64 3e 1f 38 a0 be
       0.09942892 -0.19094032 0.2227087 -0.31292817
000180 d7 1e 87 be 40 79 5a bf 99 66 1c 3f 8c c3 b9 be
       -0.26390716 -0.8534126 0.6109405 -0.36282003
000190 c9 4a ca be b9 73 51 3e 3f f0 66 be d8 5c 18 3f
       -0.39510182 0.20454301 -0.22552584 0.5951667
0001a0 54 3d 16 be 07 fb b0 3d 59 4e 68 be de a8 1a bf
       -0.14671832 0.0864163 -0.22686137 -0.6041392
0001b0 f1 bc ce 3e b4 02 8d be c1 75 8b be 89 5e 43 be
       0.40378526 -0.27541125 -0.27238277 -0.19079031
0001c0 80 bb 63 bf 98 95 61 3e 59 b2 67 bd 7c 19 8c 3e
       -0.8895798 0.22029722 -0.05656657 0.27363193
0001d0 de 18 d8 be 5e 96 1c be ed 2d 4c 3d 39 61 99 bd
       -0.42206472 -0.15291736 0.049848486 -0.07489247
0001e0 5a 39 e9 3e 67 85 94 3d 4c fc 85 bf 28 fd 85 3e
       0.45551568 0.07252007 -1.046762 0.26169705
0001f0 60 ae 0f bf 21 e8 db be 79 f8 2f bd cb 40 9a be
       -0.5612545 -0.42950538 -0.04296157 -0.30127558
000200 5c 93 9e 3e 0d a7 38 3e 79 60 4e 3e 53 d3 07 3e
       0.309718 0.18032475 0.20153989 0.13264208
000210 b6 ee 66 be 6e 0f d7 3d 83 0d ce bd 10 c2 94 3e
       -0.22551998 0.1050099 -0.10061171 0.29054308
000220 29 4b 06 bd f6 d0 39 3e f6 18 55 3e 98 ce 29 bf
       -0.032786522 0.18146119 0.20810303 -0.6633086
000230 d4 96 2c be ec 87 9d bd 66 8c f6 3d dc 62 fa 3d
       -0.16854411 -0.07691941 0.120384976 0.12225887
000240 a9 7c 74 bf 74 9d af 3d 56 c9 01 3f fe 43 b7 bf
       -0.95502716 0.08574954 0.5069784 -1.4317625
000250 ed 56 62 be a7 d6 56 3d 16 e0 a7 be 11 e3 4f be
       -0.22103472 0.052450802 -0.32788152 -0.20301463
000260 a6 cc 6e 3d 97 29 a3 3b c0 d1 9a 3d a0 7f 1e bd
       0.058300637 0.004979323 0.07559538 -0.03869593
000270 77 1f 25 be ed a8 7c 3e d4 de 9b 3e a3 96 90 be
       -0.16125284 0.24673815 0.30443442 -0.28239927
000280 98 40 16 c0 ee 66 40 be 35 e4 25 bf 8f f6 27 bf
       -2.3476925 -0.18789265 -0.6480134 -0.65610594
000290 b8 d6 e0 3d 99 9e f7 3d 40 ec 99 bd 5c 89 87 bd
       0.10978454 0.12090797 -0.07515764 -0.06617996
0002a0 5d 2b 4a be 6e 65 39 bf ab d7 71 be 7e 16 58 3d
       -0.19743104 -0.72420394 -0.23617427 0.052755825
0002b0 a4 8b a3 3d 92 6d a5 bd a4 94 5d 3f 66 40 0a be
       0.07985619 -0.080775395 0.8655493 -0.13501129
0002c0 17 a2 9a bd e6 c1 83 bd eb fc 98 bd a3 91 e2 bd
       -0.075504474 -0.064334676 -0.07470115 -0.11062934
0002d0 06 60 b4 3d 06 41 03 3d 93 62 ba be 56 6c f6 be
       0.088073775 0.032044433 -0.3640333 -0.4812953
0002e0 62 43 b6 be 0c db 85 3c 88 b5 85 3d 78 98 28 be
       -0.35598284 0.016339801 0.06528765 -0.16464412
0002f0 80 7f 9f 3e dd f3 fa bd bf b3 32 be 18 ca a5 bc
       0.31151962 -0.122535445 -0.1745138 -0.020237967
000300 39 bb 4f 3e 0d 59 82 3d e1 67 06 bd 54 e8 15 be
       0.20286264 0.06364641 -0.03281391 -0.14639407
000310 6c ae 46 3f 5c 5b 42 3e 00 6d 3e 3e 0c a3 78 3e
       0.77609897 0.18980163 0.18596268 0.24280947
000320 7c d6 1a be 46 18 a1 be 8d 68 ea bf 79 30 52 be
       -0.15120882 -0.31463832 -1.8313156 -0.20526303
000330 32 bf b6 be 3a 03 28 3e d8 ae c0 bd dd db 0d be
       -0.35692745 0.16407481 -0.09408349 -0.13853402
000340 c3 d0 e2 3d e7 8d 61 bd b0 ca af 3d 05 58 a5 3d
       0.110749744 -0.05506697 0.085835814 0.08073429
000350 79 02 3e 3d 84 8b 2f 3e be 28 9f 3d 23 44 a0 bd
       0.046389077 0.17143065 0.07771443 -0.07825496
000360 03 13 9b be 56 eb 1b be 61 af 2a 3d 8d 95 82 be
       -0.30287942 -0.15226492 0.04167116 -0.25504723
000370 81 9f 4a bd be b4 ed be 08 5a 9f be aa f7 b8 3d
       -0.04946852 -0.46426958 -0.31123376 0.09031613
000380 11 35 07 be 4c 07 0d 3e ce 49 3c be 65 09 96 3d
       -0.13203837 0.13772315 -0.18387529 0.073260106
000390 2a 22 2f 3d af f7 8d bf 71 90 0a be 18 2b 81 3e
       0.04275719 -1.1091212 -0.13531663 0.2522819
0003a0 09 e0 62 3d 82 45 b0 bd b1 6f 7a 3e 42 95 84 3e
       0.055389438 -0.086070076 0.2445667 0.25895125
0003b0 16 3d 54 3e fd 78 a8 bc e4 44 aa bd d1 ea db be
       0.20726427 -0.020565504 -0.08313921 -0.42952588
0003c0 fa 05 80 bd c8 62 69 be 41 61 5f be 51 ae 58 3e
       -0.0625114 -0.22791588 -0.21814443 0.21160246
0003d0 40 85 24 bd c2 93 a2 3e 60 bb 08 bd e8 d3 a8 bd
       -0.04016614 0.31753355 -0.03338182 -0.08243543
0003e0 8c 43 8f be 8e 39 8c 3e 48 ba 9d 3e c4 54 ed 3d
       -0.27981222 0.2738766 0.30806184 0.115884334
0003f0 ed 9f 99 3e aa dd c7 3d 3d 8a c4 be 39 6c b5 be
       0.30004826 0.09759076 -0.38386717 -0.3543413

fc2.bias f4 [64]
000000 66 2e d9 3c ad b6 bb 3f 87 95 99 3f bd 6c 07 bd
       0.026511382 1.4665123 1.1998757 -0.033062685
000010 6d f7 01 bf fc de 42 be 48 ea d3 bd e6 b3 2e be
       -0.50768167 -0.19030374 -0.1034742 -0.17060813
000020 03 9c 99 bd 14 ed fe bd e8 59 ab 3f 50 10 f4 bd
       -0.0750046 -0.12447563 1.3386812 -0.11917174
000030 13 1a bd 3f b8 ea df be f1 83 2c be ca 29 4d bd
       1.4773582 -0.43733764 -0.16847207 -0.05008868
000040 e6 3f 9b bd 4e 1d 5d bd 9d 21 bc bd 20 44 84 bd
       -0.07580547 -0.053983025 -0.09186099 -0.06458306
000050 99 ac 34 3f af c1 ce bd 60 7f 60 3e 42 e6 81 3f
       0.70575863 -0.10095536 0.2192359 1.0148394
000060 44 a5 4a be 00 60 4a bb ce 94 e4 bd e3 81 2f be
       -0.19789606 -0.0030879974 -0.11161195 -0.17139392
000070 31 f4 00 be 1e 30 2c be 65 db 3d 3f 22 10 19 3e
       -0.12593152 -0.1681523 0.74162894 0.1494756
000080 bf e9 3f bf 37 45 44 bf 3c be 0e 3f c5 e1 8b 3f
       -0.74966043 -0.76668113 0.55759025 1.0928274
000090 f3 2b 18 be 33 44 ca 3e d0 96 a4 3f 27 81 af bd
       -0.14860515 0.39505157 1.2858524 -0.08569556
0000a0 9f 7a c6 bd 53 1e 6e 3f b2 6b 89 be 45 af 2d bd
       -0.09691357 0.9301502 -0.26839978 -0.04240348
0000b0 eb 54 02 3e 78 6e 85 3f df 96 d8 bc b5 90 65 bf
       0.12727706 1.0424337 -0.026439128 -0.8967393
0000c0 b1 33 5c bf 5d 33 7d 3f e7 fb 06 be 2e 5a 12 bf
       -0.86016375 0.989065 -0.1318203 -0.57168853
0000d0 a1 4a 3d be b7 d5 43 3f e3 f8 56 bd b6 8d e6 3e
       -0.184855 0.7649798 -0.05248345 0.45029992
0000e0 2e d3 ba bd 61 c3 58 3f ad 06 2c be 93 77 8d bf
       -0.091223106 0.84673125 -0.16799422 -1.1052116
0000f0 30 af 94 3f b6 5e ab bd 86 82 ce 3f db 2d 7f bd
       1.1615963 -0.08367674 1.6133583 -0.06229959

fc3.weight f4 [1, 64]
000000 3e ae 74 3b ad c8 5b 3d ee ba 9b 3d 97 e0 17 bc
       0.0037335302 0.053658176 0.076040134 -0.009269855
000010 23 05 58 bd 96 61 c3 bb 1d ba 8f bc 88 eb b8 3b
       -0.052739274 -0.005962561 -0.0175448 0.005643312
000020 57 f8 62 3a e3 30 39 bc b5 2f 05 3e ba 4c 9d 3c
       0.00086582213 -0.011303159 0.1300648 0.019201625
000030 38 b7 aa 3d 7e 1d ec bc 4d e6 64 3c 8a c5 62 3c
       0.083357275 -0.028822657 0.013970924 0.013841042
000040 27 7d 3c 3c 66 e7 57 bc c8 cf 21 bc b7 d0 0e bc
       0.011504448 -0.013177728 -0.009876199 -0.008716754
000050 d2 a4 c3 3c 41 ad e7 3c e7 13 b0 3d 23 4d be 3c
       0.023882303 0.028280856 0.08597546 0.023230141
000060 ff 4d 36 3c bc 5e a1 3a 24 3b c9 bb 9d 50 18 bc
       0.011126994 0.0012311558 -0.0061410833 -0.009296563
000070 3d ae ce 3c f3 83 d4 3b 01 98 ba 3c 69 57 c5 bd
       0.025229568 0.006485456 0.02277756 -0.09635813
000080 b7 4b 5d bc 90 74 9d bc 08 41 cf 3c 95 48 6e 3d
       -0.013506821 -0.01922062 0.025299564 0.05817469
000090 fd fd 9e bc 90 4a 67 3d 21 9f 42 3d 84 fa 00 3c
       -0.01940822 0.056467593 0.04751504 0.007872228
0000a0 68 22 f7 3c fe e9 69 3d ff 52 e7 bc 00 49 35 bc
       0.030167773 0.057107918 -0.028237818 -0.011064768
0000b0 05 ac db 3c 49 c4 a6 3d ad d0 50 bb 29 e5 96 bd
       0.026815424 0.08142907 -0.0031862662 -0.073679276
0000c0 2b b0 c2 bc bc e1 55 3d 24 58 98 bd 78 d3 a9 bc
       -0.023765644 0.05221723 -0.074386865 -0.020730719
0000d0 94 81 e5 bc 33 a2 1e 3d fc 8a 6a bd f0 2e a2 3c
       -0.02801589 0.038728904 -0.057261452 0.019797772
0000e0 1c 82 c8 3c 2c c5 c4 3c 05 32 b4 bc 03 44 c8 bd
       0.024476103 0.0240198 -0.021996507 -0.09778597
0000f0 f6 b5 fc 3c 30 c2 8d 3b 18 fa 3e 3d 44 4e ca bc
       0.030848484 0.0043261275 0.046625227 -0.024695523
