checkpoint_critic_v1.pth (torch_old, 169977 bytes, 5 tensors)

fc1.weight f4 [256, 33]
-0.080135405 0.22806388 -0.016454663 -0.08467732 -0.5389627 -0.110364676 -0.022091204 0.015734823
0.092967495 -0.10918391 0.024730591 0.08054259 0.074677184 0.029082213 0.12903163 -0.047731243
-0.114433736 -0.15253504 -0.15328662 0.05489262 -0.21822116 0.06568888 -0.15343356 -0.14488198
0.030005407 0.060311757 0.08890184 0.07229107 0.073228866 -0.021033436 -0.09650577 0.02425149
0.42342576 0.28833672 -0.06646645 -0.03615984 0.13729154 -0.12173584 -0.2739594 -0.17396651
-0.14709388 -0.22037339 0.063268155 0.11442896 -0.113858454 0.03945204 -0.032244217 -0.13136947
-0.09930279 0.09525021 0.15059479 -0.23206894 0.036702428 -0.12310194 -0.17766777 0.21082927
0.017405597 -0.0076239053 0.10628721 0.07510753 0.34372848 0.039983768 -0.049555287 -0.3927543
0.045908958 -0.039082788 -0.22648194 0.2565837 -0.052349214 0.03712288 -0.2314889 -0.024749083
-0.07094717 -0.22967356 0.13943732 0.21631564 0.15219721 0.017853485 0.02307354 -0.1857007
0.06466983 -0.031884808 -0.107432015 -0.16327013 0.0104296915 0.34844458 -0.14449966 0.05843117
0.14040174 0.03230473 0.088133246 -0.012127833 0.15628923 0.3355153 0.04760049 0.011710517
-0.22596584 0.060302928 -0.32402095 -0.02605997 0.07739746 0.028713351 -0.1302091 -0.052284982
0.05030604 -0.008402361 0.028069112 -0.12116795 -0.047630817 -0.058821235 0.040971033 0.17005368
0.14183575 -0.14699504 -0.119189665 -0.02886179 0.09572527 -0.102419965 -0.12629305 -0.027539914
-0.10674281 0.22015126 0.1540678 -0.045166552 -0.25720316 -0.18248901 0.10457932 0.4159331
0.05909904 -0.08471439 0.010062456 0.5392769 -0.43898675 0.22649339 -0.100954466 -0.24038842
-0.28578743 -0.11795309 0.24223661 -0.02796445 -0.42897618 0.23490493 0.035749067 0.0406776
0.120967865 0.022020074 0.15439905 -0.0021238788 -0.015073031 -0.09468834 0.05358064 -0.02395279
-0.2351683 -0.08741971 0.44492203 -0.07038238 -0.00904532 -0.09711825 -0.082366936 0.3344456
-0.11137495 0.034760058 -0.25525317 -0.027846336 0.30985603 -0.19901067 0.04170547 0.23065193
0.079176255 -0.09718579 -0.05115389 -0.14096414 0.048543476 -0.024391277 -0.12877369 -0.055255365
0.040001705 0.049753413 0.2721754 -0.08624552 0.29493907 -0.1632441 0.12267664 0.20000853
0.24870767 -0.20123632 -0.06943219 0.15166403 0.068278745 -0.024309352 -0.044980306 0.33972138
0.05751613 0.20294541 -0.045998633 0.010302019 0.04437509 0.35944378 -0.10917462 0.13024631
-0.006862464 -0.12366778 0.22145192 -0.042335458 0.06716049 0.1345034 0.025454197 0.21045901
0.07680954 0.16351616 -0.2158054 0.052979294 -0.029497802 0.12173113 0.031819854 0.4250569
0.108365715 -0.14575343 0.049525667 0.39790493 -0.058923382 0.07184169 -0.15771122 0.056226723
0.328464 0.006477612 -0.0288075 -0.059610605 0.09975975 0.0021347106 -0.7340465 -0.38045514
0.12727353 0.014340691 -0.24415186 0.23327288 -0.0036660386 0.0073890486 0.014539043 -0.13254385
-0.07800114 -0.0075018564 -0.15339816 0.017605158 0.38124087 0.331988 -0.21077318 0.18917485
0.18634398 0.14020236 0.070891626 -0.0453819 -0.3037817 -0.017579691 0.065871164 0.14362867
00000000: 081e a4bd 9489 693e eecb 86bc 4e6b adbd
00000010: 76f9 09bf e006 e2bd 9df8 b4bc 51e6 803c
00000020: be65 be3d d09b dfbd cf97 ca3c 83f3 a43d
00000030: 5af0 983d d23d ee3c de20 043e d681 43bd
00000040: 3c5c eabd 2532 1cbe 2bf7 1cbe 15d7 603d
00000050: 5e75 5fbe e487 863d b01d 1dbe f15b 14be
00000060: e6cd f53c 7609 773d 2b12 b63d 570d 943d
00000070: 04f9 953d 504e acbc d1a4 c5bd 10ab c63c
00000080: 43cb d83e dfa0 933e 901f 88bd 571c 14bd
00000090: 2796 0c3e a450 f9bd 6844 8cbe 4724 32be
000000a0: c79f 16be 90a9 61be bc92 813d bb59 ea3d
000000b0: 9f2e e9bd 7698 213d 8312 04bd b885 06be
000000c0: 435f cbbd 8b12 c33d 8535 1a3e 7ba3 6dbe
000000d0: 4955 163d df1c fcbd 8aee 35be a1e3 573e
000000e0: 2f96 8e3c f4d1 f9bb 1cad d93d fad1 993d
000000f0: 2efd af3e 05c6 233d 7cfa 4abd 1717 c9be
00000100: 080b 3c3d 4615 20bd e2ea 67be f05e 833e
00000110: 216c 56bd 290e 183d 6d0b 6dbe 97be cabc
00000120: c04c 91bd 8c2f 6bbe a8c8 0e3e d981 5d3e
00000130: 96d9 1b3e 7941 923c b804 bd3c 5328 3ebe
00000140: 9e71 843d a599 02bd 5105 dcbd 4930 27be
00000150: 4ce1 2a3c 5467 b23e b8f7 13be 8655 6f3d
00000160: 79c5 0f3e f751 043d 347f b43d d2b3 46bc
00000170: 490a 203e a9c8 ab3e bbf8 423d 78dd 3f3c
00000180: 9763 67be 3400 773d 13e6 a5be b87b d5bc
00000190: 8f82 9e3d 4338 eb3c 8955 05be c728 56bd
000001a0: b50d 4e3d 0eaa 09bc 32f1 e53c e726 f8bd
000001b0: 8818 43bd 89ee 70bd 3ed1 273d 8d22 2e3e
000001c0: 643d 113e de85 16be b619 f4bd 906f ecbc
000001d0: 9c0b c43d 8fc1 d1bd f752 01be 639b e1bc
000001e0: f99b dabd 556f 613e f3c3 1d3e 9000 39bd
000001f0: 22b0 83be 66de 3abe af2d d63d 2ff5 d43e
00000200: d611 723d bd7e adbd 00dd 243c 0d0e 0a3f
00000210: dfc2 e0be e2ed 673e 37c1 cebd 6228 76be
00000220: bb52 92be 6491 f1bd e00c 783e b415 e5bc
00000230: c4a2 dbbe eb8a 703e 9d6d 123d 8e9d 263d
00000240: 00be f73d 7163 b43c c91a 1e3e c630 0bbb
00000250: e0f4 76bc f6eb c1bd 6077 5b3d a438 c4bc
00000260: f5cf 70be 1b09 b3bd d2cc e33e a324 90bd
00000270: d232 14bc efe5 c6bd ffaf a8bd 743c ab3e
00000280: 8d18 e4bd 9060 0e3d 8bb0 82be 001e e4bc
00000290: 73a5 9e3e 74c9 4bbe 5bd3 2a3d 0530 6c3e
000002a0: 2927 a23d 5809 c7bd be86 51bd e758 10be
000002b0: 86d5 463d 37d0 c7bc 40dd 03be 7353 62bd
000002c0: d4d8 233d 3cca 4b3d 935a 8b3e 7ea1 b0bd
000002d0: 4102 973e 7629 27be e43d fb3d 09cf 4c3e
000002e0: 39ad 7e3e e510 4ebe 7732 8ebd d14d 1b3e
000002f0: bad5 8b3d 6824 c7bc 453d 38bd f6ef ad3e
00000300: 0996 6b3d ecd0 4f3e 1069 3cbd cdc9 283c
00000310: a8c2 353d 0409 b83e f196 dfbd 4a5f 053e
00000320: 85de e0bb 8845 fdbd 4bc4 623e f267 2dbd
00000330: 708b 893d 42bb 093e 5285 d03c 9182 573e
00000340: 524e 9d3d c870 273e 17fc 5cbe d100 593d
00000350: 60a5 f1bc 2c4e f93d 8955 023d 0fa1 d93e
00000360: d8ee dd3d 6340 15be 6ddb 4a3d 32ba cb3e
00000370: a559 71bd bc21 933d 0d7f 21be fe4d 663d
00000380: 6f2c a83e 2642 d43b b5fd ebbc 402a 74bd
00000390: d74e cc3d 80e6 0b3b 79ea 3bbf 04cb c2be
000003a0: fe53 023e 38f5 6a3c f202 7abe 16df 6e3e
000003b0: ec41 70bb d51f f23b 2b35 6e3c 93b9 07be
000003c0: 10bf 9fbd 22d2 f5bb 6814 1dbe b138 903c
000003d0: 0132 c33e 55fa a93e edd4 57be 0db7 413e
000003e0: f5d0 3e3e 3591 0f3e a12f 913d 5fe2 39bd
000003f0: 4689 9bbe 4903 90bc 76e7 863d 6513 133e

fc1.bias f4 [256]
0.063781805 -0.4317529 -0.3675742 -0.2537169 -0.29521534 0.021953465 -0.06702217 0.06858964
-0.18426645 -0.3686659 -0.33144277 -0.2122278 -0.4775636 -0.29640257 -0.0799719 -0.10432065
-0.5675557 -0.5254655 -0.2955083 -0.32662505 -0.07586417 0.0367344 -0.35125414 -0.21238898
-0.3595475 -0.35252932 -0.30978736 -0.34718204 -0.3581965 0.037517294 -0.32619822 -0.30865332
-0.2974476 -0.036504332 -0.42364818 -0.23200075 -0.1498049 -0.33590764 -0.19594306 -0.30995104
-0.4343506 -0.24177083 -0.015316377 -0.07287042 -0.515842 -0.31299806 -0.19809054 -0.3085572
-0.126207 0.09561914 -0.116067745 0.031120224 -0.10520861 -0.5033786 -0.33907118 -0.20136604
-0.24184494 -0.3077145 -0.3918933 -0.3123557 -0.13179274 0.051079657 -0.060864404 -0.19216089
0.07938312 -0.47314534 -0.076956876 -0.17029105 -0.23325512 -0.0837196 -0.24694869 0.014211925
-0.41798654 -0.048179287 -0.15521552 -0.17196038 -0.19472247 -0.5536843 -0.6217465 -0.34029004
-0.35796332 -0.38305372 -0.37474102 -0.34453332 -0.17047963 -0.40878946 -0.06642994 -0.4122513
-0.35484093 0.06396549 -0.3448312 0.10371879 -0.26694813 -0.42483148 -0.1433994 -0.4894734
-0.2874923 -0.40714034 -0.5033043 -0.24171391 -0.33277112 -0.4794966 -0.43712813 -0.46244043
-0.366231 -0.23870456 -0.44649833 -0.33382335 -0.13365194 -0.06592822 -0.14245519 -0.32321537
-0.20323329 -0.46777093 0.04998447 -0.56719273 -0.18143825 -0.35555562 -0.44339725 -0.61963177
-0.063118204 -0.12383357 -0.27444616 -0.2623618 -0.36533776 -0.11691131 -0.16557506 -0.15017451
-0.3728593 -0.26352936 -0.1629561 -0.09628041 -0.30692938 -0.3169244 -0.25103056 -0.21444647
-0.31568238 -0.1591885 -0.15672673 0.009544369 -0.362822 -0.3312871 -0.1955196 0.16044803
-0.29304907 -0.27672765 -0.43234023 -0.058603164 -0.042594228 -0.29603902 -0.46961108 -0.21907265
-0.42241523 -0.107803725 -0.04859103 -0.35529515 -0.27476716 -0.06719126 -0.07762858 -0.16836217
-0.449439 -0.31340238 -0.22013882 -0.2528236 -0.34306374 -0.07141425 -0.2054202 -0.2281167
-0.1689528 -0.04952507 -0.37592888 -0.2677701 -0.3484758 0.025801055 -0.31022897 -0.21383294
-0.22655436 -0.099392846 -0.20992015 -0.3884647 -0.17057675 0.059812758 -0.08736276 -0.31794032
-0.27701196 -0.15766028 0.09207588 -0.4280673 -0.26628795 -0.46969333 -0.08913578 -0.2706004
-0.51480275 -0.13294666 -0.069319434 -0.10208101 -0.14638649 0.013250107 -0.32311788 -0.25790796
-0.24822903 -0.24372052 -0.6085619 -0.31630966 0.091245815 -0.030594934 -0.53714025 -0.2295754
-0.29166692 -0.18793078 -0.31363484 -0.0022472213 -0.07742019 -0.27397475 -0.14908713 0.051346682
-0.31411785 -0.42296687 0.10687574 -0.44945538 -0.3401076 -0.20502271 -0.2755189 -0.10210776
-0.23085135 -0.28743744 -0.4262939 -0.40064883 -0.41577822 -0.2837067 -0.16890909 -0.2958087
0.13111432 -0.11767655 -0.4345353 -0.6378061 -0.34797707 -0.20433415 -0.44451427 -0.10466861
-0.63356125 -0.37685126 -0.4389667 -0.39828098 -0.29668438 -0.28257495 -0.16715582 -0.65042
-0.4237108 -0.16293988 -0.14585802 -0.03895489 -0.4401442 -0.34143576 -0.5435139 -0.16213053
00000000: 09a0 823d b70e ddbe af32 bcbe 2ee7 81be
00000010: 7726 97be c1d7 b33c eb42 89bd ba78 8c3d
00000020: 58b0 3cbe c7c1 bcbe deb2 a9be 3f52 59be
00000030: 3783 f4be 14c2 97be 4fc8 a3bd 11a6 d5bd
00000040: 554b 11bf e884 06bf dd4c 97be 663b a7be
00000050: ad5e 9bbd cf76 163d 95d7 b3be 7f7c 59be
00000060: 9c16 b8be b97e b4be 739c 9ebe d8c1 b1be
00000070: 8865 b7be bcab 193d 7403 a7be cf07 9ebe
00000080: 0d4b 98be 9185 15bd 6ae8 d8be 9b91 6dbe
00000090: 7566 19be 16fc abbe 4ca5 48be e7b1 9ebe
000000a0: 3463 debe c692 77be 8bf1 7abc 163d 95bd
000000b0: 390e 04bf 4841 a0be 3fd8 4abe 36fb 9dbe
000000c0: 683c 01be f8d3 c33d edb4 edbd d7ef fe3c
000000d0: 9d77 d7bd 6cdd 00bf bd9a adbe e632 4ebe
000000e0: 33a6 77be c18c 9dbe 3da6 c8be 16ed 9fbe
000000f0: adf4 06be e738 513d f44c 79bd d3c5 44be
00000100: 9e93 a23d 1b40 f2be 919b 9dbd c760 2ebe
00000110: 6eda 6ebe 2f75 abbd 1ee0 7cbe 22d9 683c
00000120: 5502 d6be a557 45bd d1f0 1ebe 6216 30be
00000130: 5465 47be 41be 0dbf c72a 1fbf 7f3a aebe
00000140: f846 b7be 9e1f c4be 0ede bfbe ac66 b0be
00000150: 3692 2ebe da4c d1be 6c0c 88bd 9a12 d3be
00000160: b6ad b5be 5700 833d b78d b0be 846a d43d
00000170: 6dad 88be 8383 d9be 4bd7 12be 429c fabe
00000180: 3132 93be b374 d0be 8dd8 00bf da83 77be
00000190: fa60 aabe 9480 f5be 42cf dfbe fec4 ecbe
000001a0: a182 bbbe f86e 74be 6e9b e4be e5ea aabe
000001b0: 0edc 08be 6005 87bd c6df 11be 7c7c a5be
000001c0: 631c 50be ac7f efbe 84bc 4c3d 8b33 11bf
000001d0: f3ca 39be 630b b6be f704 e3be 30a0 1ebf
000001e0: 1e44 81bd 749c fdbd 3584 8cbe 4954 86be
000001f0: 8d0d bbbe 326f efbd 828c 29be 59c7 19be
00000200: 6ae7 bebe 52ed 86be f7dd 26be aa2e c5bd
00000210: d925 9dbe ea43 a2be 1487 80be db97 5bbe
00000220: 1fa1 a1be 4f02 23be f97c 20be fc5f 1c3c
00000230: cec3 b9be 769e a9be 4a36 48be 7d4c 243e
00000240: 870a 96be 3faf 8dbe b35b ddbe df09 70bd
00000250: 4977 2ebd 6d92 97be dd70 f0be 9554 60be
00000260: cf46 d8be 33c8 dcbd 6307 47bd 3fe9 b5be
00000270: 48ae 8cbe 929b 89bd bcfb 9ebd 2267 2cbe
00000280: de1c e6be 4776 a0be 126c 61be 1872 81be
00000290: 0da6 afbe a241 92bd ac59 52be 6d97 69be
000002a0: f601 2dbe cdda 4abd c079 c0be 2a19 89be
000002b0: 6c6b b2be bc5c d33c 55d6 9ebe 06f7 5abe
000002c0: defd 67be 7a8e cbbd 4ff5 56be d8e4 c6be
000002d0: acab 2ebe 39fe 743d 3feb b2bd 13c9 a2be
000002e0: 83d4 8dbe b271 21be 4792 bc3d a32b dbbe
000002f0: e556 88be a57b f0be d28c b6bd 238c 8abe
00000300: 1dca 03bf 2b23 08be 59f7 8dbd d90f d1bd
00000310: 57e6 15be fa16 593c b56f a5be 830c 84be
00000320: c02f 7ebe df91 79be b6ca 1bbf 57f3 a1be
00000330: 16df ba3d 3aa2 fabc 0682 09bf d015 6bbe
00000340: 5e55 95be ed70 40be bf94 a0be 1e46 13bb
00000350: 7a8e 9ebd 6b46 8cbe 4caa 18be e650 523d
00000360: 0ed4 a0be 1d8f d8be abe1 da3d 041f e6be
00000370: 9522 aebe 79f1 51be d010 8dbe e01d d1bd
00000380: 4c64 6cbe 002b 93be 3243 dabe d821 cdbe
00000390: e2e0 d4be 0142 91be 81f6 2cbe 3d74 97be
000003a0: d542 063e 6700 f1bd 697b debe 4347 23bf
000003b0: 0d2a b2be f93c 51be 6097 e3be 7f5c d6bd
000003c0: 1231 22bf a6f2 c0be 3ec0 e0be 7ceb cbbe
000003d0: 04e7 97be aaad 90be e52a 2bbe ed81 26bf
000003e0: 9ff0 d8be b6d9 26be ce5b 15be 2a8f 1fbd
000003f0: 955a e1be abd0 aebe ba23 0bbf 8c05 26be

fc2.weight f4 [128, 260]
0.025667854 -0.095681086 0.0032782387 -0.07775512 -0.050645884 0.044828583 0.035789106 -0.058805313
-0.09398087 0.02694294 0.025436033 -0.038678683 0.028176518 0.029481309 0.018240802 -0.09556092
-0.037217814 -0.014971693 0.019350452 -0.107360266 -0.004963641 0.0017257709 0.04872853 -0.11352531
-0.042272624 -0.04391632 -0.01944294 -0.08823474 -0.095317446 -0.0018207253 -0.042914655 0.032672554
-0.0943917 -0.011551068 -0.048512228 -0.08326218 -0.030792357 -0.048011493 0.010269883 0.051444527
0.022774478 0.009554184 -0.023381772 0.009972554 -0.08444024 -0.07125622 0.0020581258 -0.11180212
-0.09332013 -0.09387528 -0.1081297 -0.115298204 -0.09689272 -0.06557573 -0.09537462 0.006300297
0.019926477 -0.11631061 0.006061885 -0.026937742 0.044817146 -0.02290933 0.043478005 0.06369531
-0.1248284 -0.065116525 -0.028919108 0.012617931 -0.058537196 0.021832868 0.0219958 -0.05844692
0.058845714 0.0047343997 -0.040820215 -0.001935841 0.008988467 -0.059606057 -0.09236131 -0.07868544
-0.048927214 0.054814138 0.050780106 -0.013561235 -0.083498165 -0.033203937 -0.07904964 -0.057139274
-0.012666356 -0.09540441 -0.114895 -0.017432751 -0.06897974 -0.063864134 -0.08689759 -0.040868673
-0.019999718 -0.017874027 0.024012437 -0.0047464194 -0.08216133 0.02338929 -0.09963418 0.015878407
-0.079335645 -0.011518593 -0.027366806 -0.080611005 -0.04651757 -0.0798098 0.0035743664 -0.035729654
0.038278766 -0.092932925 0.011261608 -0.010084696 -0.029074622 -0.081227496 0.008954353 -0.107991934
0.005008612 -0.007954637 -0.06602798 -0.0042224517 -0.067785904 -0.093768805 -0.020657374 -0.09200338
0.014959052 0.0044732937 -0.010753362 -0.008805515 0.021991175 -0.038022768 -0.041333318 -0.09899885
0.065071516 -0.06362027 -0.019518089 -0.08569753 0.029658416 0.050250582 0.019655233 -0.03587421
-0.091715276 0.004732414 -0.0150699 0.0022024505 -0.11757801 -0.09841161 -0.059918426 0.029227605
-0.009351428 0.036382105 -0.07476799 0.0091741625 0.038265165 -0.11910975 -0.06658287 0.013446592
0.0572799 -0.074422956 -0.07715749 -0.083161995 0.034316394 -0.050765827 -0.08419578 0.027914789
0.045954537 -0.004163222 0.0564839 -0.039643236 -0.070631444 0.004899021 0.0061756363 -0.09050403
0.0044852863 -0.100486524 -0.10659124 -0.09905608 -0.022805281 -0.039483413 -0.06761186 0.046748362
0.022048304 -0.0049368367 -0.080524795 0.037782643 0.040341273 0.015360537 -0.042069066 -0.032075647
-0.056200273 -0.0938332 -0.111806616 -0.009418623 -0.030416911 -0.10658491 -0.084263496 -0.0075098197
0.053497992 -0.0065533165 -0.06107859 0.011819332 -0.07698314 -0.09055264 -0.043195 -0.04013931
-0.044665154 0.00991079 -0.049817752 -0.07544046 -0.07389179 0.06757504 -0.1159955 0.04827474
0.026816947 0.047078516 -0.040779926 -0.008860323 -0.050977465 -0.07765756 -0.010792169 -0.008609786
-0.005605346 0.02908883 0.039389286 0.035847634 0.0052368743 0.06148159 0.0061978875 -0.035887208
-0.081908695 0.006104727 -0.0065784273 0.05308508 0.032449868 0.011325904 -0.0403523 0.0001221803
0.031982496 0.004229965 -0.012682925 0.005114084 -0.084465146 0.01029895 0.01284709 0.045347296
-0.08190818 -0.06805533 0.024002781 -0.074358046 0.06005475 0.0012717382 -0.099217795 -0.02364609
00000000: 6445 d23c 72f4 c3bd b8d7 563b 143e 9fbd
00000010: 0f72 4fbd 2d9e 373d 9997 123d d7dd 70bd
00000020: 0b79 c0bd 71b7 dc3c 3a5f d03c 8a6d 1ebd
00000030: 71d2 e63c c982 f13c bc6d 953c 72b5 c3bd
00000040: b571 18bd d54b 75bc d784 9e3c b3df dbbd
00000050: 0aa6 a2bb 4333 e23a 9197 473d f57f e8bd
00000060: 0f26 2dbd 99e1 33bd cd46 9fbc 6ab4 b4bd
00000070: cb35 c3bd 67a5 eeba 47c7 2fbd a8d3 053d
00000080: 7050 c1bd b140 3dbc c2b4 46bd 5d85 aabd
00000090: 4140 fcbc b3a7 44bd 0343 283c 7fb7 523d
000000a0: 8b91 ba3c 2789 1c3c 218b bfbc ec63 233c
000000b0: 01ef acbd c8ee 91bd 9fe1 063b 83f8 e4bd
000000c0: a01e bfbd af41 c0bd 1b73 ddbd 7721 ecbd
000000d0: b16f c6bd 914c 86bd c553 c3bd b972 ce3b
000000e0: da3c a33c 4234 eebd c7a2 c63b 8aac dcbc
000000f0: 2f92 373d 59ac bbbc fe15 323d b072 823d
00000100: 08a6 ffbd d05b 85bd c4e7 ecbc 70bb 4e3c
00000110: b3c4 6fbd d8da b23c 8930 b43c 0a66 6fbd
00000120: 3408 713d 0623 9b3b 1933 27bd 0cbc fdba
00000130: 5d44 133c 7b25 74bd ed27 bdbd d525 a1bd
00000140: e767 48bd ca84 603d cdfe 4f3d f12f 5ebc
00000150: 1601 abbd da00 08bd c7e4 a1bd df0a 6abd
00000160: 8c86 4fbc 6363 c3bd 124e ebbd 21cf 8ebc
00000170: 4045 8dbd 33cb 82bd 5df7 b1bd e965 27bd
00000180: 73d6 a3bc 8d6c 92bc bbb5 c43c da87 9bbb
00000190: 3344 a8bd e59a bf3c 010d ccbd 6f13 823c
000001a0: ba7a a2bd 7bb8 3cbc 5a30 e0bc 6217 a5bd
000001b0: 3589 3ebd 5273 a3bd eb3f 6a3b 4259 12bd
000001c0: 32ca 1c3d 9e53 bebd 9c82 383c 483a 25bc
000001d0: e72d eebc 9a5a a6bd 47b5 123c e02a ddbd
000001e0: 481f a43b 2a54 02bc ad39 87bd 7e5c 8abb
000001f0: 56d3 8abd dc09 c0bd a739 a9bc 456c bcbd
00000200: d016 753c b594 923b df2e 30bc 0245 10bc
00000210: d626 b43c c3bd 1bbd 204d 29bd e9bf cabd
00000220: 3744 853d 584b 82bd 66e4 9fbc 3082 afbd
00000230: 35f6 f23c 8ed3 4d3d 0304 a13c d6f0 12bd
00000240: 38d5 bbbd 5e12 9b3b bee7 76bc fd56 103b
00000250: bdcc f0bd 078c c9bd 066d 75bd bb6e ef3c
00000260: bb36 19bc 6705 153d f61f 99bd 3a4f 163c
00000270: efbb 1c3d d0ef f3bd 9a5c 88bd 184f 5c3c
00000280: 549e 6a3d 106b 98bd bf04 9ebd d650 aabd
00000290: 598f 0c3d d4ef 4fbd d66e acbd 8ead e43c
000002a0: d33a 3c3d a36b 88bb a95b 673d f260 22bd
000002b0: 38a7 90bd f787 a03b fe5c ca3b 2d5a b9bd
000002c0: 4ff9 923b e1cb cdbd 824c dabd eadd cabd
000002d0: 24d2 babc 5cb9 21bd 1678 8abd 367b 3f3d
000002e0: a59e b43c 30c5 a1bb 2fea a4bd f9c1 1a3d
000002f0: e43c 253d c3aa 7b3c 9d50 2cbd c161 03bd
00000300: 4232 66bd 9f2b c0bd defa e4bd 9150 1abc
00000310: e32c f9bc 3049 dabd 5792 acbd ef14 f6bb
00000320: b620 5b3d 34bd d6bb 8b2d 7abd dfa5 413c
00000330: 56a9 9dbd aa73 b9bd 3eed 30bd 1e69 24bd
00000340: cff2 36bd de60 223c b30d 4cbd 8780 9abd
00000350: 9454 97bd c864 8a3d 0c8f edbd bcbb 453d
00000360: 37af db3c 67d5 403d da08 27bd e32a 11bc
00000370: bfcd 50bd ed0a 9fbd a3d1 30bc 0f10 0dbc
00000380: 0dad b7bb b34b ee3c a956 213d f8d4 123d
00000390: 169a ab3b 1fd4 7b3d a617 cb3b 77fe 12bd
000003a0: bfbf a7bd 290a c83b d98f d7bb be6f 593d
000003b0: 27ea 043d 4990 393c 7448 25bd 861d 0039
000003c0: 1400 033d 859b 8a3b 0bcc 4fbc 0c94 a73b
000003d0: 10fc acbd edbc 283c 9a7c 523c 16be 393d
000003e0: 7abf a7bd 9860 8bbd 7ba1 c43c 0849 98bd
000003f0: f8fb 753d 74b0 a63a b332 cbbd 72b5 c1bc

fc2.bias f4 [128]
-0.028821252 -0.004009765 -0.037822597 -0.086530015 -0.11485221 0.1435477 -0.043847844 0.023159103
-0.12839872 -0.070165 0.058809604 -0.06267315 -0.121721745 -0.045338754 -0.03410825 0.26838425
-0.020336458 -0.06260174 0.0021275482 -0.093649134 -0.015391785 -0.060894668 -0.097139075 -0.06860161
0.0004003515 -0.098453656 -0.03881327 -0.0111414725 -0.0958854 -0.044021007 -0.011083265 -0.058942024
0.011605264 -0.08324718 -0.08029581 -0.076479845 -0.088589996 0.0052445126 -0.007403194 -0.111785606
-0.05553313 -0.045896187 -0.088137865 0.1317234 -0.08916089 -0.056832824 -0.03582488 -0.04998396
-0.056731444 -0.07806881 0.025250163 -0.027931334 0.45831415 -0.0814901 -0.018020237 -0.043089878
-0.07621369 0.023924176 -0.025731731 -0.041778103 -0.03634032 -0.13042945 -0.07298182 -0.051893335
-0.050241668 -0.086238325 -0.08341604 0.005855838 -0.07190473 -0.09860152 -0.101335846 -0.09780457
-0.0026942512 0.016977753 0.017187336 0.019661225 -0.069743365 -0.11964834 -0.020842368 0.0008572942
-0.1310543 -0.053384468 -0.043206118 -0.0482686 0.007130206 -0.083288 -0.108658984 -0.016161965
0.03203206 -0.14997761 -0.05387429 -0.01018544 -0.07924992 -0.078523785 0.000994075 -0.0238977
-0.054185864 -0.048652366 -0.07023141 -0.014932207 0.027011864 0.2719034 -0.0825559 -0.0654965
-0.060298964 -0.08402413 -0.026870186 -0.04952418 -0.009106836 0.01339296 -0.050762616 -0.03252352
-0.05647023 0.022215512 0.011993882 -0.049119584 -0.005252363 -0.06930578 0.004200544 -0.071915455
-0.027656356 -0.00087602466 -0.11869532 -0.11122249 -0.06091732 0.019679645 -0.0850282 -0.0549244
00000000: 8c1a ecbc 5964 83bb deeb 1abd a636 b1bd
00000010: a337 ebbd 2bfe 123e cc99 33bd 29b8 bd3c
00000020: f47a 03be abb2 8fbd 57e2 703d c85a 80bd
00000030: 4049 f9bd 21b5 39bd 18b5 0bbd a969 893e
00000040: a598 a6bc 5735 80bd 566e 0b3b 1ecb bfbd
00000050: d32d 7cbc b06c 79bd daf0 c6bd 007f 8cbd
00000060: 45e6 d139 12a2 c9bd aafa 1ebd b98a 36bc
00000070: 915f c4bd 5f4f 34bd 9596 35bc 316d 71bd
00000080: 0124 3e3c 7f7d aabd 2172 a4bd 77a1 9cbd
00000090: ac6e b5bd 29da ab3b 7e96 f2bb daef e4bd
000000a0: b576 63bd a4fd 3bbd a081 b4bd 80e2 063e
000000b0: fc99 b6bd 89c9 68bd 1cbd 12bd fbbb 4cbd
000000c0: 3b5f 68bd 8ae2 9fbd 6ed9 ce3c 41d0 e4bc
000000d0: 27a8 ea3e 48e4 a6bd 2d9f 93bc 037f 30bd
000000e0: ec15 9cbd a2fc c33c 5acb d2bc 841f 2bbd
000000f0: 96d9 14bd 4c8f 05be 7e77 95bd 1b8e 54bd
00000100: 35ca 4dbd b89d b0bd 07d6 aabd 54e2 bf3b
00000110: c942 93bd 98ef c9bd 2b89 cfbd c34d c8bd
00000120: 0992 30bb ee14 8b3c 75cc 8c3c 9410 a13c
00000130: 9cd5 8ebd 300a f5bd 9dbd aabc 0abc 603a
00000140: 1933 06be aca9 5abd e6f8 30bd 4cb5 45bd
00000150: 81a4 e93b e692 aabd 9a88 debd 1966 84bc
00000160: 0d34 033d bb93 19be 4aab 5cbd d5e0 26bc
00000170: c84d a2bd 14d1 a0bd 9f4b 823a 1cc5 c3bc
00000180: fff1 5dbd b447 47bd 7cd5 8fbd 37a6 74bc
00000190: fc47 dd3c ec36 8b3e 1113 a9bd 0723 86bd
000001a0: 0cfc 76bd d814 acbd dd1e dcbc ded9 4abd
000001b0: d734 15bc 256e 5b3c 76ec 4fbd 6237 05bd
000001c0: 544d 67bd 4efd b53c fd81 443c 9e31 49bd
000001d0: 041c acbb 30f0 8dbd b8a4 893b 6948 93bd
000001e0: 958f e2bc 05a5 65ba 8816 f3bd 9ec8 e3bd
000001f0: 7184 79bd 3537 a13c 4423 aebd 68f8 60bd

fc3.weight f4 [1, 128]
-0.014322263 -0.00068630517 0.004925049 -0.029712899 -0.021658339 0.034392696 0.008584426 -0.014762645
-0.0005385721 -0.0006246247 0.0135700265 0.0047584604 -0.024966272 0.016346363 -0.010498284 0.03325525
-0.019504055 -0.007551093 0.02008655 -0.020669129 0.0054737176 -0.023187146 -0.0053969016 0.0039857044
0.03885662 0.025579242 0.0006864441 -0.00979867 -0.0073975506 -0.029339505 -0.0063807056 -0.0021780047
-0.026210437 0.013799756 0.002289655 0.011064424 0.025064366 -0.024031648 -0.019131113 -0.025178708
0.019877862 0.014802075 0.016759824 -0.0042922427 -0.0147016505 0.02632431 0.0061133923 0.00063746405
0.012239166 -0.011402081 -0.007953074 -0.017162506 0.025056504 0.0047950437 0.023260325 -0.008807278
-0.028966134 0.029688627 0.017085692 -0.022093885 0.018634966 -0.010732122 -0.012203316 0.0124455
-0.00806509 0.025302565 0.031294614 -0.027966809 -0.005513735 -0.007947105 -0.0014700004 -0.009400287
-0.011752391 -0.0012843506 0.04948412 -0.017835004 0.024520732 -0.008441972 -0.014581864 0.008830617
0.0065375566 0.0010478796 0.018197952 0.0020252238 0.0041830484 -0.024576519 0.022070741 -0.0034406502
0.010510281 -0.015571878 -0.009595499 -0.0022773535 0.0023728036 0.018685792 -0.007258377 0.0011333189
-0.012706834 0.0056881616 0.0040525934 -0.020735687 0.010539919 0.016893184 0.025215665 -0.0013215042
0.024091579 -0.003554552 0.021803027 0.022546628 -0.012531267 -0.0061863405 -0.011988474 0.0067207892
-0.006678097 0.025388654 0.0115315225 -0.02445039 0.0034768023 -0.0036383811 -0.010814989 0.009769193
-0.010802169 0.00027126665 -0.00037535175 0.0032172578 0.01785036 0.0024969345 0.0074187256 -0.0045395754
00000000: eda7 6abc 29e9 33ba 4e62 a13b 7768 f3bc
00000010: d46c b1bc 5bdf 0c3d b1a5 0c3c 05df 71bc
00000020: f62e 0dba dbbd 23ba d154 5e3c dcec 9b3b
00000030: 1186 ccbc cfe8 853c ff00 2cbc a836 083d
00000040: f8c6 9fbc 296f f7bb 8c8c a43c 4e52 a9bc
00000050: df5c b33b f8f2 bdbc 7ed8 b0bb 839a 823b
00000060: 1f28 1f3d 8f8b d13c 7cf2 333a 9a8a 20bc
00000070: 2767 f2bb 6759 f0bc 3d15 d1bb dbbc 0ebb
00000080: 45b7 d6bc 5f18 623c 090e 163b 8f47 353c
00000090: c953 cd3c 05de c4bc dab8 9cbc 9443 cebc
000000a0: e6d6 a23c 6784 723c e64b 893c f1a5 8cbb
000000b0: 31df 70bc 14a6 d73c da52 c83b 7d1b 273a
000000c0: c886 483c cbcf 3abc 9c4d 02bc 6298 8cbc
000000d0: 4c43 cd3c be1f 9d3b 708c be3c 674c 10bc
000000e0: 634a edbc 9035 f33c 4bf7 8b3c 3cfe b4bc
000000f0: 5ba8 983c c8d5 2fbc 6bf0 47bc 36e8 4b3c
00000100: 7023 04bc 5347 cf3c c82e 003d a61a e5bc
00000110: 90ac b4bb 9334 02bc 07ad c0ba a903 1abc
00000120: 1a8d 40bc a857 a8ba dcaf 4a3d b71a 92bc
00000130: b4df c83c 3250 0abc c5e8 6ebc 4bae 103c
00000140: 0039 d63b 0159 893a df13 953c 9eb9 043b
00000150: f411 893b b254 c9bc b3cd b43c 887c 61bb
00000160: 5033 2c3c 3121 7fbc 7136 1dbc a73f 15bb
00000170: 0a81 1b3b f212 993c aed7 edbb df8b 943a
00000180: 5330 50bc c263 ba3b 9ecb 843b e3dd a9bc
00000190: a0af 2c3c 9363 8a3c 1591 ce3c 5336 adba
000001a0: b45b c53c 7df3 68bb 439c b23c b5b3 b83c
000001b0: f14f 4dbc c9b6 cabb 4e6b 44bc 113a dc3b
000001c0: f0d3 dabb defb cf3c b6ee 3c3c 2f4c c8bc
000001d0: 10db 633b e871 6ebb 5a31 31bc f70e 203c
000001e0: 95fb 30bc cb38 8e39 dcca c4b9 a1d8 523b
000001f0: eb3a 923c 9ca3 233b c818 f33b b8c0 94bb
