checkpoint_actor_v1.pth (torch_old, 541437 bytes, 6 tensors)

fc1.weight f4 [400, 33]
000000 b3 39 49 bd 3b 59 02 be 3d 3e 74 bd be cd a7 bb
       -0.049127292 -0.12729351 -0.059629668 -0.005120962
000010 66 6d cb bc a6 3c d3 3c 1e f1 ca bc 30 6c c2 bc
       -0.024832439 0.025785755 -0.024773177 -0.023733228
000020 81 19 1e 3c 05 43 b0 bc 11 5a fc bc f3 4e 0d bd
       0.009649635 -0.021516332 -0.030804666 -0.03449912
000030 19 0c 01 bd f2 26 07 bd a6 b5 35 bd 1b b2 95 bd
       -0.031505678 -0.032996126 -0.044362687 -0.073093615
000040 c7 f2 5e bd fc a7 22 bc 99 e3 ae 3d 46 16 6a bc
       -0.05443075 -0.009927746 0.085395046 -0.014287537
000050 a0 70 1e 3c ee 4c 80 bd 0d 2b 20 bd 93 8a 0d bb
       0.009670407 -0.06264673 -0.039103556 -0.002159749
000060 f3 46 91 bd 21 f7 9c bc 7f e7 28 b9 41 b1 24 bc
       -0.070936106 -0.019160809 -0.00016107968 -0.010052026
000070 5e 7f 8c bd 72 2a b9 3c 81 5d a3 3d b0 bd 20 bb
       -0.06860231 0.022603247 0.07976819 -0.0024527125
000080 fb 6e 75 bd 71 79 a7 3c dd 00 26 bd a7 cf a6 37
       -0.059920292 0.02044365 -0.040528167 1.9885438e-05
000090 f5 5a ab 3d 51 c3 a2 bc bb 0a eb 3a b2 f6 1c 3d
       0.08366958 -0.019868525 0.0017932275 0.038321204
0000a0 38 b5 11 3d 90 55 05 3d e2 15 f6 3c bd 91 9c 3b
       0.035573214 0.032552302 0.030039731 0.0047781155
0000b0 85 f1 2a 3d 13 01 07 bd 06 94 92 3d aa 5d 82 bd
       0.041734237 -0.03296001 0.071571395 -0.06365521
0000c0 c7 2d 9d bd e7 87 ba 3c 5b e7 79 bc fb 4e 83 3d
       -0.07674747 0.022769881 -0.015252913 0.06411549
0000d0 1f 57 29 bd 1d 41 92 3c 40 47 38 bc 9b 5f 3c 3c
       -0.04134285 0.017853314 -0.011247456 0.0114974035
0000e0 f4 2f b1 3c e5 0c 0e 3c 6f b6 d4 bc 6b 9f 75 bd
       0.021629311 0.0086700665 -0.025965897 -0.059966486
0000f0 43 87 a7 bd 74 0d e1 bd b0 e4 3e bb e7 84 b1 3d
       -0.08180096 -0.10988894 -0.0029128008 0.08667927
000100 1a db bb 3c 9d 25 2f bd 5e 6e e2 3c 24 c5 6b 3d
       0.022931624 -0.04276048 0.027640518 0.057561055
000110 83 25 8a bd 8a da d9 3b d9 a5 ca 3b 85 f8 1e 3d
       -0.06745436 0.0066483663 0.0061843214 0.038811225
000120 21 8a 5f bc 59 b1 98 3d 8b d3 b3 3d 8b c4 e7 3b
       -0.013643772 0.074557014 0.08780583 0.0070729903
000130 94 0e f8 3c 07 e6 a2 3d bf e6 d4 bc 94 06 f6 3c
       0.030280389 0.079540305 -0.025988935 0.030032434
000140 01 ec c3 3d b9 f6 b6 bc 59 81 c6 ba 2b bb 72 3d
       0.095664985 -0.022334443 -0.001514475 0.05926053
000150 8b 17 c3 3c 10 e9 25 bd a1 40 63 3d e2 56 51 3c
       0.023814937 -0.04050547 0.055481557 0.012777062
000160 3d e2 4a 3c 4e d2 f8 3a 10 d7 f4 bc cb dc 70 3d
       0.012383041 0.0018983574 -0.029887706 0.058804315
000170 45 69 db bb bf 66 98 bd 9f bf e5 3d 24 7e 6a 3c
       -0.0066958987 -0.07441472 0.112181894 0.014312301
000180 76 ca 6f 3d 54 80 73 bc 1c e4 6d 3d 2d 74 b4 bc
       0.05854269 -0.014862139 0.05807887 -0.022028053
000190 d8 35 bd bc 71 e7 8c bd 52 cc 99 3d ff 54 0c 3c
       -0.023096964 -0.068800814 0.07509674 0.0085651865
0001a0 19 92 ff 3c 3b 68 04 3d 28 4f 2d 3d 07 55 92 bb
       0.031197594 0.032325964 0.042311817 -0.0044657025
0001b0 06 d4 82 3b eb 8e 07 3d 03 ab a7 3b 95 0b 80 3c
       0.0039925603 0.03309528 0.0051168217 0.015630523
0001c0 5d dd cb bd 4a 02 0e bd 11 de 89 bc 48 a5 dc bc
       -0.09954331 -0.03467015 -0.016829522 -0.026934281
0001d0 cc 73 a2 3a 22 83 ac 3c 98 73 8e 3c 0a 3c 4c bc
       0.0012394129 0.021058623 0.017389104 -0.012465486
0001e0 63 b8 12 3d a8 e0 4c bd 25 de 69 bd 0e 07 aa bb
       0.035820376 -0.050018936 -0.05709662 -0.0051888293
0001f0 d9 ab 57 3c 88 4a 18 3e 71 15 86 bd 7f c4 4e bd
       0.01316353 0.14872181 -0.065470584 -0.050480362
000200 00 d5 1b bb 1a d4 3e bc e5 d7 31 3d 54 b7 8c 3c
       -0.002377808 -0.011647249 0.043418784 0.017177261
000210 ea 5b 87 3b 97 8b 13 bd da be 8b 3c c3 04 59 b9
       0.00413083 -0.036021795 0.017058779 -0.00020696507
000220 3d fd 3e 3d 87 5c 64 bb 19 64 fa bc 89 33 6c 3c
       0.046628226 -0.003484519 -0.030565308 0.014416584
000230 d3 a3 e6 3c bf 75 78 3c 45 8c 43 3c f1 a3 74 bd
       0.02815429 0.015164792 0.011935298 -0.05972666
000240 93 cf 1f 3c 6d 57 a5 bb ed af c4 bd af 45 0c 3d
       0.009754079 -0.0050458224 -0.09603868 0.034246143
000250 b1 12 4d 3d a4 0f c4 bc 17 41 5b bd 70 05 40 3b
       0.050066654 -0.02393324 -0.05352887 0.0029300116
000260 d3 d8 2b 3d 2a 19 97 bb fb 35 ec 3c 40 cd af 3d
       0.041954827 -0.004611154 0.028834334 0.0858407
000270 e7 7e 64 bc 1e 49 8b bd e4 0a da bd 67 dc 7f bd
       -0.0139462715 -0.06801055 -0.106466085 -0.06246605
000280 dc 57 0a 3e a3 9a 4a 3d 08 be 85 3d d6 fe aa 3c
       0.13510078 0.04946388 0.06530386 0.020873468
000290 f0 fb 18 3d 7e f2 37 3b af d6 71 3c 2e 8f 44 3c
       0.03734964 0.002806812 0.014760657 0.011997027
0002a0 c4 49 30 3b 83 3c ed bc c0 4e 14 bd 3e 25 0b ba
       0.0026899436 -0.028959518 -0.036207914 -0.0005307979
0002b0 05 68 7f bc 9f 50 20 bd c1 7f 17 3d 81 03 cf 3d
       -0.015588765 -0.039139386 0.03698707 0.1010809
0002c0 c7 55 6d bc d0 9c 04 3c b7 d4 5c bd 77 3f db 3c
       -0.014485783 0.008094028 -0.0539138 0.02676366
0002d0 05 4a 8d 3d 99 21 60 3c 07 eb f0 3c 7d 71 33 3c
       0.06898884 0.013679885 0.029408945 0.010952351
0002e0 14 88 c6 3c 6e b3 82 bd 7a 30 02 be 90 47 b3 3d
       0.024234809 -0.0638188 -0.12713805 0.08753884
0002f0 85 21 9e 3d 48 e0 9d bc 3e b2 78 3d e6 db 3a bd
       0.07721237 -0.019271985 0.06071686 -0.045619868
000300 2c b2 0d bd bc 7e 6a bd 3a bc 1f bd 9c c5 91 3d
       -0.034593746 -0.05724977 -0.038997866 0.07117769
000310 c0 5c 04 3c 92 c6 0f 3c 7c a4 ed 3c 0f ef 92 bd
       0.008078754 0.00877537 0.029009096 -0.07174503
000320 84 e0 94 bd 69 9b 43 3d 99 09 57 bc 3d 7e 8d bc
       -0.072693855 0.047755633 -0.013124847 -0.01727211
000330 81 5e 6a 3d da 37 da 3c 88 c0 42 3d 93 8f 1c 3d
       0.057219032 0.02663796 0.047546893 0.03822286
000340 3b fe 91 bd aa 2c 40 3d c8 dd 6e bc 12 85 a3 bd
       -0.07128569 0.046917595 -0.014579244 -0.079843655
000350 e2 a9 94 bb b9 ef f0 bc 0a bd b2 bc 4a d1 40 3d
       -0.004536853 -0.029411184 -0.021818656 0.047074594
000360 5a 88 f4 3b a3 83 ac bc 0d dd 28 3d de a3 a7 bb
       0.0074625434 -0.021058863 0.041226435 -0.00511597
000370 38 2d 0e 3d 80 13 90 bd fd e1 79 bd 61 b1 08 bd
       0.034711093 -0.07034969 -0.061006535 -0.033372287
000380 db fb 01 3e d6 fa 08 bd fc ab 04 bd 03 d2 9d bc
       0.12693731 -0.03344234 -0.03239058 -0.01926518
000390 9e 30 e9 3c 0a 42 45 bd 3a 31 18 3d 98 0e a7 bd
       0.028465565 -0.048158683 0.03715632 -0.081570804
0003a0 5f 8e c1 bb 19 da 27 bd 64 d0 3e bd 43 9c 96 bd
       -0.0059068645 -0.04097948 -0.046585456 -0.07354023
0003b0 52 d5 9c b9 12 b9 e9 bb 15 ce 10 bd 53 36 ac 3c
       -0.00029913575 -0.007132658 -0.035352785 0.021021998
0003c0 ac da 24 3c e6 b8 1b bd 03 69 8d 3c b0 a4 d8 bb
       0.010061901 -0.03801813 0.017261988 -0.006611429
0003d0 8e 78 d4 bd 47 d5 bf bc c0 52 8a bd 61 50 a0 bd
       -0.103745565 -0.023417128 -0.067540646 -0.07827831
0003e0 15 e7 a1 3d a4 14 de bc ae e8 f3 3a 7f cb 90 3d
       0.079054035 -0.027109452 0.0018608773 0.07070064
0003f0 06 59 04 3d 49 ee a4 3d 97 eb 3c 3c 2d a6 8d bc
       0.032311462 0.08053262 0.011530778 -0.017291153

fc1.bias f4 [400]
000000 38 be 0d 3e e1 58 40 3e d2 25 d4 bb 98 b5 7c 3d
       0.13842094 0.18783905 -0.006474235 0.06169662
000010 86 13 ee 3d 66 7d 0f bd ed fa 61 3d b4 1a 9e bd
       0.116248176 -0.0350317 0.055170942 -0.07719937
000020 be b2 ce bd 76 b2 0d 3e 81 32 32 3e c1 4e b7 bd
       -0.10092686 0.13837609 0.17402078 -0.08950568
000030 9b e8 ae 3d e8 f5 c3 3c d2 28 84 bd 4c 3e d1 bc
       0.0854046 0.023920968 -0.06453098 -0.0255424
000040 48 05 90 bb 06 4b e4 bd 0a 2f aa bd 6f b4 1c 3d
       -0.004395161 -0.11147122 -0.08309753 0.038258012
000050 01 83 11 3e 03 c7 23 3d 4e f1 da 3d 92 96 db 3d
       0.1421013 0.039984714 0.106905565 0.107220784
000060 24 a6 0f 3e 3b 9c 4e 3e 16 78 21 3e 87 e9 22 3e
       0.14028221 0.20176785 0.15768465 0.15909396
000070 00 f3 c8 3d 7b 6d cb 3c 19 2b 17 be c5 ab 1a be
       0.098119736 0.024832478 -0.14762534 -0.15104587
000080 c7 04 31 3d c6 3d c2 3c 77 5e 26 3e a6 8b 80 bc
       0.043217447 0.023711096 0.16246973 -0.01569159
000090 00 69 0d 3e b7 56 68 3d 12 d6 db bd cb 38 06 3e
       0.13809586 0.056723323 -0.1073419 0.13107602
0000a0 bf 4a cc bd 0a 33 0b be 16 ee 1e be 63 75 b2 bc
       -0.09975194 -0.13593689 -0.1552051 -0.02178449
0000b0 95 8e 33 bd e6 14 22 3a 06 fb 53 bd 2c 38 0a be
       -0.04383715 0.00061829237 -0.051753066 -0.1349799
0000c0 26 f4 0a bd c8 cf af 3d 37 d4 1f 3e bc 88 89 bc
       -0.033924244 0.08584553 0.15608297 -0.016788833
0000d0 19 a6 3d bd 55 f1 70 3d da f1 17 3d 01 e2 72 3b
       -0.04630098 0.058823902 0.037095882 0.0037060978
0000e0 e5 36 20 bd 73 b4 31 3e a8 e0 7a bd 02 77 19 3d
       -0.03911485 0.17353992 -0.061249405 0.03746701
0000f0 ef 1f 7e 3e 61 28 8c bd 62 ad cb 3d d9 e3 22 be
       0.24816869 -0.06843639 0.099451795 -0.1590723
000100 a9 c4 cc 3d db a3 d8 3d b3 e2 58 3d 2c ab c2 bd
       0.099984474 0.10578128 0.052950572 -0.09505305
000110 d9 17 51 3e 88 15 1b 3e 7b 26 30 3e 0e e3 ca bd
       0.20419253 0.15144932 0.17202179 -0.099065885
000120 ed 0b a5 3d cd 38 0b 3e 82 c0 30 3e 8f a2 d7 3d
       0.08058915 0.13595887 0.17260936 0.105290525
000130 93 6e 22 3d e8 ab b1 bc d5 24 0e bd 6b ca a6 3d
       0.039656233 -0.021688417 -0.034703095 0.08144077
000140 8d 42 3b 3d 04 e3 91 3d e3 c6 4a 3e 0d f8 a9 bd
       0.045717765 0.07123378 0.19802432 -0.08299265
000150 f8 ac 0f 3d 36 ef 9b bd 0d 7f ea 3d d0 2e 30 3d
       0.035077065 -0.07613985 0.11450014 0.043013394
000160 46 7a 3e 3e 6e 85 56 bd bb 55 d0 bd 61 35 0a be
       0.18601331 -0.052373342 -0.10172602 -0.13496925
000170 4b 67 b3 bd 3b af 4e 3d bb 0d c6 3d da da 8c 3d
       -0.08759936 0.05046008 0.09670588 0.0687768
000180 01 d6 c8 bb 20 46 b9 3d 6e 88 bd bd 0f 38 5a bd
       -0.006129027 0.090465784 -0.092545375 -0.053276118
000190 33 03 31 bd 63 3e f9 bc 08 ea b4 bd 9f 8d 3d 3e
       -0.04321594 -0.030425256 -0.088337004 0.18511055
0001a0 cb 32 e8 3d ad ec 2e bb 86 b5 fc 3d 92 f5 b6 bd
       0.11337813 -0.0026691363 0.1233931 -0.089335576
0001b0 59 00 03 be 0f a1 0b 3e 4a 03 ea 3d eb 47 05 3e
       -0.12793101 0.13635658 0.114264086 0.13015716
0001c0 8c 2d 0a 3e 13 f5 0a 3d bc 63 32 3e df c7 64 be
       0.13493937 0.033925127 0.17420858 -0.2234187
0001d0 60 d8 3e bd 09 58 2d 3d da eb ad 3d b3 48 c2 3d
       -0.04659307 0.042320285 0.08492251 0.094865225
0001e0 92 80 ad bd 27 38 cc bd 0e cb 6b bd c3 2e 17 3e
       -0.084717885 -0.09971648 -0.057566695 0.14763932
0001f0 ca 3e a7 bd 71 24 fc 3d 1c 8b 06 bd f6 30 e2 bc
       -0.08166273 0.12311638 -0.03284751 -0.027611237
000200 27 07 f8 3d 24 01 3c 3c 2a 51 4b 3e aa 7a 2b 3e
       0.12110739 0.011474881 0.1985518 0.16746011
000210 43 36 50 bd 50 db 3d 3e 47 b7 52 3d fb 07 da 3c
       -0.050832998 0.18540692 0.05144432 0.026615134
000220 9b 98 79 3c e9 c5 3e 3d c3 be d6 3d 8f b8 47 bd
       0.015234138 0.04657546 0.10485604 -0.048759993
000230 38 61 9e 3b 51 ba 74 bd 4c 50 63 bb 58 d0 bc 3d
       0.0048333667 -0.059747998 -0.0034685312 0.09219426
000240 31 5c 2f 3e a3 ec d8 3d a1 3c 0f bb be 1d c6 3d
       0.17125012 0.1059201 -0.0021856206 0.096736416
000250 98 24 b6 3d 87 53 1a 3e ec d8 1d 3e 4f 9a 80 3c
       0.088936985 0.15070926 0.1541478 0.01569858
000260 44 6e 9d bd df 29 e5 3d 77 a3 cf bd 82 1e 0f 3e
       -0.07687047 0.11189627 -0.101386 0.13976482
000270 b9 af 60 3d 76 67 de 38 3f 46 77 3d f3 50 77 bd
       0.054855082 0.00010605056 0.060369726 -0.060379934
000280 fc de b9 3d a2 ad 1e be 3e 45 21 3a a7 77 aa bd
       0.09075734 -0.15495923 0.00061519805 -0.08323603
000290 91 75 2f 3c 97 99 2f 3e cc 39 98 bd 34 8c 93 bd
       0.010709182 0.17148434 -0.07432899 -0.07204476
0002a0 6e 88 28 3c f9 9b be 3d cf 56 0d be e0 65 95 bd
       0.010286434 0.09307093 -0.13802646 -0.07294822
0002b0 a9 c0 4b 3c bb 98 79 bd 90 a3 06 be e1 8d 86 3c
       0.0124360705 -0.06093667 -0.13148332 0.016425075
0002c0 c7 2e e5 3c dc 97 bb bd 93 d1 96 3d f0 55 e0 bd
       0.027976407 -0.09159824 0.07364192 -0.10953891
0002d0 78 6b 1d bc 8a b2 db bd 2f 37 10 3e 97 45 a2 3d
       -0.009608142 -0.10727413 0.14083551 0.079234295
0002e0 41 43 2a be 75 84 b2 3d b3 5f 27 be dc ef 03 be
       -0.16627218 0.087166704 -0.163451 -0.12884468
0002f0 ac 22 b4 bd c5 0a 27 3e a4 dd c6 bd 26 a0 3a be
       -0.08795676 0.16312702 -0.09710243 -0.18225154
000300 88 c2 6f bd dc bb 89 3c 8d 24 26 bd b4 6f e7 3d
       -0.05853513 0.016813211 -0.0405622 0.113006026
000310 34 3d 3d bb f2 f7 c2 bd 8d 85 79 bd af 3a 32 3d
       -0.0028875591 -0.09519948 -0.06091838 0.043512996
000320 ed 32 3c 3d 06 22 be bd e7 f3 14 be 03 85 8e 3d
       0.045947004 -0.09283833 -0.14546166 0.06958964
000330 0d 6a ed 3d 60 ca 14 3e be 9f 6d bd 2b 14 66 bd
       0.11592493 0.14530325 -0.05801367 -0.056171577
000340 06 14 c7 3d 28 b5 b2 3d 3e 46 05 be fa 4d 78 3e
       0.09720616 0.08725959 -0.13015077 0.24248496
000350 68 b1 00 3e 53 72 8c bd 95 f7 4a 3d 59 7e 30 3d
       0.12567675 -0.06857743 0.04955252 0.043089245
000360 d7 24 c1 bd bd dc 0f be 82 43 82 bd ac 06 2a bc
       -0.09430855 -0.14049049 -0.06360532 -0.010377567
000370 30 48 99 bd 57 4a 36 3e 88 b4 78 3d 77 c5 e8 3c
       -0.07484472 0.17801796 0.060719043 0.028414471
000380 4a 9d 04 bd 1d fa 09 3e 6e 14 cb 3a 08 09 c4 bd
       -0.032376565 0.13474317 0.001549376 -0.09572035
000390 63 73 04 bc df da 1e bd db 20 26 3e c1 13 00 be
       -0.008084151 -0.03878295 0.16223471 -0.12507536
0003a0 67 48 08 be 16 29 ab bd 92 e0 a5 3d ca 46 3f 3d
       -0.1330887 -0.08357446 0.08099474 0.04669837
0003b0 53 00 4b bd 23 65 42 3d d7 83 08 be 56 bf 23 bd
       -0.049560856 0.047459733 -0.13331543 -0.039977394
0003c0 41 2e 2d 3c 34 19 64 3d e5 4c 44 3e 99 eb e6 bc
       0.01057011 0.055688098 0.19169958 -0.028188514
0003d0 8f 21 b2 bd 0c 36 db 3c c0 d9 c3 3d aa bb 1e 3e
       -0.08697807 0.02675917 0.09563017 0.15501276
0003e0 39 6b 47 bd cb ca 06 3c cf a0 12 be 63 03 e0 3d
       -0.04868624 0.008227061 -0.14319156 0.10938146
0003f0 97 1a 84 3e d1 de 1c be 78 5e 36 3e 1a 5e 89 3d
       0.25801536 -0.15319373 0.17809474 0.067074016

fc2.weight f4 [300, 400]
000000 0e 77 a4 bc 5e 64 48 3d 38 c9 f0 3b 5f 0a 8d bc
       -0.020076301 0.048923843 0.007348206 -0.01721686
000010 63 ad 1a 3d 91 2a c7 3d 1d a0 a7 3d 92 1f cf 3c
       0.03776301 0.09724916 0.08184836 0.025283609
000020 e9 87 cf 3c c9 03 a3 3d 80 5c 87 3d fc 07 b1 bc
       0.025333362 0.07959706 0.0660944 -0.021610253
000030 ba 74 5b 3d 05 b7 42 3b a2 bd d1 3a b2 1b ab 3d
       0.053578116 0.002971114 0.001600195 0.08354892
000040 de a8 38 3a 8c e7 df 3d dd 10 a4 bb 9c 22 06 3d
       0.0007044206 0.10932836 -0.005006893 0.03274785
000050 46 cd 02 3c b9 25 a8 3d 77 32 3d bd 2c a6 83 3d
       0.007983511 0.0821032 -0.046190705 0.06428179
000060 63 68 af b9 ed 82 1c bd 8b 0d 8d bc 56 3f 66 3d
       -0.00033456375 -0.038210798 -0.017218372 0.056212746
000070 a1 99 d8 3d c0 dc 82 3d cb df d2 3d ba a8 c9 3d
       0.105761774 0.06389761 0.10296591 0.09846635
000080 5c 72 91 3d e4 1f 0c 3d b5 27 fe 3d 09 43 cb 3b
       0.071018904 0.0342101 0.12409917 0.0062030596
000090 a2 35 06 3c 38 76 10 bd 58 a2 8b 3d a5 42 3b 3d
       0.008191498 -0.035268992 0.06818074 0.045717854
0000a0 3d 8b 03 bd ad 99 20 3d d5 9f 40 3d 8a 45 f2 bc
       -0.03211521 0.039209057 0.047027428 -0.029574174
0000b0 a8 04 a2 3b fe 30 4f 3d bf ce a6 3d 2e 0a 26 3d
       0.0049444027 0.050583832 0.081449024 0.04053705
0000c0 79 00 87 3d c5 bd a0 bc d6 ea a5 bc 5b d5 0c bd
       0.06591887 -0.01962174 -0.02025358 -0.03438316
0000d0 95 f8 2f 3d 1a 95 2d 3d 41 50 02 3d a2 7d 51 bd
       0.042961676 0.042378522 0.031814817 -0.051145203
0000e0 58 a4 9f bd 8c 53 bf 39 e5 52 bb 3c 73 f6 d0 3c
       -0.07795018 0.00036492606 0.022866676 0.025508141
0000f0 f0 ad 0a bd 78 72 bf 3d d8 5c 05 3c 1b fd 49 3d
       -0.033857286 0.09348005 0.008139811 0.049313646
000100 88 c5 c6 3c 28 33 13 bd 5b b3 0b bd 17 22 5e bc
       0.024264112 -0.03593746 -0.034106594 -0.013557932
000110 c9 9b f0 bb 11 d2 a9 ba 7f be 8f bc f3 41 f8 3c
       -0.00734279 -0.0012956281 -0.01754689 0.030304885
000120 c9 86 4f 3d 83 d4 9d 3d 59 97 4e 3b 2c f6 83 bc
       0.05066565 0.07706549 0.0031523316 -0.016108595
000130 4c 60 c1 3d b6 26 2f bd 94 f4 07 3c 15 97 f6 3c
       0.09442195 -0.042761527 0.008298058 0.030101338
000140 df 52 ad 3d e6 4f 43 3d db c5 df 3c 5a 53 95 3c
       0.08463072 0.04768362 0.027316025 0.018228222
000150 c2 a5 27 bd c3 bb a6 3d 9d c0 42 bd d8 bf 10 3e
       -0.040929563 0.081412815 -0.04754697 0.14135683
000160 4c e8 22 3c f4 81 af bb 22 2d 1c 3c 7f 1c 19 3d
       0.009943079 -0.005356068 0.009532245 0.03738069
000170 04 20 32 3d 7b 59 f0 3c c9 ea cc 3d d1 2c 1a 3d
       0.043487564 0.029339543 0.10005719 0.037640397
000180 d0 1c 28 bd 66 bc 4b 3d 06 85 58 3d 7d 38 a5 3d
       -0.041043103 0.049740218 0.052861236 0.08067415
000190 1a 83 32 b9 79 7c 06 3e a3 ca df 3d e0 a2 1d 3d
       -0.00017024242 0.1313342 0.10927322 0.038485408
0001a0 73 6e 28 3d e9 2f ee 3c 81 89 38 bc b3 6a 93 3c
       0.041120958 0.02907558 -0.011263252 0.017995214
0001b0 b7 61 b1 3c 59 fa 86 3d 62 6b 90 3c e1 48 3c 3d
       0.02165304 0.06590719 0.01762933 0.04596794
0001c0 2c 82 34 3d 64 0c 88 3c 07 e2 a1 bc 4d d1 ab 3c
       0.044069454 0.01660747 -0.019761099 0.020973826
0001d0 39 9a 33 3d 2b 83 c9 3d 33 61 b0 3d fd 5b f4 3c
       0.04384825 0.098394714 0.08612289 0.02982902
0001e0 67 9e d2 bb ad f9 79 3d 41 0c 8f bc cd 7f 65 bd
       -0.0064275744 0.061029125 -0.017461898 -0.056030083
0001f0 1b 07 cc 3c 43 81 73 bc 2a 3d b8 3c 95 60 e8 3d
       0.024905732 -0.014862361 0.022490103 0.113465466
000200 68 35 b9 3d f4 81 a8 bc c2 89 4f 3d c2 d0 17 bd
       0.090433896 -0.020569779 0.050668485 -0.03706432
000210 4b fb 0d 3c 73 c4 5b bc 5e b7 5e bb e5 e0 b2 3d
       0.00866587 -0.013413536 -0.0033983807 0.087343015
000220 52 89 5e bd cd f2 a2 3c a4 26 8c 3d e4 09 04 3c
       -0.054330178 0.019891167 0.068433076 0.008058999
000230 12 fa df bc 6a ed 2e 3d bb ce bd 3c da b1 73 3d
       -0.027340923 0.042706884 0.023169866 0.059495784
000240 01 8e a6 3c 45 34 17 3d 9e 32 84 bd a0 60 e9 bc
       0.020331385 0.036915082 -0.06454967 -0.028488457
000250 27 c8 54 3c 01 45 0e 3d 29 d3 30 3c 8e 43 ab 3b
       0.012987173 0.034733776 0.010792532 0.005226559
000260 06 9e 5a bd 3f 41 2d 3d 1e 08 4d 3d d9 1f 4c 3d
       -0.05337336 0.04229855 0.05005657 0.04983506
000270 21 2e 80 3c 45 f0 1f bd d6 39 c2 3d 1b b1 42 3c
       0.015646996 -0.0390475 0.094836876 0.011883046
000280 d5 b6 12 3d a8 17 a7 bb 35 15 29 3c 3f a7 cc 3b
       0.035818893 -0.0050992556 0.010319998 0.006245523
000290 d7 3e 3d 3d 8d c5 14 3c 01 7f 53 3d c3 1f 01 bd
       0.046202507 0.009080303 0.051634792 -0.03152443
0002a0 61 d2 71 bd 76 d1 0d 3d 62 03 55 3c 31 6f 3b 3c
       -0.059038524 0.034623586 0.013001295 0.011440084
0002b0 fe d2 6e 3d 14 31 6e 3d 4d 44 60 3d ea ed 5a 3d
       0.058306687 0.058152273 0.054752637 0.05344955
0002c0 7d b2 5e bd 2d 2d b0 3c c2 1a a4 3a 23 23 a8 3c
       -0.05436944 0.021505916 0.0012520181 0.020524567
0002d0 1e 4d 2e 3d 66 38 ec bc 33 c6 fc bc 1a f9 55 3c
       0.042554013 -0.028835487 -0.030856228 0.013059879
0002e0 e8 30 1b 3e 44 87 84 bd 6d 93 d4 3d 83 7d b4 3d
       0.15155375 -0.06471112 0.10379682 0.08813002
0002f0 46 fc 1c bd aa aa a5 bc 8a d2 ec 3b 4b 77 6a 3d
       -0.038326524 -0.02022298 0.0072272466 0.057242673
000300 69 9e 9e 3d ac 7a af 3c 06 1b a4 3d 2a 21 63 3d
       0.07745058 0.0214208 0.08012967 0.05545155
000310 b3 11 d4 bc 52 c8 e2 3d 48 a6 a1 bc c1 ee a9 3d
       -0.025887346 0.11073364 -0.01973261 0.08297492
000320 1a 41 86 bd bf fc 37 bd 00 3e 6e 3d 59 70 15 bd
       -0.06555386 -0.04491877 0.058164597 -0.036484096
000330 46 7e ef bb 5a 79 fc 3d 55 1a 28 3d 94 5a 86 3d
       -0.007308754 0.123278335 0.041040737 0.06560245
000340 da d1 e8 bc ef 43 84 3d 2b 93 bd 3c 78 cc 14 3d
       -0.028420378 0.0645827 0.023141464 0.03632781
000350 b2 1d bd 3c a2 7d 4d 3d b8 19 c4 bb 38 1b 82 3d
       0.023085449 0.05016864 -0.005984511 0.06352848
000360 56 21 3b 3d 3d c4 d7 3d 67 ff 91 3d 8b 89 7d bd
       0.04568609 0.10535476 0.07128792 -0.06189875
000370 88 0b d3 3d 5d f8 59 3d 76 93 c0 bc b0 b4 93 bb
       0.10304934 0.053215373 -0.023507815 -0.0045076236
000380 a4 a2 66 bd 5c bc dc 3d 1d c3 6f 3d e4 f2 85 3d
       -0.05630745 0.10778114 0.058535684 0.06540468
000390 d1 63 d6 3d bb e5 9a 3d e4 61 2b bd 24 2f f9 3d
       0.10468257 0.07563349 -0.041841403 0.121671945
0003a0 ce 14 b7 3d 8e 19 7a bd 12 4e d6 3d a1 0b 4b 3d
       0.08939515 -0.061059527 0.104641095 0.049571637
0003b0 8e fb 2a bd 75 5f ad 3c 57 c5 70 bd f5 d4 fb bc
       -0.041743807 0.021163682 -0.058781948 -0.030741194
0003c0 d4 16 56 bc 3c f5 ea 3d 15 f8 02 3d f0 9c 5e 3d
       -0.013066966 0.11472556 0.03197487 0.054348886
0003d0 0d 83 90 3d 84 a2 85 3d 8f 42 81 3d 0a de 2a bc
       0.07056246 0.06525138 0.06311523 -0.010428915
0003e0 0d a1 4b 3d 08 f0 ab 3c ac a1 13 bd 21 be f5 3b
       0.049714137 0.02098848 -0.036042854 0.007499472
0003f0 a6 86 32 bd 4a fd 91 bc 85 cf 0c 3d 28 c5 80 3d
       -0.043585442 -0.017820973 0.034377594 0.062876046

fc2.bias f4 [300]
000000 96 10 56 3c 63 b7 e5 3c 8b fd c2 bc f4 2c ad 3c
       0.013065478 0.028041547 -0.02380254 0.0211396
000010 5c 80 37 3d 71 7b 6d bc 84 20 24 bc dd 1b 94 3d
       0.044800147 -0.014494763 -0.010017518 0.07231877
000020 59 49 43 3c b2 f9 e7 bb 77 ce 39 3c b8 48 8a 3d
       0.011919343 -0.0070793265 0.011340729 0.06752151
000030 b8 fe 51 bc a9 4e ae 3d f8 3e 41 3d a2 86 cb 3c
       -0.012817077 0.08511097 0.047179192 0.024844471
000040 e5 a3 b0 3b c7 d9 2b 3d 79 62 b9 3d 69 78 35 bd
       0.0053906315 0.041955736 0.09051985 -0.044304285
000050 37 d9 4f 3d 7f 59 56 3d de 16 d2 3c 44 ae 40 3b
       0.05074426 0.052331444 0.02564567 0.0029400745
000060 84 29 99 3d 3e e1 03 3d d7 95 56 3d 1c 38 1a bc
       0.074786216 0.03219723 0.052388992 -0.009412792
000070 f6 c0 81 3d 6b d3 1a 3d f6 d3 38 3c e4 83 aa 3d
       0.063356325 0.03779928 0.011281004 0.083259374
000080 71 f6 5f bd 51 61 36 bc 7f ec 55 bc 78 cc 15 bd
       -0.054678384 -0.0111316005 -0.013056873 -0.03657195
000090 79 65 0b 3c 9e 04 86 3d 91 6c 99 3c f5 bd 64 3d
       0.00850808 0.065438494 0.018728526 0.05584522
0000a0 99 45 ef bc 14 7f 9c ba 23 ff 68 bb 05 da e9 3b
       -0.029207991 -0.0011939728 -0.0035552464 0.0071365857
0000b0 1c 2a ee bb e4 50 22 38 ad 26 8e bb 26 ea 86 3c
       -0.0072682034 3.8699145e-05 -0.0043381066 0.016469073
0000c0 78 ac 32 3d 14 b7 1c 3c 42 46 b3 3c c2 87 5e 3b
       0.04362151 0.009565134 0.021884087 0.003395543
0000d0 c9 a0 74 3d c6 50 a3 3d 12 cd 38 bc 06 fa f2 bb
       0.05972365 0.07974391 -0.011279361 -0.007415059
0000e0 89 4c 45 bd 46 b2 01 3d 18 6e e6 3b 83 b4 06 3b
       -0.048168693 0.031664155 0.007032167 0.002055437
0000f0 fe 20 1c 39 64 56 5d bc 56 4c 91 3d 45 1e 8c bc
       0.0001488961 -0.013509367 0.07094638 -0.017104277
000100 8f 2f 80 3c 6c 80 50 bd 7c 2a 9e 3d f9 00 25 3d
       0.015647678 -0.050903723 0.07722947 0.04028413
000110 c3 4d 62 3d ee 90 08 bd d5 47 55 bc 6a 18 e9 bc
       0.05524994 -0.03334134 -0.013017614 -0.028454024
000120 75 df 38 3c fa 9d 5c 3d 36 e2 08 3c af 8f 84 3d
       0.011283745 0.053861596 0.008354714 0.06472718
000130 46 03 be 3c 0e 05 44 bc 19 75 38 3d 69 48 97 3c
       0.02319492 -0.011964096 0.045033548 0.018467145
000140 d2 c0 d8 bc 20 98 6a 3c 8d 37 34 3d 2c e4 55 3c
       -0.026459131 0.014318496 0.04399829 0.013054889
000150 cd 13 a5 3b ef e9 87 3d 65 45 2b 3d 08 7b 1f bd
       0.005037761 0.06636416 0.041814227 -0.03893569
000160 43 fe a4 3d 3f 75 bc bc 45 02 e0 3c 76 de 94 3c
       0.08056309 -0.023005126 0.027344832 0.018172484
000170 28 11 bc 3d fb a1 b6 3d 09 15 ce 3c 09 4b 7b bc
       0.0918296 0.08917614 0.025156515 -0.015337714
000180 62 6d b0 3b dd 9a 73 bd c0 a9 1c 3c fd 2c be 3d
       0.005384133 -0.05947386 0.009561956 0.092859246
000190 ef 7f 50 bc 5b 24 80 3d e1 81 4a bc b6 0b ff 3a
       -0.012725814 0.06256934 -0.012360067 0.0019458446
0001a0 0f ea 21 3d 85 07 76 3d e7 4b a4 3d 54 7b b1 3d
       0.039529856 0.060065765 0.0802229 0.08666101
0001b0 a1 21 43 3d 2d 1e 23 3c bd 73 16 3c 47 79 a2 bc
       0.047639493 0.009955925 0.009182868 -0.01983322
0001c0 6c 7c 81 3b 5d 71 21 bb c7 a7 85 bc 29 95 6c bb
       0.0039516 -0.002463422 -0.016315354 -0.0036099649
0001d0 9e d1 18 bd 5f 7e 39 3d e3 3a 4b 3d d0 e3 2b 3d
       -0.03730928 0.045286532 0.049616706 0.041965306
0001e0 e5 12 91 3d 5a a8 21 3d e2 38 af 3c 1f 19 56 3d
       0.07083682 0.039467193 0.021389429 0.05227005
0001f0 c1 41 16 bd c0 80 0d 3d 0a 49 22 bc d2 97 5e bd
       -0.0366838 0.034546614 -0.009905109 -0.054344006
000200 97 2c ec 3c d5 46 ae bc 25 7b 3e 3c 5b 49 b9 bb
       0.028829856 -0.02127401 0.01162604 -0.0056544966
000210 c0 0d 94 3d bb 17 51 3c 04 11 81 3c bb 03 80 bd
       0.07229185 0.012762005 0.015755184 -0.062507115
000220 e8 cc 26 3c 46 f5 c4 3d f4 69 dd ba e4 d7 a0 3d
       0.010180689 0.09617095 -0.0016892538 0.07853678
000230 0d f7 54 3c 4c a7 95 3d 22 e6 46 3d 2c c4 ff 3c
       0.012998355 0.073073 0.048559316 0.031221472
000240 ac 01 f8 3b 5e df 62 bc af 45 b1 3d df 48 d5 3d
       0.0075685587 -0.0138472 0.08655869 0.1041429
000250 e1 38 b0 3c e5 af c6 3d 6d 2a a7 bb 3d 57 84 3c
       0.021511497 0.09701518 -0.005101493 0.01615488
000260 64 38 e0 ba 1e 2c 9c bb 97 25 2d 3d c5 ad 8c bb
       -0.001710665 -0.0047660014 0.042272177 -0.004293176
000270 81 f8 2a bd 10 d5 94 bb eb 8c 87 3c d9 eb dc bc
       -0.041740898 -0.0045420006 0.016546687 -0.02696793
000280 98 bd 35 bd fc 2a 7c 3d 84 ce 83 3d f0 81 57 3d
       -0.044370264 0.06156443 0.06435874 0.052614152
000290 20 b6 79 3d 0a da 5c bc bd 7d f0 bc 88 93 1c 3c
       0.060964704 -0.013479719 -0.029356832 0.009556659
0002a0 bd 33 4d 3c 7e 0f c0 3c 91 98 a3 3d 73 4c ca 3d
       0.012524542 0.023444887 0.07988084 0.09877863
0002b0 29 e2 2b 3c 0a d9 af 3d dc d6 e2 bb 53 15 9a bc
       0.0104909325 0.08586319 -0.006922586 -0.018808996
0002c0 fd 6e 06 3c 02 37 57 3d fd af 36 bc bb b3 85 3d
       0.008205173 0.052542694 -0.011150357 0.065284215
0002d0 82 56 de bc 2b b3 a0 3d 3d 27 09 3d 62 2b c9 3c
       -0.02714086 0.078466736 0.033484686 0.02455682
0002e0 86 5b 23 3d dc 99 a6 3d b2 a3 9b 3d ac 63 f5 3c
       0.039882205 0.08134815 0.07599582 0.029954754
0002f0 c9 09 b4 3d eb 23 c2 3b 9c cc 29 3c 45 52 3a 3d
       0.08790929 0.005924692 0.010363724 0.045488615
000300 b1 ba 8e 3c 08 a4 79 3c e6 48 ae 3d 4e 46 9d 3c
       0.017423006 0.015236862 0.08509998 0.019198563
000310 42 da d9 bc 02 dc 8c 3d 51 6f c9 bc 3a 8b 11 3d
       -0.026593331 0.06877901 -0.024589213 0.035533167
000320 04 b1 34 bd 28 20 19 3d 15 93 0a bc 34 9d 80 3d
       -0.044114128 0.037384182 -0.008457919 0.06279984
000330 9e 04 83 3c c3 3e 60 3c c7 ac d9 3b 7f 66 18 bd
       0.015993413 0.013686839 0.006642911 -0.037207123
000340 a4 6a e6 3c f1 53 3f 3d e3 b0 99 bc 89 33 7c 3c
       0.028127022 0.046710912 -0.018761104 0.015393146
000350 32 6b 38 3d 0e 46 59 3c 94 eb 2c 3d 54 24 1f 3c
       0.045024104 0.013261331 0.042216852 0.009713251
000360 34 8b 10 3c 87 58 31 3d 16 c5 88 3d af 08 33 3d
       0.008822251 0.043297317 0.06678216 0.043709453
000370 8b 6d 11 3d f0 88 1f ba 37 a5 0f 3d b5 cf 59 3b
       0.03550486 -0.0006085774 0.03506967 0.0033235375
000380 05 20 3a bd 34 e9 9b 3d ad 59 c1 3c f2 9e 93 3a
       -0.045440692 0.07612839 0.023602331 0.0011262579
000390 3a 2f 8b 3d 6f cd 81 bb 07 61 09 3c 9b 8b 67 3d
       0.06796117 -0.003961257 0.0083849495 0.056529623
0003a0 5b 84 23 bb 85 8a ac 3c b5 b7 23 bc d5 61 48 3c
       -0.0024950716 0.021062145 -0.00999253 0.012230356
0003b0 0d 28 cf 3b 00 9a 5b bc cd 1f a5 3c d6 7c ec 3b
       0.006321913 -0.013403416 0.020156765 0.00721703
0003c0 ed ff 7a 3d 13 d3 0e bd e1 7e 38 3d 35 f9 da 3c
       0.061279226 -0.034869265 0.045042876 0.02673016
0003d0 88 92 8c 3d 6b af d5 3c 4d d2 43 bc c4 f0 80 bb
       0.06863886 0.026084622 -0.011951995 -0.0039349515
0003e0 53 92 6b bc 59 41 de 3c 76 ea ce bb 20 31 8d 3d
       -0.014378148 0.02713077 -0.006314571 0.068941355
0003f0 e3 b8 91 3d 2a 55 a7 3d 46 82 4d 3c 46 ed 16 bc
       0.071153425 0.08170541 0.012543267 -0.009211844

fc3.weight f4 [4, 300]
000000 3c e4 e4 bb ae b3 39 bd 03 fd 49 3a 01 11 6a 3d
       -0.0069852155 -0.04533737 0.0007705243 0.057145122
000010 e0 d4 69 3d 0f 85 a0 3c e4 9a 65 3d f1 0c 84 3d
       0.05708778 0.019594697 0.05605592 0.06447781
000020 98 fd 5f 3d bf 6b 37 39 70 20 5b 3d 83 28 60 3d
       0.054685205 0.00017492379 0.05349773 0.054726135
000030 70 3e 7e 3d c8 2b 81 3d 82 97 9c bb dd 4e 82 3d
       0.062071264 0.06307179 -0.0047788033 0.06362698
000040 32 93 3f bd f7 7a 10 3d 1b 06 2c 3d c3 61 bf 3b
       -0.046771236 0.03527352 0.04199801 0.0058405115
000050 10 aa 99 3b f1 63 62 3d 29 d9 68 3d ed 88 06 3d
       0.0046894625 0.055271093 0.056847725 0.032845426
000060 59 21 38 3d 52 b8 b9 3c fb 09 87 3c 62 93 94 ba
       0.044953678 0.022670899 0.016484251 -0.0011335427
000070 12 25 87 3d 53 e2 20 ba 88 31 01 3c 19 91 e5 3c
       0.065988675 -0.00061372406 0.007885344 0.02802329
000080 8c 64 bf bb 62 ba c6 3c 47 56 d2 bb 6b a7 cb bb
       -0.0058408435 0.024258796 -0.0064189765 -0.006215026
000090 1d 43 d7 3c 18 8a 8d 3d 5f 4a 7d 3d 1b 5b 09 3d
       0.02627712 0.06911105 0.061838504 0.03353415
0000a0 f4 df f7 b9 16 82 8b 3c e5 ef db ba 9b 3d 45 3b
       -0.0004727837 0.017029803 -0.0016779868 0.0030096534
0000b0 0a 03 17 3c 88 9d a8 3c b1 0e 81 3b b0 45 c4 3b
       0.009217033 0.02058293 0.003938519 0.0059897527
0000c0 19 93 b8 3b 6c 2d 91 3d 27 71 a9 3c 5a 58 5f 3d
       0.00563277 0.07088742 0.020683838 0.054527618
0000d0 34 3d 78 3d 12 ab 3e 3d 46 25 36 3b 47 a6 00 3c
       0.060605243 0.046549864 0.0027793213 0.007852144
0000e0 f0 3d 67 bb 5a f5 69 3d 7c 52 5d 3d e8 1a c8 3c
       -0.003528472 0.05711875 0.05403374 0.024426892
0000f0 64 5f aa 3b 8a 62 16 bd 9e bb d0 3c 8f 4c a9 39
       0.0051993597 -0.036715068 0.025480088 0.00032291232
000100 16 02 30 3d e5 cd 9b bb 63 eb 6b 3d 77 29 10 3d
       0.04297074 -0.004754769 0.05759753 0.035195794
000110 5f 7c 50 3d bb 3c 91 3a 9a 1b a3 bd af d0 1e bc
       0.05089986 0.0011080721 -0.07964249 -0.009693309
000120 e3 e7 3a 3d cc 6d 62 ba 57 d9 93 3c 13 a7 0d 3e
       0.0456313 -0.0008637577 0.018047972 0.13833265
000130 4f 8f f9 3b d2 a4 0a 3d 30 bd 82 3d 7d 6e f2 3b
       0.0076159607 0.03384859 0.06383741 0.007398425
000140 a7 62 87 3b a8 d5 ba 3c f8 7a 1a bb f4 66 ad ba
       0.0041316333 0.022806957 -0.002357183 -0.0013229535
000150 09 8f 79 bb 1a 6e 46 3d f8 75 8a 3d 5a a7 65 3b
       -0.003807964 0.048444845 0.06760782 0.0035042376
000160 17 e4 61 3d 05 8b 1f bc 2c 01 81 3c b6 51 57 3d
       0.055149164 -0.009737735 0.01574763 0.05256816
000170 37 c4 0d 3d bc 5f 01 3d 74 53 72 bd 2b 20 4d 3a
       0.034610953 0.03158544 -0.05916162 0.0007824923
000180 52 53 a4 bb de 49 cc ba ab b4 25 bb 89 15 3c 3d
       -0.0050148154 -0.0015585979 -0.0025284688 0.045918975
000190 35 c8 9f bb 56 22 a3 3c 24 55 59 3c 35 15 5c bc
       -0.0048761615 0.019913834 0.013264928 -0.0134327905
0001a0 ea dd cc 3b c3 26 59 3d 4c e0 ae 3c 9f 3a 4d 3d
       0.00625204 0.05301548 0.021347187 0.050104734
0001b0 c0 5e 5b 3d 61 b9 8c 3c 52 c9 4d 3d a2 29 3a b9
       0.053557158 0.01717824 0.050240822 -0.00017753852
0001c0 1e 44 0f 3d f0 28 b2 3c 5e 0e 06 bc 4c 8c 8c bb
       0.03497707 0.021748036 -0.008182136 -0.0042891856
0001d0 b2 08 82 bb 8a a2 07 3d bf f9 85 3d 41 40 17 bc
       -0.0039683217 0.033113994 0.06541776 -0.009231628
0001e0 2a 54 02 3d a5 16 c0 3c 96 a4 ba 3c c7 70 22 bc
       0.031818546 0.023448298 0.022783559 -0.0099145835
0001f0 7f 4f 79 bd c0 13 88 3b c3 84 5b 3d 5a f9 2f 3c
       -0.06086683 0.004152745 0.05359341 0.010740602
000200 2a 60 0e 3d 52 d3 d1 bb 2b 51 63 3d a0 a5 f0 3c
       0.034759678 -0.006403365 0.05549733 0.029375851
000210 35 57 2b 3d 82 9c 02 3d 10 f0 35 3d 14 08 25 bc
       0.041831214 0.03188754 0.044418395 -0.010072727
000220 e3 4b fc 3c d9 40 83 3d 0a bb 9c 3d 78 be 6d 3d
       0.030797904 0.06408853 0.07652862 0.058042973
000230 a5 54 52 bc c6 2e 96 3d 13 aa 86 3d f0 41 50 3d
       -0.012837564 0.0733314 0.06575408 0.050844133
000240 6e 7e 89 3d 22 de e6 3b f4 6a de 3c c2 a0 8a 3d
       0.06713568 0.0070455233 0.027150609 0.06768943
000250 eb a0 6b 3d 9d 77 6a 3d f8 87 f9 3b 98 e8 f2 ba
       0.05752651 0.05724298 0.0076150857 -0.0018532453
000260 a0 95 8b bb bd 5b 0b bd f9 ed 8a 3d 0c 90 41 3d
       -0.00425978 -0.034023035 0.06783671 0.047256514
000270 0b 44 00 3c af 5c ac ba 81 94 5d bd 03 f0 77 ba
       0.007828723 -0.001315018 -0.054096702 -0.0009458067
000280 20 c3 57 bb 5b 10 26 3c ba 99 1a 3d 30 41 83 3d
       -0.00329227 0.010135735 0.03774426 0.06408918
000290 64 1f 5f 3d 96 c5 61 3a e8 55 89 3c b5 b7 5f bb
       0.054473296 0.00086125114 0.016764596 -0.0034136598
0002a0 33 0e 0f bd 40 d9 81 3d 36 08 84 3c da b0 7f 3d
       -0.03492565 0.06340265 0.016117197 0.06242452
0002b0 d5 37 3f 3c 7f a8 2a 3d 1b 53 1f 3b a3 3c b0 b8
       0.011671026 0.041664597 0.002431101 -8.4036285e-05
0002c0 b2 34 0e 3c fc 0a f7 3c 92 6b 95 3b 19 ff 8f 3c
       0.008679556 0.030156605 0.0045599425 0.017577695
0002d0 64 16 9b 3d c5 d0 84 3d fe 0a dd 3c e7 7b 5c bc
       0.0757263 0.06485132 0.02698278 -0.013457275
0002e0 ac 98 2d 3d 5c 5a b5 3c 9c 88 17 3d 9a 78 0f 3d
       0.042381927 0.022137813 0.036995515 0.035027124
0002f0 25 25 3e 3d 14 47 51 3a 8b 8d 51 3d d7 08 cf 3c
       0.046422143 0.0007983309 0.051160377 0.02527277
000300 8e 82 44 3d 26 7b e8 3b 71 36 22 3d aa ef 27 3d
       0.04797607 0.0070947586 0.0396027 0.041000046
000310 d9 7c 6f bb be 29 27 3d 24 80 80 3b 29 57 97 3d
       -0.003654292 0.040811293 0.0039215256 0.07389671
000320 ba 93 8a bc 82 ff ea 3c 98 a5 da 39 e7 97 46 3d
       -0.016916145 0.028686289 0.00041703577 0.04848471
000330 2f e2 4f bc 2f cf a8 3b db 23 54 3d 7b 62 01 bd
       -0.012688204 0.0051516513 0.051792007 -0.03158806
000340 0f 52 9c 3d fd b9 54 3d 44 75 f2 ba ec 5e ff ba
       0.07632839 0.051935185 -0.0018498083 -0.0019483245
000350 47 16 7d 3d 07 d4 01 3d a9 05 7f 3d 43 e4 15 bc
       0.061788823 0.031696346 0.062261257 -0.00914866
000360 63 95 bb b9 8f 2e 42 3d 8a 3e 8f 3c f8 c6 3e 3c
       -0.0003577872 0.047407683 0.017485876 0.0116441175
000370 0e 86 03 3d 96 87 a8 3b 22 9d 05 ba 0b f5 0f 3d
       0.032110266 0.005143116 -0.0005096962 0.0351458
000380 a8 f8 7f b9 7a 71 f9 3c 11 4d 84 3d d8 82 dc 3b
       -0.00024411327 0.030449618 0.06460012 0.006729465
000390 51 0b 83 3b 4f 66 fd bb 5e f7 55 3d d9 10 5e 3d
       0.0039991518 -0.0077331434 0.05223786 0.054215286
0003a0 3d c8 bc 3c b2 44 81 3d 2d 94 67 3c 1c f1 68 bb
       0.0230447 0.06311931 0.014134449 -0.0035544103
0003b0 42 c3 58 3c 37 c8 ea 3b c0 ed 4d bb 51 cd 7b 3c
       0.013230147 0.0071649808 -0.0031422228 0.015368775
0003c0 d6 16 43 3d 94 4a 83 bb 54 ab 15 3d 1d c8 51 3c
       0.0476292 -0.004006693 0.036540344 0.012804058
0003d0 4c 44 89 3c 7a f8 0d bc 69 53 d4 39 57 31 18 3a
       0.0167562 -0.008665198 0.00040497936 0.0005805692
0003e0 67 55 86 3d 37 81 4a 3b 38 a8 97 3d 3a ee e2 3c
       0.06559258 0.0030899772 0.07405132 0.027701486
0003f0 c4 b0 a9 3d be 42 96 3c b1 15 81 bc c1 95 bf ba
       0.082856685 0.018342372 -0.015757414 -0.0014616774

fc3.bias f4 [4]
000000 d7 dd 7f 3d c4 0e 00 3d cc 81 ce 3c 25 cf ea 3c
       0.062467422 0.03126408 0.025208376 0.028663227
