checkpoint_actor.pth (torch_old, 169478 bytes, 6 tensors)

fc1.weight f4 [256, 33]
000000 b1 72 87 3d 69 4c 92 3d de 5f 81 bd 6e 37 88 bc
       0.066136725 0.0714348 -0.06317113 -0.016627993
000010 53 d3 f2 bd ff b1 cc 3d 22 2b 8f bd a3 e7 05 be
       -0.11856713 0.099948876 -0.06990649 -0.13076644
000020 4e 0d 1a be a1 de 35 bd b9 7d 04 bd bb f4 04 3d
       -0.15044138 -0.04440177 -0.03234646 0.032459956
000030 c4 61 15 bb a4 d5 12 bd e3 46 02 3e a6 dd 94 3d
       -0.0022793869 -0.035848275 0.12722354 0.072688386
000040 fd d9 ad 3c 9f 70 8e bd 41 8b 1e 3e 82 e0 14 3d
       0.021222109 -0.069550745 0.15482809 0.03634692
000050 22 53 a3 bb 38 f6 c0 bd 0a 3a 0d 3d dd 0a a3 bd
       -0.0049842754 -0.094219625 0.03447918 -0.079610564
000060 0f c6 0c 3c ed fa 83 3a 4e e9 99 3d ce 90 c6 3d
       0.008592143 0.0010069289 0.075152025 0.09695588
000070 27 36 23 3e 70 2a 01 3d 3a ae 82 bd 74 00 e9 3c
       0.15938626 0.031534612 -0.06380887 0.028442599
000080 d7 f9 15 3f 26 fa 81 bd db e4 b0 bd e9 b5 e2 bd
       0.5858435 -0.0634654 -0.08637401 -0.11069853
000090 1b b9 42 3d 7a 12 61 3d a3 5e c0 3c 27 7e 94 3d
       0.04753981 0.05494926 0.023482626 0.07250624
0000a0 03 02 5f 3c b8 a4 3c 3d ec ca 7e 3b 83 00 80 bd
       0.0136113195 0.046055526 0.0038878275 -0.062500976
0000b0 81 50 35 bd de e3 78 bb 62 46 0b 3d 67 3a fe 3c
       -0.044266228 -0.0037977616 0.03400267 0.031033708
0000c0 8c 9a d9 bd 30 ba 5e 3d 72 ff b4 bd 21 d3 7c 3d
       -0.106251806 0.05437678 -0.08837785 0.061724786
0000d0 fa a7 9e 3c d5 02 c7 bd 71 77 b5 bd 0b 8a 7b bd
       0.019367207 -0.09717337 -0.08860672 -0.061410945
0000e0 7e 13 12 be c7 aa 67 3d cf 81 9b 3b 45 a0 3a 3d
       -0.14265248 0.05655935 0.004745699 0.045563
0000f0 56 4a a8 3b 50 0b df bd ca 5b 71 bd 0d 4e d5 3b
       0.0051358147 -0.108908296 -0.058925427 0.0065095485
000100 1a 4e 54 3d 74 4a b0 bd 1b 3e 61 bc 98 df 80 bd
       0.051832296 -0.08607951 -0.013747717 -0.06292647
000110 1c 7f 23 be f4 05 3e 3c d6 bc 61 bd 38 e7 71 bc
       -0.15966457 0.011598099 -0.05511173 -0.0147645995
000120 cc fa ec bd 10 25 a6 3d 24 c5 2d 3c da 70 98 3d
       -0.11571273 0.08112538 0.010606084 0.074434
000130 2c bf 46 3d a0 50 25 3c 4f fa 82 bc 4a 74 ac b9
       0.04852216 0.010090023 -0.015988497 -0.0003289304
000140 89 d4 26 be 5a 86 88 3d a5 aa 2a bd 82 f2 12 3d
       -0.16292013 0.066662505 -0.041666646 0.035875805
000150 96 5c 60 3c 2b 8d db bc 00 2e e5 bb 8f 2d f8 3a
       0.013693949 -0.026800713 -0.006994009 0.0018934476
000160 92 b8 d9 3d 41 83 8f bb db 36 e8 bd ad 57 c0 3b
       0.10630907 -0.0043796604 -0.11338588 0.005869827
000170 b0 d1 cc 3c 93 f9 32 bd 58 aa 13 3c 28 41 06 3d
       0.02500233 -0.043695044 0.009012781 0.03277698
000180 6e 48 98 bc 7c a1 12 bd 27 04 0b bc 7d 7c 8f 3d
       -0.018589225 -0.035798535 -0.008484877 0.07006166
000190 14 b2 13 bd 16 ba e6 3d 14 18 05 bd 94 67 2b 3d
       -0.0360585 0.11265962 -0.032493666 0.041846827
0001a0 65 51 33 be ed 43 b2 bd 0a b6 c1 3c 8c b0 f7 bd
       -0.17511518 -0.08704362 0.023646373 -0.120942205
0001b0 59 18 e0 3c 91 39 35 bd 51 75 a7 bd 08 ef 61 3c
       0.02735536 -0.044244353 -0.08176673 0.0137899
0001c0 d9 31 2a be ac ce 86 bd 88 8e 32 bd 28 ed ed bc
       -0.16620578 -0.06582388 -0.04359296 -0.029043749
0001d0 25 7e 7b 3d 1a 75 53 bc 7a 6e 08 3d 3a 57 02 be
       0.061399598 -0.012906337 0.033308484 -0.12728587
0001e0 04 ba 8b 3b 76 31 c9 3d 11 7d 4b 3d 9f 44 24 3d
       0.004264118 0.09823887 0.04967982 0.040104505
0001f0 ac b2 3f bc 83 8b 83 3d 33 4d c2 bd 72 32 83 3d
       -0.011700314 0.06423094 -0.09487381 0.06406106
000200 8c 51 63 bd 93 e6 fe 3d 38 cd 34 bd 33 88 b8 3d
       -0.05549769 0.12446322 -0.044141024 0.09010353
000210 78 dd b9 bd 58 f6 75 3d e1 73 9e bd 14 0e 96 3c
       -0.09075445 0.060049385 -0.07736946 0.01831726
000220 ec 55 70 bc 21 b1 12 bd 6a 7a 13 3d 9f 2d d9 bd
       -0.014668923 -0.035813455 0.036005415 -0.10604405
000230 38 0e 8b be 11 2b 7b 3c 2e 13 da bd 66 af b6 3b
       -0.27159286 0.015330092 -0.106481895 0.0055751083
000240 ae 47 73 3d e2 ec 62 3c 90 91 2b 3e b6 44 47 bd
       0.05939453 0.013850423 0.16754746 -0.048649512
000250 38 de 8c 3d 2d 11 37 bc de 97 e6 3c 82 68 cf bd
       0.06878322 -0.011173529 0.028148588 -0.10127355
000260 0e e3 3f be 07 80 25 3d ea b6 f5 3d 65 37 17 be
       -0.18738958 0.0404053 0.11997779 -0.14767225
000270 fd 3c e0 bb 30 b6 09 be 85 a9 1d bd 6a d9 db bd
       -0.006843208 -0.13448405 -0.038491745 -0.10734828
000280 1e e0 dc 3c b8 4f 37 3c b9 b1 f3 3d 28 a8 74 3d
       0.026962336 0.01118844 0.11899132 0.05973068
000290 e6 ea 4f 3e 0d 29 0e 3e f4 27 16 3e 56 b9 ba 3d
       0.2030445 0.13882847 0.14663678 0.09117381
0002a0 99 9d 26 bd 51 e7 08 3d c4 82 a0 3d a1 49 0b 3e
       -0.04067764 0.033423726 0.078374416 0.13602306
0002b0 89 a5 0a 3d 88 8d d5 3d 3d 33 4e bc aa 83 04 bc
       0.033849273 0.104273856 -0.012585458 -0.008088032
0002c0 6f c9 fb 3c c7 ca 0e bd 05 9b aa 39 8d 8d d8 bd
       0.0307357 -0.034861352 0.00032540425 -0.10573874
0002d0 fe 21 a1 3d cd 16 d6 3a b1 68 81 bb 41 5e ce 3d
       0.078678116 0.00163337 -0.0039492478 0.10076571
0002e0 36 f4 00 bb d6 f2 c1 bd 0f 0f 4f bd 0f 51 a4 3c
       -0.001967681 -0.094701454 -0.05055147 0.020058183
0002f0 52 85 a4 bc 53 9d 8f bd 81 3b 69 3d 7c 7a 13 be
       -0.020083103 -0.07012429 0.056941513 -0.14402193
000300 88 b8 f7 3c 6d b0 66 3c e8 8c bf 3c a9 6f 21 bd
       0.030239359 0.014080149 0.023382619 -0.039413128
000310 b4 4c 82 3c a9 f5 a0 be ad 75 e9 bd 63 83 3f be
       0.015905716 -0.31437424 -0.11399398 -0.18702464
000320 0d f8 30 3d 7d 53 a9 3d 01 5e ff bc 29 80 2f 3d
       0.04320531 0.08267877 -0.031172754 0.042846832
000330 66 36 c8 bb e7 a9 9c bc f9 04 fd bd a7 c4 36 3d
       -0.0061100004 -0.019123985 -0.12354464 0.044621136
000340 75 c7 33 bc d5 5e 3e 3d 9c 16 59 bc f5 66 d8 bd
       -0.010972847 0.046477158 -0.013250019 -0.105665125
000350 bf d2 67 3d 20 f3 8f bd 86 11 1a bd a2 ba 5c 3d
       0.056597468 -0.07028794 -0.037614368 0.053888924
000360 77 84 7a 3c 76 f0 73 bc 8f 2c 74 3c e3 77 2f 3c
       0.015290371 -0.014888873 0.014903202 0.010709736
000370 00 a3 37 bd 31 50 48 3d 9f 03 01 bd 0c 03 36 bc
       -0.044833183 0.0489046 -0.031497594 -0.011109125
000380 85 bc 64 3e 09 ba 0d be 2e 3a dc 3d 90 ba 22 3d
       0.2233754 -0.13840498 0.107532844 0.0397287
000390 a5 4d a7 3d 38 80 46 3c 43 0e a8 bd 69 8c cb bc
       0.081691064 0.012115531 -0.08205845 -0.024847226
0003a0 e2 9a 9e 3d 80 fd 39 bd c3 e2 b9 3d e9 c2 fb bd
       0.07744385 -0.045407772 0.090764545 -0.122930355
0003b0 56 b7 a5 bd 0f 3e ed 3c e1 87 d7 3b ac d7 ee bd
       -0.08091609 0.028960256 0.0065774773 -0.1166223
0003c0 74 1d 6c 3d 06 67 aa 3d 2b 41 b4 3d 1b d9 87 bd
       0.057645276 0.083204314 0.08801492 -0.066332065
0003d0 a3 33 37 3d a0 8f 91 3d 9d 76 8d bd 71 d1 54 3b
       0.04472698 0.071074724 -0.06907389 0.003247347
0003e0 82 ff ae 3c 92 e5 b9 3c bb cf ec 3d c8 56 8b 3d
       0.02136207 0.022692475 0.11563059 0.068036616
0003f0 c6 07 1d 3b 96 06 b5 bd a5 c2 94 3e 75 46 78 3d
       0.0023960932 -0.08839147 0.29054752 0.060614068

fc1.bias f4 [256]
000000 97 d2 b6 3c a7 76 39 3e 28 64 22 bc b4 c8 6e 3e
       0.022317214 0.18111669 -0.009911574 0.2331875
000010 ba 3f 84 3d b2 97 4d be e6 b4 c9 bc 37 44 6a bd
       0.064574674 -0.20077398 -0.024622392 -0.05719396
000020 4a d0 13 3d ec 21 a3 3d 38 49 13 be ea 63 45 3d
       0.03608731 0.079654545 -0.143834 0.04819099
000030 68 89 85 3d 88 f4 6d bd e9 7b bb 3d f0 00 8f 3d
       0.06520349 -0.05809453 0.09154493 0.06982601
000040 82 9d 20 bd e6 f8 54 be d9 21 22 3e 2c 76 97 bc
       -0.03921271 -0.20798072 0.15833224 -0.018488966
000050 e1 c0 9f bd e6 d5 4a 3b e2 5e 20 3d 4b 03 33 bb
       -0.078004606 0.0030950247 0.039152987 -0.0027315195
000060 b6 1c 32 3e 4e f8 92 bd 21 02 30 3e 1f cc 52 bd
       0.17393765 -0.071762666 0.17188312 -0.051464196
000070 0e 94 a1 3d c3 60 7a 3b d6 11 85 bb 70 23 fa bd
       0.07889567 0.0038204647 -0.004060964 -0.122137904
000080 33 11 df bd 75 77 24 bd 56 db 9d 3d 1b 5f e6 3d
       -0.10891952 -0.040152986 0.07707851 0.11248609
000090 10 a2 5b 3e 7b b0 81 3d a3 0f 95 bd 33 e4 2f 3e
       0.2144854 0.06332489 -0.07278373 0.17176895
0000a0 46 56 e6 bd 1e f7 47 bd eb 46 1b 3e 96 74 31 bd
       -0.11246924 -0.048819654 0.15163772 -0.043324076
0000b0 25 c0 4e 3d 6c 15 2a bd bc 3e 03 3e d8 ea a1 3c
       0.050476212 -0.041524336 0.128169 0.019765303
0000c0 35 41 20 3e 2a cc 9d 3c ae a2 87 be ea 79 01 3d
       0.15649875 0.019262392 -0.26491302 0.031610407
0000d0 bf 1a 0d be f2 ac 90 3c ea 3b 5b 3d 66 d4 f1 3d
       -0.13779734 0.017660592 0.053523935 0.1180809
0000e0 fd 7e b9 bc 8d 13 53 bc 52 e5 da 3c 84 4a 2c 3b
       -0.02264356 -0.012883079 0.026720677 0.0026289532
0000f0 4f 47 91 bd 7e c2 26 3e 21 3e 01 be 51 cd 9d 3c
       -0.07093679 0.1628513 -0.12621357 0.019262942
000100 b0 fc 84 bd 35 d0 9e bd 97 0d 23 3d 03 15 61 3d
       -0.06493509 -0.07754556 0.039807882 0.05495168
000110 5a 81 f2 3c c5 84 ff 3b d6 ec a8 3d f4 59 e5 3d
       0.029602695 0.00779781 0.08248298 0.11198798
000120 53 41 93 bd 1e d3 ed bd d7 af 21 3d 20 fa 8f 3d
       -0.07190194 -0.11612533 0.039474335 0.070301294
000130 93 04 03 3e e2 0f 4b bd b4 dc 0a 3e b8 53 b4 bd
       0.12794714 -0.049575694 0.13560754 -0.088050306
000140 a1 98 48 3e ae 00 59 3d fc 0c 4a 3c 61 15 28 3e
       0.19589473 0.052979164 0.012332197 0.16414405
000150 b0 64 41 3e a6 ef 7d bc e5 7d 03 3e f0 9b 9a 3d
       0.18886065 -0.015499031 0.12840994 0.07549274
000160 25 f8 0d 3e 85 8b 78 3d e2 a6 2e 3e ed f7 ef ba
       0.13864191 0.06067993 0.17055848 -0.001830814
000170 70 f5 0e 3e a1 06 86 be de 0a 19 be 91 04 e1 3c
       0.13960814 -0.26176932 -0.14945552 0.027467998
000180 16 6a 59 3e b2 f6 8a bb 41 21 5e 3d 53 e8 01 bd
       0.21231875 -0.004240834 0.054230932 -0.031715702
000190 84 0b da 3d d4 9e 02 3e 69 f5 db 3d 27 d1 87 bd
       0.10646728 0.127559 0.10740168 -0.066316895
0001a0 02 e5 e5 bd 41 d9 4c 3e 9d 41 5f bd 2c b4 28 bd
       -0.112253204 0.20004751 -0.054505933 -0.04118745
0001b0 f6 55 68 3d aa 62 9f bd 88 ce 3d 3d e3 38 72 3e
       0.056722604 -0.077824906 0.04633954 0.23654513
0001c0 e9 07 37 be 76 d9 2a bd 4b fc eb 3d 1f 3e 7b bd
       -0.17874111 -0.041711293 0.115227304 -0.06133854
0001d0 27 05 c2 3d c4 4d d8 bd 7a 24 bb bd b3 dc 2d bc
       0.09473639 -0.105617076 -0.09137817 -0.010611701
0001e0 15 dd dc 3d 68 86 34 3e 2f d7 83 3e 9d 94 26 bb
       0.107843556 0.17629397 0.2575011 -0.002541817
0001f0 89 45 0b be c2 7f f7 3c fa f1 35 3d a8 30 ee 3c
       -0.13600744 0.030212287 0.04442022 0.029075935
000200 1f 13 12 bc b4 c5 81 3e d4 0e 6e bd 71 22 91 be
       -0.008915692 0.25346148 -0.05811961 -0.2834659
000210 7a bc eb bc 10 f1 4b 3d 5b 15 f0 bc 09 38 3a be
       -0.028776396 0.049790442 -0.029307058 -0.18185438
000220 38 e5 9d bd ee 4f 21 3e 54 6f 1f be fe 48 6e bd
       -0.07709736 0.15753147 -0.15569812 -0.05817508
000230 b6 9f 7d 3e b1 e7 0f be bc 28 80 be fd 0a a6 bd
       0.24767956 -0.14053227 -0.25031078 -0.081075646
000240 f1 b9 18 3e 8a 7d 0c be 1b f6 28 3d 54 d6 9b 3d
       0.14914681 -0.13719764 0.04125033 0.07609239
000250 d2 26 98 bc 5e 71 43 3e 49 77 46 3d b5 6a 34 bc
       -0.018573198 0.19086215 0.048453603 -0.011011769
000260 9c 44 2c bd f3 cf d5 3d 0b 6b 21 3e 61 1c 30 3d
       -0.04205762 0.10440054 0.1576349 0.042995814
000270 d0 5c 3f 3e 83 31 c8 bd ef 83 a0 bd 3a 5e 2e be
       0.18687749 -0.097750686 -0.07837664 -0.17028132
000280 0c 65 0b 3d 38 1c e8 bd 02 52 96 bc 3f 19 62 be
       0.034031913 -0.11333507 -0.018349651 -0.22079943
000290 05 c8 f4 bc da 2a 93 3d 31 a9 22 3e 11 b8 40 3c
       -0.029880533 0.07185908 0.15884854 0.011762635
0002a0 8a 8b 84 3d 69 9e 31 3e 1c e0 fb 3c a1 19 95 bc
       0.064719275 0.17345585 0.030746512 -0.018200697
0002b0 56 67 83 3e 27 29 37 3e 2f 71 f9 3b 91 98 1a 3e
       0.25664777 0.17886792 0.0076123695 0.15097262
0002c0 3d 01 01 3e b8 bf 0a 3d 6c 42 8a 3e 4f 65 a2 3c
       0.12598129 0.033874243 0.270038 0.019823698
0002d0 7a e6 c2 bd cc 4b d9 3d fc 5e 77 bd 87 c9 3b bd
       -0.09516616 0.1061016 -0.06039332 -0.04584649
0002e0 e3 80 54 3d 7d b3 c6 3d 5a cb 4f 3d 81 3d bc bd
       0.05188073 0.097022034 0.05073104 -0.091914184
0002f0 7d 4e 04 3e 5d 07 39 3e 5b 94 dd bd 23 c3 c6 3d
       0.12920566 0.18069215 -0.10819312 0.09705188
000300 7b b3 cd 3d 1b 40 53 3e 2a 77 42 3e b6 32 97 3c
       0.10043999 0.20629923 0.1899077 0.018456798
000310 0f 25 40 bd 7a 78 31 bd bc b1 bf bc 95 14 cd bd
       -0.04691034 -0.043327786 -0.02340018 -0.10013691
000320 b1 ee 4f bd e1 4c 55 3e 77 6e 11 3d c4 c5 9b bd
       -0.050764743 0.20830108 0.035505738 -0.0760608
000330 be 6e 1a 3e d6 c6 13 3d 58 15 3c 3d f0 8d ea 3d
       0.15081307 0.036078297 0.045918792 0.11452854
000340 48 46 ac bc 92 b5 6e bd 09 7a 30 3e 4f 25 8d bd
       -0.021029606 -0.058278628 0.17234053 -0.06891882
000350 75 fc 13 3e 6e 5f e1 bc 2b c7 b2 3d 96 84 09 3e
       0.14451773 -0.027511325 0.087293945 0.13429484
000360 21 16 c0 3d 5c 58 0d 3e d4 a7 df 3d 70 62 9d 3d
       0.09379221 0.13803238 0.109206825 0.07684791
000370 f5 8d 4b 3d 34 83 44 bd 0a 9f 47 be af 9a 84 be
       0.049695928 -0.047976688 -0.19494262 -0.25899264
000380 61 14 fd 3d 8a 6b 21 be 27 6a e7 bd f0 82 97 3d
       0.123574026 -0.15763679 -0.11299544 0.07398021
000390 fc 33 5e bd a7 23 d1 3d 97 c3 3a bc 08 6f 38 3e
       -0.054248795 0.10211878 -0.011399171 0.18011105
0003a0 d7 f1 4e be 02 97 ac bd be a3 57 3d ad fc 8d bd
       -0.20209442 -0.0842724 0.05264639 -0.0693296
0003b0 b7 2c 3d 3e 42 d4 1c 3d 1d 5e d7 bc 2b 76 86 bc
       0.18474089 0.038288362 -0.026289994 -0.016413769
0003c0 23 60 6c bd 56 dd 9f bd 94 e3 bd 3d 0c 4c a5 3d
       -0.05770887 -0.07805888 0.09271923 0.080711454
0003d0 5b 2a 47 3e 6d 08 94 3c ed 88 a2 3d 9f 30 29 3e
       0.19449751 0.018070424 0.07936273 0.16522454
0003e0 3c df eb 3d 9f d7 14 bc 6e 2b 15 3e a2 4b c9 bc
       0.11517188 -0.009084611 0.14567348 -0.024572197
0003f0 38 14 28 3e bf 2a 1e 3d a6 21 8e 3c bb 2a f9 3d
       0.16413963 0.038614985 0.01735003 0.12166353

fc2.weight f4 [128, 256]
000000 7a 99 70 3b a3 31 0f bd d3 68 fd 3c c1 2a 05 3e
       0.0036712573 -0.034959447 0.030933773 0.1300459
000010 de 0c e7 bd 14 b5 5d 3e bc 2e 31 be 44 d5 36 be
       -0.11281751 0.21651107 -0.17302984 -0.17854792
000020 6b 61 dd be a7 d1 32 3e 36 2a fb 3d cb 8d 02 3e
       -0.43238387 0.17462789 0.122639105 0.12749402
000030 28 85 8e ba b1 2b 9b bd e4 c7 c2 3d e9 b8 3c bd
       -0.0010873424 -0.07576693 0.09510782 -0.04607478
000040 74 63 70 be 3b bf 6e bd f0 b0 e3 bd a2 7e d5 3c
       -0.23475438 -0.05828784 -0.111177325 0.02606136
000050 1e b6 07 3b 7a 6b 2d 3d 5e 7d 4f bd c8 83 1f 3d
       0.0020707916 0.042338826 -0.05065667 0.038944036
000060 0c e4 a0 bd 1a 12 12 bc 13 7a 59 bc 78 0e 68 3d
       -0.078559965 -0.008915449 -0.013273734 0.056654423
000070 1d cb 86 bd 90 5e ef 3d 32 6b 45 be aa af 20 3e
       -0.065817095 0.11687958 -0.19279173 0.1569201
000080 70 d2 54 be c4 6b 22 be 11 a8 09 3e b7 27 0e bc
       -0.207834 -0.15861422 0.13443018 -0.008676461
000090 a5 11 bb 3d b4 2d f2 3c c0 d2 00 be dc f4 61 3d
       0.09134225 0.029562809 -0.12580395 0.055165157
0000a0 f7 c9 da 3b e6 86 79 3e ca 66 5d 3d a6 82 1a 3c
       0.006676908 0.24367866 0.054053105 0.009430563
0000b0 a9 b0 b3 3d e3 87 01 3e ce 94 3c bd 59 0b 6a bd
       0.087739296 0.12649493 -0.04604035 -0.05713973
0000c0 f4 78 19 3d 16 df a4 bd 14 b4 02 3e 5f 0c 0e 3e
       0.037468866 -0.08050363 0.12764007 0.13871907
0000d0 62 31 50 3e b9 1f 53 bc 8a a6 82 bd 38 e8 c2 3d
       0.20331338 -0.012885981 -0.06379421 0.095169485
0000e0 80 da f8 bc 7b db e1 bc ca a6 e1 bd 8c 23 90 3d
       -0.030377626 -0.027570477 -0.110181406 0.0703803
0000f0 2f e7 eb be 89 e9 f8 3d 51 d3 80 3e c0 2f 47 3e
       -0.46074817 0.12153918 0.25161222 0.19451809
000100 ea 9c 38 bc 40 00 83 3e 6b df 60 bd 96 ec 5f 3d
       -0.01126788 0.25586128 -0.054900568 0.054668985
000110 ef bb 03 3e 17 ba fa 3b e7 7c 1c be bf 08 42 3e
       0.1286466 0.007651578 -0.15282021 0.18948649
000120 75 3f 26 bd 74 6e 06 bb ba 4f f7 3d 66 6b 0b 3e
       -0.04058786 -0.0020512613 0.120757535 0.13615188
000130 8b 68 c3 bd 02 3e fe 3d 1a f9 8d be a1 91 9a 3d
       -0.09541424 0.12414171 -0.27729112 0.07547308
000140 e5 cc 01 be af e2 e9 3c e0 3f a6 3d ab a0 be 3c
       -0.12675817 0.028550474 0.08117652 0.023269972
000150 87 aa 4c bd a1 77 62 bc 94 bc 35 3e 5c 69 cb 3d
       -0.049967315 -0.013822467 0.17747718 0.09932205
000160 67 99 9b 3d 81 c1 47 bb aa 06 21 3d 5e 62 33 bc
       0.075976186 -0.0030480328 0.039312996 -0.0109487455
000170 d3 35 3d bd 5c 7a e1 3c a8 19 46 be f6 3e bd bd
       -0.04619391 0.027524166 -0.19345725 -0.092405245
000180 38 e8 4f 3d 42 c1 5a 3c 03 7f 3d 3d 2d 11 e9 3d
       0.05075857 0.01335174 0.046263706 0.11380229
000190 0b b5 96 3d dd 99 1c 3e 7d 7b a5 3d e0 9e 9b 3d
       0.0735875 0.15293069 0.08080194 0.075986624
0001a0 cb e1 8a bd eb b6 b8 bd c7 5f 89 be fd ee 68 bd
       -0.06781348 -0.09019264 -0.26830885 -0.056868542
0001b0 33 9b a5 3d 37 3a 9e 3d 85 b8 ba bc f6 cc a0 3d
       0.080862425 0.07725947 -0.022793064 0.07851593
0001c0 4f ae 6a be e9 4e 21 3d 7b 07 03 3d ea c4 1b be
       -0.22918056 0.039381895 0.031989556 -0.15211836
0001d0 e2 55 85 3d 09 c8 59 3d 0b 86 b7 be 6f 92 36 bd
       0.065105215 0.053169284 -0.35844454 -0.044573244
0001e0 bf 78 0a bd c4 bf 36 3e b1 0f 0b be 41 18 6e be
       -0.03380656 0.1784659 -0.13580205 -0.2325144
0001f0 d4 aa e2 3d de 3e 6c 3d 2e 2a e2 3c f2 55 3f 3e
       0.11067739 0.057677142 0.027608003 0.1868513
000200 12 cd 33 3d 02 12 fb b9 55 0c 98 3d cc 24 74 bd
       0.043896742 -0.00047887868 0.07424227 -0.059605405
000210 16 83 c2 3d 25 d5 10 bd 5a 57 4d be ec a8 e2 bd
       0.09497659 -0.03535952 -0.20052853 -0.110673755
000220 c1 05 90 bc 90 ce 01 bd 5b a7 aa 3d 82 c5 ce 3d
       -0.017580869 -0.031691134 0.08332702 0.100962654
000230 e5 d3 45 3d 5a 46 91 3d d6 6c ed 3d 7f 66 92 3d
       0.04829778 0.070934966 0.115930244 0.07148456
000240 4c 9b 85 bc fe e0 3a 3d 9d b7 6d bc 81 2e eb bc
       -0.016309403 0.045624726 -0.014509109 -0.028708698
000250 be 0a f7 bd dc cb de 3c 52 28 38 3e 87 15 0f 3e
       -0.12062596 0.027196817 0.17984131 0.13973056
000260 71 48 22 be 8e 74 16 3e 1f 16 ec 3c d2 a4 16 be
       -0.15847947 0.146929 0.028819142 -0.14711311
000270 42 77 59 bb 6a ad 49 be d1 be 5c 3e 61 4f 84 3d
       -0.0033182655 -0.19695058 0.21557166 0.06460453
000280 ae 38 44 bd 24 d2 67 be 35 72 83 bc 57 f0 8c 3d
       -0.047905616 -0.22638756 -0.01604567 0.06881779
000290 3a 51 22 be ca e1 45 be 2a 40 2a bd 14 4d 11 3d
       -0.15851298 -0.19324413 -0.041565098 0.035473898
0002a0 79 c8 1c 3e 4f d4 d1 3d d5 5b 25 bc 2a 9a cb 3d
       0.15310849 0.10245573 -0.010092695 0.09941514
0002b0 25 da 8a bd 06 34 aa bc f5 5f 88 be f9 b8 58 bc
       -0.06779889 -0.02077676 -0.2663571 -0.013227695
0002c0 4c b2 8c 3d 65 57 ee 3d bf a3 2d be 18 9e 1f 3d
       0.06869945 0.11637763 -0.16956995 0.03896913
0002d0 20 f4 eb bc 7d 0f 51 be 46 ec ad 3d e8 9b 80 be
       -0.028802931 -0.20416065 0.08492331 -0.25118947
0002e0 e5 97 d3 3d 1a f9 1c 3e da 5e 83 3d ee 77 eb bd
       0.10331706 0.153294 0.06414576 -0.11497484
0002f0 cb e5 86 3d c9 a5 1b 3d dd 63 fd 3d 41 4f d9 bd
       0.06586798 0.037999902 0.12372563 -0.106108196
000300 9e e2 07 3e be 18 71 bd ce b8 25 bc 42 bb 7f 3d
       0.13270041 -0.058861487 -0.010114862 0.062434442
000310 e3 ce af 3d bf 15 c8 bd d3 b4 74 3d 06 f8 0b be
       0.085843824 -0.09769773 0.05974276 -0.13668832
000320 de 3a 93 be e5 a0 06 be 9c b7 bd bd f9 4b 87 3e
       -0.2875585 -0.13147314 -0.09263536 0.2642515
000330 eb 5b 5b bd 90 bf f8 bd 3f ce b7 3b ed 8d 04 be
       -0.053554457 -0.12145913 0.0056093032 -0.12944765
000340 86 18 8c bd d6 b5 93 bb f4 0e f5 3c 4b 89 7a 3e
       -0.06840615 -0.0045077605 0.029914357 0.24466436
000350 55 a4 07 be 52 b8 06 be 79 0f 50 bc 6b fc 29 3e
       -0.13246281 -0.1315625 -0.0126990015 0.16600196
000360 98 a5 28 3d 82 6b 96 3d 6f dd 3e bd 85 0e 5b bd
       0.041173548 0.07344724 -0.046597894 -0.053480644
000370 9c 85 24 3d 60 7c 1c 3e ae b8 28 be f2 00 b2 3d
       0.040166482 0.1528182 -0.164767 0.086915866
000380 61 18 0a 3e 8c 27 81 3d 6a b3 22 3d 2c b4 8e bd
       0.13485862 0.06306371 0.039721884 -0.06967959
000390 bc 85 37 be 51 35 93 be 41 2b 44 3d 7e 4f 58 3d
       -0.1792211 -0.28751615 0.047892813 0.052810185
0003a0 63 ff bb bb 5e b6 40 be cb 35 ea bb d4 d0 44 3d
       -0.0057372316 -0.18819568 -0.007147526 0.048050717
0003b0 13 02 0d 3e 3e a9 a1 3d 95 6c 04 3e d7 e2 0c 3e
       0.13770323 0.078936085 0.12932046 0.13758408
0003c0 29 7a 94 bd 65 6b 7e bd e8 3a 09 be c4 e4 87 3d
       -0.07249863 -0.06211414 -0.13401377 0.066354305
0003d0 e1 eb ab 3d 0e d9 e9 3d d4 27 e6 3d 0a 73 27 3c
       0.083946 0.11418353 0.11238065 0.010220299
0003e0 40 26 4b bc 25 7c e3 bc a4 19 31 3d ea 0c 60 3e
       -0.012399256 -0.027769158 0.043237343 0.21879926
0003f0 21 ac 60 3d 66 31 12 3e b0 a4 20 3d 26 b5 06 3c
       0.054851655 0.14276657 0.03921956 0.0082219

fc2.bias f4 [128]
000000 f9 98 af 3c 3c 24 b2 bc 63 98 78 bd 95 92 5e bd
       0.021435248 -0.021745794 -0.060692202 -0.05433901
000010 1f 27 85 bd 67 f6 e8 bb a3 96 9d bb 8c ee 1d bd
       -0.065016024 -0.0071094516 -0.004809217 -0.038557574
000020 7c 2b 0d 3c 9f c6 ce 3c 98 86 bb 3d 00 e3 62 bd
       0.0086163245 0.025241194 0.09156531 -0.055392265
000030 76 77 0c bd 03 cb e7 3c f5 3c 0d bd e0 4c f2 bc
       -0.034293614 0.028295046 -0.03448196 -0.029577672
000040 ad ac a8 3b d3 01 02 3d 1d 57 35 bc 78 39 14 bd
       0.0051475377 0.03174002 -0.011068133 -0.03618762
000050 91 76 23 3c 63 3f 11 bd 57 91 91 bc da b9 15 bc
       0.009976999 -0.03546084 -0.017769499 -0.009138549
000060 ff 53 41 3c db 68 1f bd f9 cf e2 bc 15 ae 01 3d
       0.011799811 -0.038918357 -0.02768706 0.03166016
000070 60 5c 03 bd e4 7b 25 3c fa 86 51 bd 13 65 2c 3c
       -0.032070518 0.010100339 -0.051154114 0.010522145
000080 78 0d 0e 3b ef b5 52 bd e4 8e a3 bc b7 aa 24 3b
       0.0021675508 -0.051443037 -0.019965596 0.0025126168
000090 97 f7 cc bc fe 54 54 bc dd 63 96 bd d1 ed 67 bd
       -0.025020404 -0.012959717 -0.07343266 -0.056623284
0000a0 08 0c c3 3d 9f 2d d3 bc d2 87 23 bc fa 81 36 bd
       0.09523779 -0.02577859 -0.009981113 -0.04455755
0000b0 ec f4 a0 39 a1 63 94 3d fe d9 77 bc 1a 7e 86 bd
       0.0003070006 0.07245565 -0.015127657 -0.06567021
0000c0 08 bc 6b 3c ed 1a 54 3d 9f e6 36 3c 70 00 65 bd
       0.014388092 0.05178349 0.011163383 -0.05590862
0000d0 94 17 31 bd c8 4c 0e 3c 74 fb 2e bd 98 cc 9f 3d
       -0.043235376 0.008685298 -0.042720273 0.07802695
0000e0 e2 5f 5b 3d 7c f3 0a bd 3e cd ea 3c 9c ae a1 3c
       0.053558238 -0.03392361 0.02866232 0.01973658
0000f0 55 96 3e bc e6 e4 68 3d 34 1e a7 3b ca 9e b4 3d
       -0.011632522 0.05685892 0.005100036 0.08819349
000100 39 42 ae bd 15 01 fb 3c 6a 86 2b 3d 1f 97 6f bc
       -0.08508725 0.030640164 0.041876234 -0.014623432
000110 86 64 23 bb dd e2 c8 3c 2b 3f ab 3c ca e3 8a 3c
       -0.0024931743 0.02452224 0.020904144 0.016954321
000120 3e 7f b0 3a 5e 0c a4 3d 5a c4 39 3c 69 52 90 3c
       0.0013465656 0.08010171 0.011338318 0.017617421
000130 ab 05 49 bd 0e 0f 62 3d 47 f1 61 3d 1f b2 7a 3d
       -0.04907767 0.05519014 0.05516174 0.061205026
000140 0a 2e 14 bd 20 a0 c6 3c 7a b3 24 3d 89 41 98 3c
       -0.03617672 0.024246275 0.040210225 0.018585937
000150 45 1f 0a bb 35 a8 00 bd b6 04 5c 3d ca 9a 8b bc
       -0.0021075767 -0.031410415 0.05371543 -0.017041583
000160 4b 3a 89 3c 37 b1 0c bd 94 3c b4 3c 59 d6 a4 3c
       0.016751429 -0.034348693 0.022001542 0.02012174
000170 63 48 84 3d 8f c0 73 3c 6c a6 39 bd 48 96 3b bd
       0.06459119 0.0148774525 -0.045324728 -0.045797616
000180 8f 24 8a 3c 81 a9 7f 3d cd 7c fd 3b e3 d0 87 3c
       0.016863136 0.06241751 0.0077358247 0.016579097
000190 4e f7 41 bd 70 37 7d 3d e5 b1 84 bc de d1 47 bc
       -0.04735499 0.061820447 -0.016198108 -0.012196032
0001a0 39 9f 77 3d b6 28 e7 3c a6 ad 86 bd 98 f0 90 3d
       0.06045458 0.028217655 -0.065760896 0.070771396
0001b0 e6 2f d8 3b c4 3c 84 3d e4 3e a0 bb 5d 35 f8 bc
       0.006597507 0.064569026 -0.0048903096 -0.030298883
0001c0 37 56 55 3d 02 72 18 bd 30 d0 82 3d ca e2 37 3c
       0.052084174 -0.0372181 0.06387365 0.011223504
0001d0 3a a2 59 3d 18 11 1c bc 0e 71 2b bb 4c 5c fe 3c
       0.053133227 -0.00952556 -0.0026159915 0.03104987
0001e0 6f c3 7a bd 14 39 ff 3c 20 60 31 bc ee 86 ce 3c
       -0.061221536 0.031155147 -0.010826141 0.025210824
0001f0 0b fa 6e bd b1 9f d9 bd 05 1f 6c bc 39 ab 43 3b
       -0.05834393 -0.10626162 -0.0144116925 0.0029856695

fc3.weight f4 [4, 128]
000000 e9 99 81 3e d4 fc 10 3f d4 1e 85 be 28 c9 72 3e
       0.25312737 0.56635785 -0.26000082 0.23709548
000010 6a 10 ef bd 4a 3d 8e be fb 3b c8 3d d2 fb 8e 3e
       -0.116730526 -0.27781135 0.09777065 0.279265
000020 e3 fc bd be ff 1b 44 3e 03 aa 02 3e 7e f1 d5 3e
       -0.37107 0.19151305 0.12760167 0.41785806
000030 3c f9 1c 3f ea bd b5 3e a5 71 d7 be b2 3d 5c 3e
       0.613178 0.35496455 -0.4207889 0.2150791
000040 66 8f ad bc 02 97 71 3e 03 c0 07 3e 9e 21 04 be
       -0.021186542 0.23592761 0.1325684 -0.12903449
000050 78 4f 51 3d 82 47 c8 3e d4 ac 6b be 1a e1 8f bd
       0.051101178 0.39117056 -0.23015147 -0.070253566
000060 a1 75 ec bd 4b c3 38 be 0f 6e 99 bc 79 81 d1 be
       -0.115458734 -0.18043248 -0.018729238 -0.40919092
000070 f1 00 18 be 18 88 1a be ff da f0 3d a0 d0 bd 3c
       -0.14844109 -0.15090978 0.1176052 0.02317077
000080 62 ee aa bd f9 d8 91 3e de 1a d9 bc 12 88 ab 3c
       -0.08346249 0.2848585 -0.02650207 0.020938907
000090 61 82 1c be 6f 56 c1 bd ab 04 04 be 9e 0b 9b 3e
       -0.1528411 -0.09440314 -0.12892406 0.302823
0000a0 7f 97 48 bd 98 1d e3 be 87 d1 04 3e f2 0b b0 be
       -0.048972603 -0.44358516 0.12970553 -0.34384114
0000b0 3b 71 7e 3e c7 7b 85 bc 90 1e 0e 3f 89 32 1c be
       0.24847881 -0.016294373 0.55515385 -0.15253653
0000c0 3a f0 2a bc 18 4e 1a be 8f c7 58 be 51 8a ae 3e
       -0.010433251 -0.15068853 -0.21169876 0.34089902
0000d0 d0 1f ec 3c fe 5f 0b 3d 23 bf af 3e 19 02 18 bd
       0.028823763 0.034027092 0.34325513 -0.037111375
0000e0 d0 05 bb be 3f ef 7f 3e e5 07 d7 bd 8c 98 19 be
       -0.36527872 0.24993609 -0.10499553 -0.14999598
0000f0 3e ac 86 3e 92 23 ed bc 99 3d 8a 3e 47 27 50 3e
       0.26303285 -0.028947625 0.2700012 0.20327483
000100 a1 de 82 be bf 89 44 bd f3 55 76 bd 61 a9 9b 3c
       -0.25560477 -0.047982927 -0.06014056 0.019001665
000110 89 4d 1c 3e 52 7b 6f 3d 5f 14 c7 bd 96 9a 20 bc
       0.15263952 0.058467217 -0.09720682 -0.009802481
000120 56 9c b8 3d 3f 3c 96 be ce 7d 9b bd 4f c7 06 be
       0.09014194 -0.2934284 -0.07592355 -0.13161968
000130 2f 89 a0 3e 47 16 b4 3d 6d c8 74 3d 8b 9d cb bd
       0.31354663 0.087933116 0.059761453 -0.09942158
000140 ee 8a 26 3d 74 6f a4 3e d7 e7 12 3e 36 16 2e bf
       0.040659837 0.32116282 0.14346252 -0.6800264
000150 d2 6e 78 bd 59 43 72 be f5 35 d8 bd 3d ed b3 3e
       -0.06065256 -0.23658504 -0.105571665 0.35141936
000160 c8 a8 8e 3c 1a fb 41 bf 86 68 4f 3f f5 c4 16 bd
       0.017414466 -0.75773776 0.81018865 -0.036808927
000170 33 ab 79 be b8 fe a6 be 6b eb b3 3d 45 f3 d3 3e
       -0.24381714 -0.3261621 0.08785137 0.41396537
000180 6d 85 10 3f a6 86 94 bd 07 e0 af bd 12 30 87 bd
       0.5645359 -0.07252245 -0.08587652 -0.066009656
000190 43 51 77 3b 07 be d9 be cc 69 43 be 13 94 8b bd
       0.0037737645 -0.42527792 -0.19083327 -0.06815352
0001a0 7f 4b c9 bd 57 e0 e8 bd 31 77 8f bd 4f 35 d8 3c
       -0.09828853 -0.113709144 -0.07005156 0.026392607
0001b0 84 0f bc 3e 8c 97 9a 3d 2e 7e 42 3e c7 dd 5f 3e
       0.36730587 0.075484365 0.18993446 0.21861945
0001c0 20 d2 52 3d ef 7f 92 bd 2d 4e 29 be 95 d8 b3 bc
       0.051469922 -0.07153308 -0.16533728 -0.02195386
0001d0 be ce c0 3d 67 2b a4 3e 02 26 89 be 0a a8 24 3d
       0.09414433 0.32064363 -0.2678681 0.040199317
0001e0 a8 b1 0a be 96 6c 1e 3d 02 fc 27 3e 8a f9 ee be
       -0.13544333 0.038677774 0.16404727 -0.46674758
0001f0 25 2a 02 be 24 77 cd be b2 27 3e 3e 04 9a e4 3d
       -0.1271139 -0.4012996 0.1856983 0.11162189
000200 05 f1 0b bd f1 9f aa 3e d0 cf 02 be c1 33 a4 be
       -0.0341654 0.3332515 -0.12774587 -0.32070735
000210 6a 12 b2 3e e7 9a c8 3e 3f 3e 92 3b f4 b4 30 be
       0.34779674 0.3918068 0.0044629867 -0.17256528
000220 10 fd 73 3d 4b d1 64 3e 3f 1a 12 be 6c 35 26 be
       0.05956751 0.22345464 -0.14267825 -0.16231316
000230 4b 25 7d bc 9a 61 b1 be 5a 0d c7 3e 7a d7 be bd
       -0.015450786 -0.34644777 0.38877374 -0.09318443
000240 1a d6 bc 3a ef 84 be bc b2 05 58 3d b0 9b 76 3e
       0.0014407069 -0.023256747 0.052739806 0.24082828
000250 36 44 29 3d bc 79 19 3e e2 da 67 3e de b7 b3 bb
       0.041324817 0.14987844 0.22642091 -0.005484565
000260 03 63 47 bd c0 cc 18 3f 5e 5c 82 bc 7c 2b b6 3d
       -0.04867841 0.59687424 -0.015913185 0.08895013
000270 c1 dd 21 3e a9 03 e9 be df c0 c5 bc 68 ba 17 3e
       0.15807249 -0.45510605 -0.02413982 0.14817202
000280 46 ba c2 bd 11 bf 8b bd bc c4 da bd ff 09 46 3e
       -0.09508185 -0.068235524 -0.10682055 0.1933975
000290 03 db be 3d 82 be a2 3d a7 d0 6b 3d 3b eb d9 bd
       0.09319117 0.07946493 0.057572033 -0.1064057
0002a0 77 ee d0 bd 45 a0 4c 3c e1 fe 91 3c 37 9f bc bd
       -0.102017336 0.012489383 0.017821731 -0.09210055
0002b0 73 0a 03 3e ba 0d 17 be 80 40 c8 bd 13 c2 82 3e
       0.12796955 -0.1475133 -0.097779274 0.25538692
0002c0 8a 59 4f be b1 7e 82 3e a7 1e c9 be 9b 4d 31 3e
       -0.20249 0.25487283 -0.39281198 0.1731476
0002d0 d0 c6 f9 3d ac cd b6 bd 42 f0 5d 3f 95 44 b3 bd
       0.121961236 -0.089259475 0.8669473 -0.08753315
0002e0 a4 9e 93 bd 2f ef 95 3d 74 39 9d 3d 78 c1 30 3e
       -0.07207993 0.07321011 0.07676974 0.17261302
0002f0 ef fe 76 be d8 df b0 be dd d3 a3 bc 8c 1c fc bb
       -0.24120687 -0.3454578 -0.019998485 -0.0076938327
000300 00 e0 1d 3f 53 03 ef bd 63 da 69 3b ee b1 50 bd
       0.6166992 -0.11670556 0.0035683147 -0.050950937
000310 eb 14 bb bd 50 4b 1a be bc d9 03 bd cf 0a 42 3e
       -0.09134849 -0.15067792 -0.03219007 0.18949436
000320 ee 97 e2 3c 6f fc 58 be 4b 7a 8b 3c 26 70 75 3e
       0.027660336 -0.21190046 0.017026087 0.23968562
000330 30 59 8e 3c d2 2f 92 3e 04 07 07 be 97 97 9c ba
       0.017376512 0.2855211 -0.1318627 -0.0011947033
000340 12 bc 60 3d f7 70 34 3e 36 e5 ed 3d 05 11 9e 3d
       0.054866858 0.17621218 0.11615984 0.0771809
000350 4a bf c3 3e 8d b9 a8 3d a7 d6 75 be c4 9f 25 3e
       0.3823188 0.08238516 -0.24007665 0.16174227
000360 ec af ea 3e bf 76 55 3d e9 13 07 bf 9f 33 41 3e
       0.45837343 0.0521152 -0.52764755 0.18867348
000370 8e 8c 8a 3e 22 b2 77 be 15 2d b1 bd bd 68 8d be
       0.2706036 -0.24189046 -0.08651177 -0.2761897
000380 ce 58 81 bd 72 64 54 be 18 78 80 3e 99 90 93 bd
       -0.06315766 -0.20741442 0.25091624 -0.07205314
000390 f1 23 bd 3d af 37 8c be 45 44 35 be bb ac 55 3d
       0.09235371 -0.27386233 -0.17701824 0.05216668
0003a0 63 a7 a8 3e f1 0e dd bd 1e 7c 87 3e 44 ee 45 3d
       0.32940206 -0.107938655 0.2646188 0.04832293
0003b0 44 e7 c0 3e 82 62 f8 bd b8 10 94 3d 49 29 aa bd
       0.37676442 -0.12128164 0.07229751 -0.08308656
0003c0 aa ae 12 be d3 b7 5b be a8 4e 74 bd 48 63 ae bd
       -0.14324442 -0.21456842 -0.059645325 -0.0851503
0003d0 40 2b 4a be 16 40 8f bc 80 3e 54 3e bf 43 85 3e
       -0.19743061 -0.017486613 0.20726967 0.2602825
0003e0 0f 09 09 bc cc 0b 4f bd 23 f6 ed 3e e1 17 05 bf
       -0.008363976 -0.05054836 0.4647685 -0.5198956
0003f0 99 cd 81 3d 7c 10 51 bc 8e 6c e6 3d bd 7b 7b be
       0.06338043 -0.012760278 0.11251174 -0.24558921

fc3.bias f4 [4]
000000 ff 25 12 3d 8d 9c ae bd 5c 75 7c 3d 64 84 44 bd
       0.035680767 -0.085259534 0.06163536 -0.04797782
