checkpoint_critic.pth (torch_old, 169980 bytes, 5 tensors)

fcs1.weight f4 [256, 33]
000000 22 12 b8 3c d5 52 cd 3c 9e ed 3b 3d d2 50 06 3d
       0.022469584 0.025063911 0.045880906 0.03279192
000010 b2 5c 44 3c c1 f4 e6 bb c6 61 47 bc 69 25 f3 3c
       0.011984991 -0.00704822 -0.012169307 0.029680924
000020 50 11 49 bd 94 de a3 3d 0a d3 da 3c c7 f1 56 3c
       -0.049088776 0.08001438 0.02671196 0.013119168
000030 ef 0a d3 bb 4f 68 4d 3d df 0b 8a 3d be 53 7c bd
       -0.0064405124 0.050148305 0.067405455 -0.0616033
000040 92 38 82 3b 9c 40 9d bc 52 b4 85 bc 13 1a 18 3b
       0.003974029 -0.019195847 -0.016321335 0.00232089
000050 f6 c0 0f 3c 0e ff 2e bb c3 5a 82 3c 1c 84 1a 3d
       0.008774033 -0.0026702317 0.01591242 0.037723646
000060 1c e7 8e bb 09 75 b8 3a d4 1c 1f bd 55 8c 16 bd
       -0.0043610465 0.0014072965 -0.038845852 -0.036754925
000070 06 3b 33 bd 80 6a 4e bd 82 59 c8 bc be 99 25 3d
       -0.04375746 -0.050394535 -0.024456743 0.040429823
000080 e6 c7 48 be 94 95 8c bb 19 ae a3 bd 7e 98 c5 3c
       -0.19607505 -0.004290292 -0.07992191 0.024120566
000090 4a ef 83 3c e2 58 62 3c 4d b4 0f 3d 61 f7 1d 3d
       0.016105313 0.013815137 0.035084058 0.038565997
0000a0 6c f4 16 bd 70 5e 59 3d 6e c4 f0 3a 20 1d 52 3c
       -0.036854193 0.05306858 0.0018369087 0.012824327
0000b0 c6 ff 3f 3d 6c b5 2b 3c 3b c6 b9 3c 73 2a b8 3d
       0.046874784 0.010480266 0.022677531 0.089924715
0000c0 87 36 16 3d 27 8a 6d 3c 33 cf 07 bd ae a7 8a 3c
       0.036673095 0.01449827 -0.033156585 0.016925659
0000d0 73 20 62 3c 6b b3 0c bc f0 ca 6c 3b ae 91 93 ba
       0.013801682 -0.008587698 0.0036131702 -0.0011258626
0000e0 bf 4c 10 bc 09 1d 7d ba a0 5f 65 bb d3 33 24 bd
       -0.00880736 -0.00096555107 -0.0034999624 -0.040088486
0000f0 f2 9e aa bd 6b 11 72 3d 30 f6 a3 3c c6 d6 8d 3d
       -0.08331098 0.059098642 0.020014852 0.069257304
000100 a0 9a 9d 3b c4 23 27 be 8e 3f 2f 3d fc 0c 80 3d
       0.0048096925 -0.16322237 0.04278522 0.062524766
000110 f7 fe ea bc 60 8d b4 3c e8 1f 15 3b a2 76 21 bd
       -0.02868603 0.02204007 0.0022754613 -0.039419778
000120 e9 5b 58 bd 55 a6 ed 3c 15 0d 88 3a 4a 14 54 3c
       -0.052822027 0.029009977 0.0010379875 0.01294429
000130 2d ca 3f bc 61 26 f4 3a d2 fd eb bc 08 7b 29 bc
       -0.011705917 0.001862716 -0.028807554 -0.010344274
000140 c5 81 76 3d 03 c8 3d bd 34 76 94 3d d3 6b bc bc
       0.06018235 -0.046333324 0.07249108 -0.023000633
000150 60 ad fd 3c 5b db 20 bd cd 70 90 bd 46 3a 3a bd
       0.03096646 -0.039271694 -0.07052765 -0.04546573
000160 10 10 2b 3b f5 88 da bd a8 85 f1 3c 1b b3 33 bd
       0.0026102103 -0.10670654 0.029482678 -0.04387198
000170 a7 6a 63 3d 40 bf 22 3d de cd 44 bd 40 2e 51 bb
       0.055521633 0.03973317 -0.048047893 -0.0031918436
000180 b5 b1 e0 3c 1e 99 5e bd 12 d6 89 3e 54 0d a8 3c
       0.027428487 -0.054345243 0.26921135 0.020514168
000190 c9 99 59 3d 02 48 95 3d c1 bf e2 bc 52 3a 93 bd
       0.053125177 0.07289125 -0.027679326 -0.07188858
0001a0 be e7 84 3d 15 43 f3 3c 48 a5 0d bd 84 46 9c bd
       0.06489514 0.029695073 -0.034581453 -0.07630637
0001b0 19 cc 88 bd ed 3f 10 bc 56 26 bc 3d 88 96 3c bc
       -0.066795535 -0.008804304 0.091869995 -0.011510499
0001c0 8b 80 4e bd 4b af fa 3d 1e e8 20 bd 41 f9 f0 bd
       -0.050415557 0.12240466 -0.039283864 -0.117662914
0001d0 ee 31 e5 3d d7 c3 5c bc 44 cb 28 bd e5 b6 a3 bc
       0.11191164 -0.013474426 -0.041209474 -0.019984672
0001e0 70 55 49 3d 5d 8c 2b bd 78 1a de bc e8 e9 50 3d
       0.049153745 -0.041881908 -0.02711223 0.05100432
0001f0 8c 3f da bc ea 58 1b bc 89 f7 69 3d 06 95 2f 3b
       -0.02664163 -0.009481648 0.057120834 0.0026791706
000200 b8 a0 ca bc 31 6d 3b 3d 80 c6 33 bc 7d f2 1c be
       -0.02473484 0.04575843 -0.010972619 -0.15326877
000210 06 6b 23 3d 20 29 9c bb 23 5e 9f 3d 4d 61 80 bd
       0.039896987 -0.0047656447 0.07781627 -0.06268559
000220 74 ca a8 bd 6b 41 94 3d fa 3e 91 3d 0e 56 98 3d
       -0.0824174 0.0723904 0.0709209 0.07438289
000230 fa fb 8d 3c 28 1d c3 3d d1 2d 29 3c b3 c1 28 3b
       0.017332066 0.095270455 0.010325865 0.002575022
000240 a7 e6 07 3d 1d ab 76 bc f4 ff e0 bb 41 49 14 bd
       0.03317895 -0.015055445 -0.0068664495 -0.036202673
000250 27 3a ec bc 21 93 91 bd 24 ba 15 be bc 81 54 bd
       -0.028836323 -0.07108141 -0.14621788 -0.051881537
000260 3d 11 3d 3d e1 71 20 3b ca 0e 6d bd 1a 74 40 bd
       0.046159018 0.002448194 -0.057875432 -0.046985723
000270 e8 b0 3a bb 8a d0 12 3d 04 71 68 bd a8 2f 87 3d
       -0.0028486792 0.03584341 -0.056748405 0.066008866
000280 41 e0 54 bd 58 d9 92 3c ec 99 96 bd 94 a1 88 3c
       -0.051971678 0.017925903 -0.07353577 0.016678609
000290 a2 ce a3 be 63 83 7e bc a8 19 d0 3a 52 27 70 bd
       -0.31993586 -0.015534255 0.0015876787 -0.05863125
0002a0 59 8e b7 bc ec d2 cb 3c 1d c6 b8 bd c1 bc 19 3d
       -0.022406744 0.024880849 -0.09022162 0.037533525
0002b0 06 d5 b7 bc 40 c7 92 bd b4 64 72 bc 91 0d ea bb
       -0.022440445 -0.0716691 -0.014794517 -0.0071427305
0002c0 de a0 0a bc 52 30 5c 3c 12 28 a6 3d de df a0 bd
       -0.008461205 0.013439255 0.081131116 -0.07855199
0002d0 3e dc 86 bc a9 ae 3a bc ec d0 28 bd a3 2f 82 3d
       -0.016462442 -0.011394181 -0.04121487 0.06356742
0002e0 4c fc 51 bc 6b 27 8a bc 3b bb b2 3c e5 4c e0 3c
       -0.0128165 -0.0168645 0.021817794 0.027380416
0002f0 0c 0d 2a bd a2 37 a6 bc 9e e4 0c bc 4e f3 a1 bd
       -0.04151635 -0.0202902 -0.008599428 -0.07907735
000300 22 8d 23 3d fd 91 56 3d a4 1a 44 3d d2 19 13 bd
       0.039929517 0.05238532 0.04787697 -0.035913296
000310 c8 80 19 3c f6 47 22 bd 74 ee 07 3d f5 7f 00 bd
       0.009369083 -0.03961941 0.03318639 -0.03137203
000320 9e 33 bd bd cc 02 05 3b fc 2f b5 3c 92 02 9b 3b
       -0.09238361 0.0020295857 0.022117607 0.004730531
000330 46 28 b3 bc a1 25 8e bc 03 53 e0 bc ff d1 8b 3c
       -0.02186979 -0.017351927 -0.027383333 0.017067907
000340 66 74 87 3c 11 d6 2c bd a5 06 b3 3c e7 52 fb 3d
       0.016534995 -0.042196337 0.021853754 0.12271672
000350 69 ef 1c bd e6 b5 04 3a dd 25 ee 3b f5 e6 bf 3d
       -0.038314257 0.00050625054 0.0072676972 0.093702234
000360 d3 ab 6f bc d6 c9 cb bb 2e 40 12 bd f1 35 68 bc
       -0.014628368 -0.006219129 -0.035705738 -0.014173017
000370 33 77 91 3c dd 58 56 3d cb 74 a9 bc 55 2e 39 bd
       0.017757034 0.05233084 -0.020685574 -0.0452102
000380 11 de 4b bd 51 18 9a 3d 8d d0 83 3d 64 81 43 bd
       -0.049772326 0.07524169 0.06436262 -0.04773082
000390 01 86 cf bd 80 9d be 3a 6a 8b 08 3d 85 ec 4b bd
       -0.10132981 0.0014542788 0.03333608 -0.04978611
0003a0 d1 0c 76 3c c2 fb 7c 3d dc 68 4b bd d4 18 5e bd
       0.015017704 0.061763532 -0.04966055 -0.054222897
0003b0 69 db 92 3d 3e 86 6e 3d fb 8e e8 bb a8 df d1 3c
       0.071707554 0.058233492 -0.0070971227 0.025619343
0003c0 8f 76 c2 3d 4c 81 dd bc fa 01 68 3d f2 a2 9c bc
       0.094952695 -0.027039193 0.05664251 -0.019120667
0003d0 34 ff 0e bd 1c e4 f7 bc 91 b7 83 bd 3f 28 a1 3b
       -0.03491135 -0.030260138 -0.06431497 0.004918128
0003e0 46 2a 02 bd 77 fc bb 3c 3f 86 52 bd b4 c2 ae 3c
       -0.031778596 0.022947533 -0.05139756 0.021333076
0003f0 6e 68 b1 3c 69 f4 a1 3c 1f 49 0b 3d be ac 5f bd
       0.021656241 0.019769864 0.03400528 -0.0546081

fcs1.bias f4 [256]
000000 a6 29 93 3d 87 f7 3f 3e 94 c8 36 bd a0 45 10 3e
       0.07185678 0.18746768 -0.04462488 0.1408906
000010 42 12 23 bd 02 ca 39 be 3d 3a 52 be 81 b2 b0 bd
       -0.039812334 -0.18143466 -0.20530029 -0.08627797
000020 b3 39 ea 3c 40 52 cd 3d 25 e0 17 bd 78 61 df bc
       0.028591966 0.100254536 -0.037078995 -0.027268156
000030 f6 73 a6 3d e7 3d f8 bd 05 93 42 3d 90 af 56 bd
       0.081275865 -0.12121182 0.04750349 -0.052413523
000040 23 a0 53 bd 87 09 16 be 92 84 f8 3d db 84 0b be
       -0.05166639 -0.14652072 0.12134661 -0.13624899
000050 5d 94 a4 3b 0d 46 34 bc 26 b3 b0 3d 19 57 10 3d
       0.005022569 -0.0110030295 0.0862792 0.035239313
000060 c8 5f b2 bc 0f 13 42 bd 96 f0 99 3c df 20 9b bd
       -0.021774188 -0.047381457 0.018791478 -0.07574629
000070 03 9e 40 3d 6c bc 1c 3d 0e 67 8d 3d a0 ad d9 bd
       0.04702569 0.03826563 0.06904422 -0.106288195
000080 6e 89 38 be 7f 1a c8 bd 9a 42 ba 3d 06 08 a6 3c
       -0.18021175 -0.09770679 0.090947345 0.020267498
000090 04 b8 06 3e 6b ca 38 3d 1c d3 87 bd 5a 69 a7 3d
       0.13156134 0.045114916 -0.06632063 0.08174391
0000a0 90 b9 b1 bd 38 8c c4 bd d3 6c b1 3d 19 1c c7 bd
       -0.08677971 -0.09597057 0.08663335 -0.09722156
0000b0 62 95 07 bd 10 fb 27 be 76 0a 0d 3e 98 9a 42 3d
       -0.033101447 -0.16404366 0.13773522 0.047510713
0000c0 1b d7 94 3d fc c6 c9 bd 09 77 e6 bd 60 36 19 3d
       0.072675906 -0.098524064 -0.11253173 0.03740537
0000d0 2d 2e bc bd ba a1 a3 bd a5 fc 1e be 38 dd 50 3d
       -0.09188495 -0.07989831 -0.15526064 0.05099222
0000e0 94 de 86 bd 4e 1f 9a 3c 74 32 4d 3d b4 c9 03 3c
       -0.06585422 0.018813755 0.050096944 0.008043695
0000f0 e1 2a 83 bd 8f ad cd 3d 61 0e 30 be c3 e0 46 bd
       -0.06404663 0.10042869 -0.17192985 -0.048554193
000100 a6 8c cc bd e9 9f 07 be b5 40 e9 3d 47 d6 d7 3d
       -0.09987764 -0.13244595 0.11389295 0.10538917
000110 b2 82 91 3d 8f cb 88 3c 21 8e 38 3d 17 25 80 3d
       0.07105006 0.016698627 0.04505742 0.06257074
000120 dc dd 48 bd 75 96 f7 bd b8 70 8d bb 36 85 9a 3d
       -0.049039707 -0.12089244 -0.0043164156 0.07544939
000130 1a be e1 3c a6 e6 8c bd 7d 85 c6 3d 60 b6 a8 bd
       0.027556468 -0.0687993 0.096934296 -0.0823791
000140 50 ca 63 bb 05 75 0f 3e 5e 43 75 bc 69 78 99 3d
       -0.0034758039 0.14009483 -0.014969675 0.074936695
000150 4e 20 ae 3d e6 60 0b be 15 4b 0e 3e a7 40 9a 3c
       0.085022554 -0.13611183 0.13895829 0.018829657
000160 a4 02 93 3d c8 50 ce 3d 8b 82 bf 3d 03 2a ef 3c
       0.07178238 0.100740016 0.09351071 0.029194837
000170 31 1b 05 3e 72 88 3e be 90 ed 48 be 8c ef 7d 3d
       0.12998654 -0.18606737 -0.19621873 0.061996028
000180 89 25 b0 3d 01 81 38 bd 79 15 ef 3d ee ff 98 bd
       0.08600909 -0.045044903 0.116740175 -0.0747069
000190 2f 05 95 3d 35 f6 ac bc ac 25 68 3c 92 75 e5 bd
       0.07276379 -0.021113494 0.014169138 -0.112040654
0001a0 d4 4d 09 be a7 72 08 3d 0d aa 65 bd 8b 85 d9 3d
       -0.13408595 0.033312466 -0.056070376 0.106211744
0001b0 09 04 9b 3c b0 71 2c bd 54 77 15 3e 31 01 61 3e
       0.018922823 -0.04210061 0.14596301 0.2197311
0001c0 4b 64 dc bd 63 75 99 3c ad 0b 61 3d e9 7b 3a be
       -0.10761317 0.018732732 0.054942776 -0.1821133
0001d0 79 a6 3e 3c 7a f4 33 be b8 3d ef 3c 35 a0 00 be
       0.01163637 -0.17573729 0.029204234 -0.12561114
0001e0 8b ef 97 3d ba 21 97 3d 96 d0 32 3e c6 7c 9b 3c
       0.07418736 0.0737948 0.17462382 0.018980395
0001f0 b6 f6 00 be 92 45 01 3e 44 ea 88 3d 2b 32 d3 3d
       -0.12594113 0.12624195 0.066853076 0.10312303
000200 9c 35 30 bd 5d 8e 2a 3e 49 42 02 be a5 5b 43 be
       -0.043019876 0.1665587 -0.12720598 -0.19077928
000210 8c b5 03 3d 29 7e 93 3d 28 17 a8 bc c2 75 b8 bc
       0.03215556 0.072017975 -0.020518854 -0.022517089
000220 a9 91 2b be c8 b0 95 3d b4 0a 5a be d3 99 cf bd
       -0.16754784 0.07309109 -0.21293145 -0.101367615
000230 31 ab 0e 3e 88 ca e0 bd 59 ed 18 be 6c b8 ee bd
       0.13932492 -0.1097613 -0.14934291 -0.116562694
000240 5a 81 bd 3d c6 43 ba bd 8a e0 dd bc 16 60 9d bd
       0.092531875 -0.09094958 -0.027084608 -0.076843426
000250 71 e8 9a 3d 0f 9a c6 3d 74 4f 0b 3d f7 bd 4e 3d
       0.07563866 0.09697353 0.03401132 0.050474133
000260 2e bc 96 bd 2b f3 8c 3d e6 a7 31 3e e3 72 14 3d
       -0.07360111 0.06882318 0.17349204 0.036242377
000270 fc 5a d7 3d 69 4a 10 bd 9d a2 27 bc 7f 5f 33 be
       0.10515401 -0.035227213 -0.010231641 -0.17516898
000280 81 d5 39 3d 61 38 b4 bd 9f 50 35 bd 9f 65 20 be
       0.04536963 -0.08799816 -0.04426634 -0.15663765
000290 60 04 68 3d 88 28 28 3d 9f d8 cf 3d b5 67 47 bb
       0.056644797 0.04105428 0.10148739 -0.0030426804
0002a0 55 4b 9c bd c3 4a 16 3e 58 80 7d bc fc 3a 2a 3e
       -0.07631556 0.14676957 -0.015472494 0.16624063
0002b0 f2 e8 39 3e 11 0c 07 3e 65 e5 d7 3d 69 cc 9b 3d
       0.18155268 0.13188197 0.105418004 0.076073475
0002c0 2b 52 1f 3e 5d d3 89 bd 3b 6f 27 3e 74 51 c5 bd
       0.15558688 -0.067297675 0.16351025 -0.096346766
0002d0 20 8c 0b bd f8 d0 7c 3d a3 86 37 be 4f 74 df bd
       -0.03406918 0.061722726 -0.17922454 -0.10910856
0002e0 b3 1f 9f 3c 18 e8 31 bd 81 1d 39 bd c6 fc c1 bc
       0.019424295 -0.043434232 -0.045194153 -0.023680102
0002f0 71 6b ef bb 35 92 2c 3e 9b af aa bd fe c7 e1 3d
       -0.007306509 0.16852649 -0.08334275 0.110244736
000300 93 a5 55 bb 33 42 16 3e 16 13 41 3e ba 38 96 bd
       -0.003259991 0.1467369 0.18854937 -0.073350385
000310 00 e4 b3 ba 9e b5 86 bd b4 b1 6d bc b9 b7 f7 bd
       -0.0013724566 -0.065776095 -0.0145077 -0.12095589
000320 32 60 ab bd a0 7f 6e 3d fa e9 b7 3d 88 cc f7 bd
       -0.08367957 0.05822718 0.08980174 -0.12099558
000330 24 b1 20 3d 5f 62 51 bc c9 5b 07 3c d7 38 b7 3d
       0.039231434 -0.012779801 0.008261629 0.08946388
000340 80 90 5a bd 4c 45 be bd 96 a3 33 3e 5c 22 1f 3e
       -0.053360462 -0.09290561 0.17542872 0.15540451
000350 18 92 90 3d a0 4c f8 3c d4 fd 94 bd 15 44 fe 3d
       0.07059115 0.030309975 -0.072749764 0.12415329
000360 de 60 59 bd da 80 77 3d 34 74 8f 3c 7f 5b 38 3d
       -0.053070895 0.060425617 0.017511465 0.045009132
000370 7d 62 87 3d e1 10 10 be 84 e5 4e be df 94 1f be
       0.06610582 -0.14068939 -0.20204741 -0.15584134
000380 68 36 32 3e 61 5e 11 be e7 46 ff bd e0 44 d4 3d
       0.17403567 -0.14196159 -0.124646954 0.10364699
000390 7b 46 64 bd 7e 09 ca 3c db da 67 bd 85 9d e2 3d
       -0.055731278 0.02466273 -0.0566052 0.11065201
0003a0 31 f1 30 be e6 cc 5d be bd fb d5 3d cb b3 b8 bd
       -0.17279507 -0.21660194 0.10448406 -0.09018668
0003b0 ce 0a 49 3d e1 3d 91 3d ea 9e fc bc 95 84 07 be
       0.04908257 0.070918806 -0.030837495 -0.1323417
0003c0 7f 85 35 3d 4f e8 80 bd 00 87 49 3e ca fb 5e 3d
       0.044316765 -0.06294309 0.19680405 0.054439344
0003d0 23 9e 08 3e e5 8d c5 3d 4a db fb 3d bd 6e 9c 3d
       0.13341574 0.09646205 0.122976854 0.07638309
0003e0 16 6f b4 3d 94 70 d5 bd 92 5a f3 3d 37 93 8f bd
       0.088102505 -0.10421863 0.11882509 -0.07010501
0003f0 bd 32 cc 3d aa c7 2f bd 61 c8 ab 3d 7b 97 90 3d
       0.09970615 -0.042915024 0.083878286 0.070601426

fc2.weight f4 [128, 260]
000000 b1 4e 69 3d fa 96 e6 3c 6f 5c ff 3d 51 1f 8b bd
       0.05695981 0.028148163 0.12468802 -0.067930825
000010 11 c0 fb 3d ee 4b c5 bd 1f cc b6 bd 25 d8 c8 3d
       0.12292493 -0.09633623 -0.08925652 0.09806851
000020 bc 80 b1 bc 49 ff 88 bd ce e5 88 3d a4 fb b6 bc
       -0.02166783 -0.06689317 0.06684457 -0.022336788
000030 ba 97 3b 3d 50 b1 a1 3d 63 79 3c bd 89 8d 9a 3c
       0.045798995 0.07895148 -0.0460142 0.018866317
000040 10 1a 95 3d dd c9 71 bd f0 9a b0 3c 7e 9f b2 3d
       0.07280362 -0.059030402 0.021558255 0.08721827
000050 a6 28 f1 3d 00 81 61 bd ed 6c ef 3c 7e 90 23 bd
       0.11775331 -0.055054665 0.029226745 -0.03993272
000060 36 aa 4f 3d 40 44 a8 3b da e0 a8 3d 57 99 c8 bc
       0.050699435 0.005135089 0.08246012 -0.02448718
000070 0a 9c bb 3d bb 13 20 bc f9 18 e4 3d 25 94 b7 3d
       0.091606215 -0.009770329 0.11137576 0.08963803
000080 ea 04 89 3d e0 1b 00 3b 85 d2 cb 3d 4a 77 3b bb
       0.066903904 0.0019547865 0.09952263 -0.0028605037
000090 76 c1 a0 3d be f7 bc bc d6 62 9d 3d 57 0a 15 3c
       0.078494 -0.023067351 0.07684867 0.0090967035
0000a0 7b 8c b7 bd 3b dc 2a 3c d9 75 4e bd f5 c2 ed 3c
       -0.089623414 0.010428484 -0.050405357 0.029023627
0000b0 b7 35 f6 ba 37 80 b4 bc da 0e 60 3d a8 a2 27 bd
       -0.0018784319 -0.022033794 0.054701664 -0.040926605
0000c0 64 b2 b5 bd 43 af b4 bc 11 a5 77 3d e5 98 35 3d
       -0.08871916 -0.022056228 0.060460154 0.044335265
0000d0 f0 16 02 3d 2b ee 36 3d 16 ab af 3c fc 2f 1a bc
       0.031760156 0.04466073 0.021443885 -0.009410854
0000e0 8d b4 ca bd 30 b7 b3 3d 59 91 8f bd 54 95 cc bc
       -0.098977186 0.087751746 -0.07010145 -0.024973549
0000f0 d9 9d 2f 3d c4 bb 3e 3d ce f4 a6 3d cb fd 77 3d
       0.042875145 0.046565786 0.081521615 0.06054477
000100 a5 eb bf 3c 21 6d d1 bd f4 7d f2 3b c3 93 47 3d
       0.023427794 -0.10225893 0.0074002687 0.0487249
000110 18 a4 00 be 21 ee 92 bd be 86 e6 bd 3f 23 3a bd
       -0.12562597 -0.07174326 -0.11256169 -0.04544377
000120 fb b3 f6 3c 8e de b9 3d 15 15 81 bd a8 1d 1d bd
       0.030115118 0.09075652 -0.06302849 -0.03835836
000130 0c e2 5c bd 03 63 0f 3e 89 b7 c3 3c 26 73 8a 3c
       -0.053926513 0.14002614 0.023891227 0.01690061
000140 f6 57 53 bd 7b 5d 9e bb 52 d2 62 bd 3e f5 70 bd
       -0.051597558 -0.004832921 -0.05537636 -0.05882763
000150 62 6a 59 3c fc 5a a8 3d 23 85 a7 3d a0 7f e4 3c
       0.013269993 0.08220479 0.08179691 0.027892888
000160 55 69 bb bd a9 46 53 bd 64 3c 4e 3d 93 04 0b bd
       -0.0915095 -0.05158106 0.05035056 -0.03393991
000170 2d e6 ab bc 6c 4a b9 bd 03 21 8a 3d e5 7d 28 3d
       -0.02098378 -0.09047398 0.06744578 0.041135687
000180 4d 4c 72 bd 5c 03 20 be 0d 94 c7 3d 18 f8 eb 3d
       -0.059154797 -0.15626281 0.09745035 0.115219295
000190 ef ff 1d bd 6e b2 fa bc 21 3a 7f 3d 3a b4 ac 3c
       -0.038574155 -0.03060266 0.062311295 0.021082032
0001a0 51 22 af bd 72 db eb 3d 9c 7b e5 3d 11 a4 9c 3d
       -0.08551467 0.11516465 0.11205217 0.07648481
0001b0 4d bc c5 3d 14 51 8b 3c d0 14 cf bb fa a2 a4 3d
       0.09655056 0.017006435 -0.0063196197 0.08038898
0001c0 ba 47 9e 3d ab ba 0f be 08 d2 4b 3c 4e 51 86 bd
       0.077285245 -0.14036052 0.012440212 -0.065584764
0001d0 eb 2d bd bc d3 87 fe bc b8 bf 45 bd 1d 10 a6 3c
       -0.023093184 -0.031070625 -0.04827854 0.020271355
0001e0 c7 3d ad bc b9 4f ac 3c 85 90 59 bd 21 ea a7 bd
       -0.021147622 0.021034108 -0.05311634 -0.081989534
0001f0 8d 6a 11 3d fd 80 ad 3a 33 ba fc 3d 86 e9 a4 3d
       0.035502005 0.0013237294 0.12340202 0.080523536
000200 41 4c 7a 3c 52 94 63 3d 3c 3f 8a bd 72 85 f5 3d
       0.015276969 0.05556137 -0.06750342 0.11988343
000210 d0 76 82 3d 27 be 8a bd 5e b9 35 be 58 40 ae 3d
       0.06370318 -0.0677455 -0.17746493 0.08508366
000220 ba eb a1 3a 3b 09 62 3d ee b4 09 3c e3 ba c4 3d
       0.0012353577 0.055184584 0.008404953 0.09605958
000230 f2 47 a8 bc a7 07 5a bd 90 c7 51 3c 32 9a a4 bc
       -0.020542119 -0.053229954 0.012803927 -0.020093057
000240 f3 b6 cc 3d 18 6f 39 bd 23 f8 52 bc 63 2a 1e bd
       0.09995832 -0.045271963 -0.012876543 -0.038614642
000250 c2 f1 16 3c f8 ae 6a bd 6e 51 c4 bc d0 b7 4f 3d
       0.009212913 -0.05729577 -0.02396461 0.050712407
000260 2c 85 c7 3c bb 40 a4 3d 75 53 b1 3d df a3 08 3d
       0.024355493 0.08020159 0.08658496 0.033359405
000270 f5 3b b7 bc 94 27 7d 3d 8e 11 f7 3d 33 78 9c 3d
       -0.022367457 0.061805323 0.12063895 0.07640114
000280 a2 55 14 bd c1 2d db 3d a6 b6 71 bc 18 84 da 3c
       -0.03621448 0.10702086 -0.014753019 0.026674315
000290 1b ea 7e 3d 31 6e b4 bd 75 82 90 3d 45 20 ca 3d
       0.06223498 -0.0881008 0.07056133 0.09869436
0002a0 ef 42 55 3c 1d 2a 10 bd 35 19 2f 3d 2d 38 10 bd
       0.0130164465 -0.035196412 0.04274865 -0.035209823
0002b0 83 f3 24 bd d6 6e 10 bd aa f8 80 3d db c4 14 bc
       -0.040271293 -0.03526195 0.06297429 -0.009080137
0002c0 67 ba d2 bc 0a 17 87 bd d8 4a d3 3c 81 fb 49 3d
       -0.02572365 -0.06596191 0.025792524 0.04931212
0002d0 73 33 6a bd 74 8e bd 3d 2e 8f 47 bd bc 07 b5 3d
       -0.057177972 0.092556864 -0.04872053 0.08839366
0002e0 cf 38 d9 bd f4 b2 8f bd 71 3e 1f 3b ba 8c 1f 3c
       -0.106065385 -0.070165545 0.0024298693 0.009738142
0002f0 d7 98 b1 3d 11 01 a7 3d 94 9f a4 bd 89 b3 82 bb
       0.0867173 0.081545 -0.080382496 -0.0039886874
000300 7d 6d 35 bd 9e 5a ea 3d 8d f7 8b 3c f1 bf e2 3a
       -0.04429387 0.11443065 0.017085815 0.0017299635
000310 f5 bf 97 3d 66 3b b4 bd 80 67 da 3d f9 7d 66 ba
       0.0740966 -0.08800392 0.10664272 -0.0008792575
000320 6b 10 7d bc 57 2d ab 3d fa 7f 89 3c 2c a4 f9 bc
       -0.015445809 0.08358257 0.016784657 -0.030473791
000330 7e a7 81 bc 6b 4a 7e 3c df 9f 10 3d de 0b f8 bc
       -0.015826937 0.015520672 0.035308715 -0.030279096
000340 03 38 3e bb 69 bb 4d ba b5 f8 69 3d 14 ce 3e 3d
       -0.0029025085 -0.00078480557 0.05712195 0.04658325
000350 be ce 35 3d f7 7c 38 bd d9 4d 9c 3d 77 29 bc bd
       0.044386618 -0.04504105 0.07632036 -0.09187596
000360 df f1 54 3d 5a b7 e3 3c 55 11 6e bd fa 2b fd bc
       0.05198848 0.02779739 -0.058121998 -0.030904759
000370 6c 72 e4 bc 03 95 69 3d 1e 22 2a be d0 b3 77 bd
       -0.027886592 0.057026874 -0.16614577 -0.060474217
000380 70 40 6d 3d f8 6a 08 be 8d d4 3c bd aa 03 2b 3d
       0.05792278 -0.13322055 -0.04610114 0.04175154
000390 d3 a4 98 bc 1c b7 52 3d db 5d 7e 3d 96 d5 af 3d
       -0.018633282 0.051444158 0.062101226 0.0858566
0003a0 9d ff f3 bc cd 0f d0 3c ce 3e 77 bb 26 69 cf bd
       -0.029784972 0.02539816 -0.0037726643 -0.10127477
0003b0 56 4a 08 3d 7f de 8c bc 36 52 33 be 00 c6 c0 3d
       0.033274017 -0.017195938 -0.1751183 0.094127655
0003c0 a6 35 52 bd e8 70 b8 3d b8 f6 13 3c c4 01 8f bc
       -0.051320694 0.0900591 0.00903099 -0.017456897
0003d0 11 51 bd 3d 7c 1d 3a bd 9b 7a 8c bc 45 6e 88 3b
       0.09243978 -0.045438275 -0.017148307 0.004163536
0003e0 8c 47 a0 bd bb b6 a1 3d f1 b3 b9 bc c1 a7 95 3d
       -0.078261465 0.07896181 -0.02266881 0.07307387
0003f0 82 cb d9 3c a1 1d a6 3d 7f 7d 25 bd fa 02 fd 3b
       0.026586298 0.0811112 -0.040402886 0.007721302

fc2.bias f4 [128]
000000 89 04 34 3d d6 60 b5 bb d2 61 bf 3d 32 b2 6e bd
       0.043949638 -0.0055352254 0.093448296 -0.05827541
000010 c9 ea 94 3d 24 d2 21 3d 7d dd c1 bd 55 35 3b 3d
       0.07271344 0.039507046 -0.09466074 0.04570516
000020 44 69 4f 3d 8c 94 cf 3c c3 ee 9d 3d 89 ad b5 3d
       0.0506375 0.025339387 0.07711556 0.0887099
000030 c3 c6 52 bc 96 02 b0 bd 4e 07 bb bc de 9b 10 bd
       -0.012864771 -0.08594243 -0.022830632 -0.035304897
000040 b2 22 bc 3d 89 79 9f 3d a7 51 41 3d 28 29 6d 3d
       0.09186305 0.07786853 0.04719701 0.057900578
000050 dc 00 ba 3d 47 1f c1 3d a9 c9 43 bd fe 27 81 bd
       0.09082195 0.09429794 -0.04779974 -0.06306456
000060 58 16 b8 3d 4b 97 9f 3b eb ef f6 3d 39 c2 2e bd
       0.08988637 0.0048703304 0.120574795 -0.042665694
000070 0d e8 9a 3d 94 3d 18 bd ce ac 7d 3d 39 be 82 3d
       0.075637914 -0.0371681 0.061932378 0.06383938
000080 09 bf 44 3d 9b 0d 12 bd 0e 83 0e bc af f7 b8 bc
       0.048033748 -0.035657506 -0.008698238 -0.022579042
000090 d7 62 c3 3d 5e 47 4d 3d db f2 07 3e 4c 96 b7 3c
       0.095403366 0.05011689 0.13276236 0.022410534
0000a0 84 dc 72 bd 71 4b b2 bc ff 2a 61 3d f1 bc b3 bd
       -0.05929233 -0.021764489 0.054972645 -0.08776272
0000b0 c4 64 4c bd 68 36 0c 3e bc 28 3b 3d 0d 4b 98 bc
       -0.049900785 0.1369263 0.045693144 -0.018590475
0000c0 15 5b 79 3d 40 2e c0 3d 5a 12 82 bd 53 f5 b9 bd
       0.06087788 0.093838215 -0.063511565 -0.09079995
0000d0 4f 79 30 bc 4a 7e 67 bd a9 09 08 bd e2 a6 9b bd
       -0.01077111 -0.056516923 -0.033212338 -0.0760019
0000e0 f5 ec b6 3d de 35 aa ba 1f 83 c4 bc d4 e5 4d bd
       0.08931915 -0.0012986024 -0.023988305 -0.05026801
0000f0 e8 84 cc bd fb ca 97 38 e9 61 04 3e b2 fb a1 3d
       -0.09986287 7.238049e-05 0.12927975 0.07909335
000100 c7 e5 13 3d 97 d4 81 3d d8 b5 d4 3c de ea 2f 3d
       0.036107805 0.063393764 0.025965616 0.042948596
000110 7e ca 40 3d 0e ba 87 3d 68 ba 2c 3d 7f 97 83 bc
       0.04706811 0.06627284 0.04216996 -0.01606345
000120 f2 11 a7 3d bd c4 30 3d e3 dc 6b bd 1e 52 be 3d
       0.0815772 0.043156374 -0.0575837 0.09293006
000130 15 fd 9e 3d 20 24 a9 bd bd da c1 3c 76 6e 99 bc
       0.07763115 -0.082588434 0.023663873 -0.01872943
000140 cf a5 ae 3d cb cc 95 3d a4 b7 72 bd 05 33 47 3d
       0.08527719 0.07314452 -0.059257165 0.04863264
000150 df 9a 84 bd 71 0e 02 3e 8f 8b 16 bd 72 f8 00 3d
       -0.06474852 0.12700821 -0.036754187 0.031486936
000160 a9 18 98 3d 31 eb 02 3e 79 b0 0e 3e f1 3f fa 3c
       0.074265786 0.12785031 0.13934506 0.030548068
000170 26 95 fb bc e3 28 a9 3d b7 b3 39 3d 56 9b 39 3d
       -0.030710768 0.08259752 0.045337405 0.045314156
000180 8e a8 9c bd 20 83 d0 bc e6 c8 f3 3d 80 b3 99 bd
       -0.07649337 -0.02545315 0.11903553 -0.0750494
000190 71 23 82 bd de 44 0b 3d 9d 58 ee bc 7c 10 d3 3d
       -0.06354416 0.034001224 -0.029094988 0.103058785
0001a0 24 7f b1 3c 6f 65 87 3d 15 2d 02 3d ed a7 9d bd
       0.02166707 0.06611144 0.031781275 -0.07698045
0001b0 44 dc 25 3d 9b b3 89 3c 6a 86 dc 3c 44 48 4d 3c
       0.040493265 0.016809275 0.026919562 0.0125294365
0001c0 cc d5 06 bd a8 c7 70 bd c3 b4 22 3e 9d 07 c5 bc
       -0.032918736 -0.058784157 0.15889268 -0.024051482
0001d0 f8 b8 14 bc 09 1c 9c 3c 59 b6 ae bd 68 9e 81 bd
       -0.009077303 0.019056337 -0.08530874 -0.06329042
0001e0 5b 6d 76 bd 6d 64 c5 bc 42 79 82 3d 15 bc 3d 3d
       -0.060162883 -0.024095738 0.06370784 0.046321947
0001f0 41 6e cd 3c 28 c8 9d bd 4a 53 a3 bd 9e 3a 2e 3d
       0.025076987 -0.077041924 -0.079748705 0.04253637

fc3.weight f4 [1, 128]
000000 07 17 79 3d a4 c2 b7 bd 24 47 3b 3d 25 10 66 be
       0.060812976 -0.08972672 0.04572214 -0.22467096
000010 e1 bc ad 3d fc 0b 58 3e 97 d8 ac bd 89 9c 64 3d
       0.084832914 0.21098322 -0.08439749 0.055813346
000020 47 4c 88 3d 75 df 5a be 20 d1 90 3d c0 10 b3 3d
       0.06655174 -0.21374305 0.070711374 0.08743429
000030 e1 c4 d2 bd ea 25 90 be a5 74 62 be a4 35 c8 3d
       -0.10291458 -0.28153926 -0.22114809 0.09775856
000040 97 61 56 3d 8f e7 85 3d 73 53 39 3d 09 0c f5 3d
       0.052339163 0.06538307 0.0452456 0.11965186
000050 11 93 77 3d 9b 75 4b 3e 47 26 93 bd a0 9b 21 bd
       0.060442988 0.19869082 -0.07185035 -0.039455056
000060 14 b1 54 3d 1c ce 75 be 08 98 d2 3d 4a 20 bd bd
       0.051926687 -0.24004406 0.10282904 -0.09234674
000070 01 9d 60 3e 72 a4 8a bd fb b2 7d 3d 74 99 d7 3d
       0.21934892 -0.06769647 0.061938267 0.10527316
000080 7c a3 79 3d 17 9a 0e be 56 a0 15 be 1a a5 9f 3d
       0.060946926 -0.13925968 -0.14611945 0.077951625
000090 d3 e1 aa 3d d7 28 57 3d 14 41 93 3d f7 d5 8b be
       0.08343854 0.052529182 0.07190147 -0.2731168
0000a0 db eb 03 be 2e a1 ee bd 30 2f 92 3d 51 b1 a5 bd
       -0.1288294 -0.11651836 0.071379066 -0.08090461
0000b0 2f cc 38 bd 87 e6 36 3e 5a 97 11 3e 6e 1b fb bd
       -0.0451166 0.17861377 0.14217892 -0.12261091
0000c0 0a 19 04 3e 0f 8a 3b 3d 9a ea 36 be 4b 1c 21 be
       0.12900177 0.04578596 -0.17862931 -0.15733449
0000d0 ba 56 72 3e 1f b8 6e be d1 b0 21 be e4 30 f3 bd
       0.23665896 -0.23312424 -0.15790106 -0.118745595
0000e0 f5 c2 4a 3d be 91 94 bd 92 34 d3 bd 72 f4 17 be
       0.04950233 -0.072543606 -0.10312761 -0.14839342
0000f0 77 e2 ab bd a0 ea 74 3d ca 35 c2 3d 00 60 8a 3d
       -0.08392804 0.05979407 0.09482916 0.06756592
000100 31 e6 a6 3d ae 83 a5 3d 13 cf ea bd e8 51 57 3d
       0.08149374 0.080817565 -0.114652775 0.052568346
000110 de eb 7d 3d 82 e3 82 3d 53 2f 9e 3d a5 1d 95 be
       0.06199252 0.0639105 0.0772387 -0.2912418
000120 8a 92 00 3e 26 9e 3d 3d ec e0 af bd 67 df 57 3d
       0.125559 0.0462934 -0.08587822 0.052703287
000130 57 62 89 3d 8c 6d 3e be 54 9d 7c 3d 18 79 cb 3d
       0.0670821 -0.18596476 0.061673477 0.09935206
000140 ea f6 24 3d 55 f7 6b 3d 1b 4f 16 be 4e e2 43 3d
       0.040274538 0.05760892 -0.14678614 0.047823243
000150 c2 e2 fc bd 49 c9 55 3d cd f9 df bd ce 09 17 be
       -0.12347938 0.052193914 -0.109363176 -0.14749834
000160 42 e6 a0 3d 64 da 38 3d 2b a7 41 3e 42 32 b9 3d
       0.07856418 0.04513015 0.18911426 0.09042789
000170 54 9f 30 be 83 bc ad 3d 1f 96 2b 3d a2 8e 48 3d
       -0.17248279 0.084832214 0.041891214 0.04896415
000180 d4 fb d4 bd e1 52 0d be 01 d5 13 3e b9 7b ce bd
       -0.10399595 -0.13801147 0.14436723 -0.10082192
000190 25 f5 cf bd e1 7e 03 3e de 17 63 be e4 9e 3c 3d
       -0.101541795 0.12841369 -0.22177073 0.046049967
0001a0 61 67 55 3d ca fe 00 3e 5b 99 08 3e 90 66 3d bd
       0.052100543 0.12597194 0.1333975 -0.04624039
0001b0 db 99 53 3d 1f 95 37 be 86 ca 4d 3d dc 0f 6a be
       0.0516604 -0.17927979 0.05024197 -0.22857612
0001c0 43 ed 85 be 1e 61 52 be cc b3 5c 3d 9e 34 c8 bd
       -0.2615758 -0.2054486 0.053882405 -0.09775661
0001d0 38 da 71 be 38 12 e1 3d 55 38 29 be 81 ff 88 bd
       -0.236184 0.10989803 -0.16525395 -0.066893585
0001e0 e9 cd 97 be 0e 08 1e be 49 91 7a 3d 3d af 0a 3d
       -0.29649284 -0.1543276 0.06117371 0.033858526
0001f0 86 e5 06 3e 0b 67 86 bd f9 16 39 be 49 eb 0c be
       0.13173494 -0.06562623 -0.1807517 -0.13761629
