checkpoint_critic_v1.pth (torch_old, 169977 bytes, 5 tensors)

fc1.weight f4 [256, 33]
0	0x3def23f9	0.11676783
1	0x3d5b689a	0.053566553
2	0xbe02607e	-0.12732121
3	0xbe98747f	-0.2977638
4	0xbe0c38e5	-0.13693579
5	0x3e0eded6	0.13952193
6	0xbcf8c3e3	-0.030366844
7	0x3ec5dfee	0.38647407
8	0xbe1f89ce	-0.15579912
9	0x3e119bfb	0.14219658
10	0x3b9c02a2	0.004761056
11	0x3e521ee6	0.205196
12	0xbc842ec2	-0.016135577
13	0x3d9d8c4a	0.07692774
14	0x3cdd3c5b	0.027006319
15	0xbd3cc6b0	-0.04608792
16	0x3e0d8750	0.13821149
17	0xbde7e493	-0.11322894
18	0x3e269084	0.16266066
19	0xbe3765a9	-0.17909874
20	0x3d0e05c4	0.034673467
21	0x3e0e03b1	0.13868596
22	0xbe41cff4	-0.18926984
23	0xbd855643	-0.06510594
24	0xbc8ee552	-0.017443333
25	0xbddc5e37	-0.107601576
26	0xbdf6f472	-0.12058343
27	0x3e8978d8	0.2685001
28	0xbdab8bac	-0.0837625
29	0xbcac4e50	-0.021033436
30	0xbe95dec2	-0.29271513
31	0x3cc6ab10	0.02425149
32	0xbe474550	-0.19460034
33	0x3e61c98d	0.22049542
34	0xbde1a8f3	-0.11018553
35	0xbc97a9e9	-0.018513637
36	0xbdb8ad64	-0.09017447
37	0x3d66a049	0.056305204
38	0x3cdca7c0	0.026935458
39	0xbde5fec1	-0.11230231
40	0x3e991d5c	0.29905212
41	0x3e5451c3	0.20734315
42	0xbd8728e5	-0.06599597
43	0x3e4d4e74	0.20049459
44	0x3d6c8bb1	0.057750408
45	0xbddad442	-0.10685016
46	0x3e15b409	0.14619459
47	0xbcef633a	-0.02922212
48	0xbde98d68	-0.11403924
49	0xbe59748b	-0.21235864
50	0xbeb76926	-0.3582241
51	0xbebed596	-0.37272328
52	0xbc07caae	-0.008288069
53	0xbda18ce1	-0.07888199
54	0x3d9d4d36	0.076807424
55	0x3c9ab616	0.018885653
56	0xbe0bdda9	-0.13658775
57	0x3dd2aadd	0.10286496
58	0xbe9b7a40	-0.30366707
59	0xbdbc335e	-0.09189485
60	0x3e74e169	0.23914112
61	0x3c99c9b4	0.018772937
62	0xbd4afa7c	-0.049555287
63	0xbe938aa0	-0.288167
64	0x3d3c0b08	0.045908958
65	0xbefcccd0	-0.4937501
66	0xbd6253cf	-0.055255707
67	0xbce6273d	-0.028094882
68	0xbd870fcf	-0.06594812
69	0xbe825ce0	-0.25461483
70	0x3e10808b	0.14111535
71	0x3ee1722a	0.44032413
72	0x3d61317c	0.054978833
73	0x3e9d24bd	0.30692092
74	0x3e66c992	0.2253783
75	0x3da7ce39	0.08193631
76	0x3dc78432	0.09742011
77	0xbc4f59b0	-0.0126556605
78	0x3e833006	0.25622576
79	0xbdd5ef56	-0.1044604
80	0x3d895e93	0.06707492
81	0x3e008474	0.12550527
82	0x3d21bdc5	0.03948762
83	0xbe806dde	-0.25083822
84	0xbd9f49ab	-0.07777723
85	0xbdaf0f0e	-0.08547793
86	0x3eb034e7	0.3441536
87	0xbd02a635	-0.03189679
88	0xbd0b4f64	-0.03401126
89	0xbd67f88d	-0.05663352
90	0xbde31bcd	-0.11089287
91	0x3d9bc456	0.076058075
92	0x3e32c2b7	0.1745709
93	0x3e2c0c3a	0.16801539
94	0xbd9ad471	-0.07560051
95	0x3c3fdd78	0.011710517
96	0xbd6f7b3e	-0.058467142
97	0x3d770034	0.060302928
98	0xbcfdbea5	-0.030974695
99	0x3bebf887	0.0072012576
100	0x3eb6ce46	0.3570425
101	0xbe0bf486	-0.13667497
102	0xbe4e3609	-0.201378
103	0xbe04849f	-0.12941216
104	0x3daa06c0	0.08302069
105	0xbe1ec530	-0.15504909
106	0xbd7df2de	-0.061999194
107	0x3dd860b2	0.10565318
108	0xbcf71f75	-0.030166367
109	0xbdc465a3	-0.09589698
110	0x3e024e1a	0.12725106
111	0xbe1de927	-0.15420972
112	0xbd8dbf84	-0.06921294
113	0x3dfa732c	0.122289985
114	0x3dec3a3a	0.11534543
115	0xbe082bdb	-0.1329798
116	0xbe2013bb	-0.15632527
117	0xbd95ba32	-0.073109046
118	0x3e25794a	0.1615955
119	0x3e555857	0.2083448
120	0x3d0ac28b	0.033876937
121	0x3ca92f0d	0.020652318
122	0xbc9747f0	-0.01846692
123	0x3ddf1d23	0.10894229
124	0xbd92454d	-0.07142124
125	0xbdd52862	-0.10408093
126	0x3ed72ac4	0.42024815
127	0xbcec830a	-0.028871078
128	0x3d7211d6	0.05909904
129	0xbeccfefa	-0.40038282
130	0x3c24dd00	0.010062456
131	0xbea9e770	-0.33184385
132	0xbdc539da	-0.09630175
133	0x3e590802	0.21194461
134	0xbd73fb27	-0.05956569
135	0xbde09b0b	-0.10967072
136	0xbd8cd82e	-0.068771705
137	0x3e97e6c7	0.29668257
138	0x3e8a2266	0.2697937
139	0x3e154e39	0.14580621
140	0xbe0cf557	-0.13765465
141	0xbe8ed67b	-0.2789801
142	0x3cb05734	0.021525957
143	0xbac51c77	-0.001503839
144	0xbd1f3036	-0.038864337
145	0xbe0868ae	-0.13321182
146	0x3de8e7c4	0.11372331
147	0xbd3614ad	-0.04445331
148	0xbe5ce169	-0.21570362
149	0x3dbdbfe0	0.09265113
150	0xbc873862	-0.016506378
151	0xbdff2954	-0.124590546
152	0xbc245f9b	-0.01003256
153	0x3e05d101	0.1306801
154	0xbf02b11d	-0.51051503
155	0xbd8e35ae	-0.06943832
156	0x3db22e3f	0.08700227
157	0x3e01a662	0.12661126
158	0x3e0ece3f	0.13945864
159	0x3ec7cabf	0.3902187
160	0xbe33a9fc	-0.17545313
161	0x3d0e6090	0.034760058
162	0xbe9f3ef1	-0.31102708
163	0xbce41e00	-0.027846336
164	0x3ee58d56	0.44834393
165	0xb9ee73a3	-0.00045481054
166	0x3e31e889	0.17373861
167	0xbe04af28	-0.12957442
168	0x3df97b89	0.121817656
169	0x3e4e8f0b	0.20171754
170	0xbe7c13a4	-0.24616867
171	0x3d75ba8b	0.059992354
172	0x3eea8b16	0.4580924
173	0xbd9e13ac	-0.07718596
174	0x3e93d034	0.28869784
175	0xbcbe6f24	-0.023246355
176	0x3d910f7f	0.07083034
177	0x3ce93e9d	0.02847224
178	0x3e0321db	0.12805884
179	0x3d5d6378	0.05404994
180	0x3d8aab21	0.067709215
181	0xbe740585	-0.2383023
182	0xbe23b7b4	-0.15988046
183	0xbe1bd9a9	-0.1521975
184	0x3d9f9c9c	0.07793543
185	0x3eb31e07	0.34983847
186	0xbe1a6e62	-0.1508117
187	0x3de87edb	0.11352321
188	0x3cd47d2b	0.025938591
189	0x3d969157	0.0735194
190	0x3d2f5866	0.042808913
191	0x3d5da738	0.05411455
192	0x3ef89503	0.48551187
193	0xbe1b7da3	-0.15184645
194	0xbd3c6910	-0.045998633
195	0xbed5dbff	-0.41769406
196	0x3d35c2a8	0.04437509
197	0xbe95e5fb	-0.29277024
198	0xbd228e19	-0.039686296
199	0x3c893818	0.01675038
200	0x3e1f53be	0.15559289
201	0x3db8e120	0.09027314
202	0xbd5a4cca	-0.053295888
203	0xbd286829	-0.04111496
204	0x3dc61acc	0.0967308
205	0x3db43a34	0.08800164
206	0xbe0800dd	-0.1328158
207	0xbd58d0a4	-0.05293335
208	0xbe2b2dd2	-0.16716698
209	0x3e9fd3db	0.3121632
210	0x3d02917c	0.031877026
211	0xbe1a9b3c	-0.1509828
212	0x3df70fb1	0.1206354
213	0x3bc55dc1	0.006023139
214	0x3de28591	0.11060632
215	0x3f1c2baa	0.61004126
216	0x3e879a3e	0.26484865
217	0xbe29063a	-0.16506281
218	0x3ecf3a38	0.40474105
219	0x3e169117	0.14703785
220	0x3e07b171	0.13251282
221	0xbdb03790	-0.08604348
222	0xbdc7ff86	-0.09765534
223	0x3c8c8900	0.01715517
224	0xbd9bfa4b	-0.07616099
225	0x3e4ad2fd	0.19807048
226	0x3c9ad234	0.01889906
227	0xbd742a40	-0.059610605
228	0xbdbc1280	-0.09183216
229	0x3b0be680	0.0021347106
230	0x3e8254ff	0.25455472
231	0xbe0bed03	-0.13664632
232	0x3ebe7fca	0.3720687
233	0x3e6d8734	0.23196107
234	0xbe0286bc	-0.1274671
235	0xbe6bfdd8	-0.23046052
236	0x3e1e13b8	0.1543721
237	0xbe022566	-0.12709579
238	0x3ded659b	0.11591645
239	0x3e384418	0.17994726
240	0xbe05b304	-0.1305657
241	0x3be8229c	0.007084204
242	0x3dffabfa	0.12483974
243	0xbcd3ab71	-0.025838586
244	0xbb9fb084	-0.004873337
245	0x3f0fe70a	0.5621191
246	0x3d412a98	0.04715976
247	0x3e909cd9	0.28244665
248	0xbe46c49f	-0.19410942
249	0xbe62270f	-0.22085212
250	0x3ef0e033	0.4704605
251	0x3dcda44c	0.10041103
252	0xbe8f5b28	-0.27999234
253	0x3a3fb8f8	0.0007313634
254	0xbdf1e786	-0.11811738
255	0x3e457b0f	0.19285224

fc1.bias f4 [256]
0	0xbe079b1a	-0.1324276
1	0xbea781f9	-0.3271635
2	0xbe4ce018	-0.2000736
3	0xbf11c34a	-0.5693861
4	0xbeb3b4dd	-0.35098925
5	0xbecfe4d5	-0.40604272
6	0xbe846902	-0.25861365
7	0xbd8b42ee	-0.06799875
8	0xbec6b8ee	-0.38812965
9	0xbe7455b5	-0.2386082
10	0xbdc2d2b6	-0.09512846
11	0xbf02ec97	-0.5114226
12	0x3dd0ce60	0.10195613
13	0x3dd07f92	0.10180582
14	0xbe38ae3d	-0.18035217
15	0xbed3b727	-0.41350672
16	0xbf161647	-0.5862774
17	0xbd51caec	-0.051218912
18	0xbe75e3fa	-0.24012747
19	0xbe7db4a0	-0.24775934
20	0xbd6d8806	-0.05799105
21	0xbeaebb8d	-0.34127465
22	0xbe7756c4	-0.24154192
23	0xbeddc990	-0.43317842
24	0xbdf0a092	-0.11749376
25	0xbec9702d	-0.39343396
26	0xbee1c8c0	-0.44098473
27	0x3e473f7c	0.19457811
28	0xbe5c4469	-0.21510471
29	0xbe16011a	-0.14648858
30	0xbe491ba4	-0.1963945
31	0xbebbf368	-0.36709142
32	0xbf07ac68	-0.52997446
33	0xbea1f2f2	-0.31630665
34	0xbe69a343	-0.22816186
35	0xbde23292	-0.11044802
36	0xbdfbacc1	-0.122888096
37	0xbebe2ac3	-0.37142
38	0xbe10d9a2	-0.1414552
39	0xbe774b73	-0.24149875
40	0xbea50187	-0.32227728
41	0x3d580821	0.052742127
42	0xbeb3b444	-0.3509847
43	0xbc061c20	-0.008185416
44	0xbe883e69	-0.26610115
45	0xbcbdc11d	-0.023163373
46	0xbd41124e	-0.047136597
47	0xbe851cb6	-0.25998467
48	0xbec171f9	-0.37782267
49	0xbe525bcd	-0.20542832
50	0xbceb8ea6	-0.028754544
51	0xbdff0669	-0.124523945
52	0xbe8120d1	-0.2522035
53	0xbf248171	-0.6426001
54	0xbe76e9cd	-0.24112625
55	0x3ce78c6e	0.028265204
56	0xbe7c31d5	-0.24628384
57	0xbec5b220	-0.3861246
58	0xbeaf0159	-0.34180716
59	0xbeaf1566	-0.34196013
60	0xbe71e877	-0.23623835
61	0xbde29d42	-0.11065151
62	0xbe8190a9	-0.2530568
63	0xbdd96a5c	-0.106159896
64	0x3e1c4f81	0.15264703
65	0xbe146a7e	-0.14493749
66	0xbe03aa9c	-0.12858051
67	0xbde856fb	-0.11344715
68	0xbead1ba7	-0.3381016
69	0x3e6adb41	0.22935201
70	0xbe7bc051	-0.24585082
71	0xbde7bff4	-0.11315909
72	0xbe94a81b	-0.29034504
73	0xbc95163f	-0.018199084
74	0x3d85fa52	0.065418854
75	0xbe826f53	-0.2547556
76	0xbe51aa8f	-0.20475219
77	0xbf113cd0	-0.5673342
78	0xbeaa3352	-0.3324228
79	0xbf0a200a	-0.5395514
80	0xbe6f42d3	-0.23365335
81	0xbeb12be7	-0.34603807
82	0xbebad357	-0.36489365
83	0xbe47baf2	-0.19504908
84	0xbdfc60b1	-0.1232313
85	0xbf163e80	-0.5868912
86	0xbf0c6899	-0.54847103
87	0xbe9f0a42	-0.31062514
88	0xbe98ec20	-0.2986765
89	0xbe5fa2ba	-0.21839419
90	0xbeb4156c	-0.35172594
91	0x3dbf806a	0.09350665
92	0xbe84e076	-0.259525
93	0xbeae404f	-0.3403344
94	0x3c9b7909	0.018978612
95	0xbe9723af	-0.29519412
96	0xbde5277e	-0.11189173
97	0x3e01d8b6	0.12680325
98	0xbe1a9207	-0.15094768
99	0x3d029e52	0.031889267
100	0xbe962dd0	-0.29331827
101	0xbe7beec6	-0.24602804
102	0xbe62f2a6	-0.22162876
103	0xbe8f9fe6	-0.2805168
104	0xbe82e1e6	-0.25562972
105	0xbeadabfb	-0.33920273
106	0xbe8c219f	-0.273694
107	0xbe2257c4	-0.15853792
108	0xbf141039	-0.57837254
109	0xbdbf74b9	-0.09348435
110	0xbdf59e1e	-0.11993049
111	0xbebabafc	-0.36470783
112	0xbda49ab5	-0.080373205
113	0xbe9e8088	-0.30957437
114	0xbdc9e06d	-0.09857259
115	0xbebcd9ef	-0.3688502
116	0xbd9528a2	-0.07283141
117	0xbe50becb	-0.20385282
118	0xbeec9bbe	-0.46212572
119	0xbc63f04f	-0.0139122745
120	0xbe94389c	-0.2894944
121	0xbe497dfe	-0.19676968
122	0xbeb4a3aa	-0.35281116
123	0xbe471475	-0.19441397
124	0xbe6cd041	-0.23126318
125	0xbe05d402	-0.13069156
126	0xbe41c5a4	-0.1892305
127	0xbdfbb7e1	-0.122909315
128	0xbe62b0ac	-0.22137707
129	0xbeb1003f	-0.345705
130	0xbe65a08c	-0.22424525
131	0xbda6e214	-0.0814859
132	0xbea9b258	-0.33143878
133	0x3e65ec42	0.22453406
134	0xbe2e033b	-0.1699342
135	0xbe230e44	-0.1592341
136	0xbe4ec31f	-0.2019162
137	0xbe730457	-0.23732124
138	0xbe2549d4	-0.16141444
139	0xbe9638ca	-0.29340202
140	0xbeab07a5	-0.3340427
141	0xbe1ce3b5	-0.15321238
142	0xbc0330a5	-0.008007203
143	0x3c930cdc	0.017950468
144	0xbdabfa76	-0.08397381
145	0xbf3db537	-0.74104637
146	0xbe8f8aaa	-0.2803548
147	0xbeef70fc	-0.46765888
148	0x3d35837b	0.044314843
149	0xbe8faf44	-0.28063405
150	0xbea8ad26	-0.32944602
151	0xbe8ed32d	-0.2789549
152	0x3d42d926	0.04757037
153	0xbe7f34fa	-0.24922553
154	0x3dca3ea8	0.09875232
155	0xbe6fbe0f	-0.23412345
156	0xbe646ad8	-0.22306383
157	0xbe07f8c3	-0.13278489
158	0xbcec6bf3	-0.028860068
159	0xbeb2fabd	-0.34956923
160	0xbe6791a2	-0.22614148
161	0xbebe72a6	-0.37196845
162	0xbe582408	-0.21107495
163	0xbe5ba4f9	-0.21449651
164	0xbef06276	-0.4695012
165	0xbe65d33c	-0.22443861
166	0xbeae4268	-0.3403504
167	0xbd5c1f6e	-0.05374091
168	0xbe22963d	-0.15877624
169	0xbe098549	-0.1342975
170	0xbeabcdf7	-0.33555576
171	0xbe6503b3	-0.22364692
172	0xbe81f910	-0.25385332
173	0xbe082352	-0.13294724
174	0xbe9d327e	-0.30702585
175	0xbf072405	-0.52789336
176	0xbf1042ea	-0.563521
177	0xbf3c0f72	-0.7346107
178	0xbd4c93c4	-0.049945608
179	0xbe31193d	-0.17294784
180	0xbe963d99	-0.2934387
181	0xbe7be850	-0.24600339
182	0xbdbc29f5	-0.0918769
183	0xbe562eb6	-0.20916256
184	0xbebac8c2	-0.3648129
185	0xbe4baaef	-0.19889425
186	0x3c41d41b	0.011830355
187	0xbe667360	-0.2250495
188	0xbd2cc309	-0.042178188
189	0xbe015629	-0.12630524
190	0x3d0d44fe	0.034489624
191	0xbe9afe1d	-0.30271998
192	0xbea41515	-0.32047334
193	0xbe721128	-0.23639357
194	0xbd3f308f	-0.04667717
195	0xbeac3220	-0.33631992
196	0xbedd9e74	-0.43284953
197	0x3da63d9d	0.081172206
198	0xbd7153c8	-0.05891779
199	0xbdf0e2ad	-0.11761985
200	0xbe95563b	-0.2916735
201	0xbe434465	-0.19069059
202	0xbea86597	-0.32890007
203	0xbe43b819	-0.19113196
204	0xbec20db7	-0.3790109
205	0xbdfa327f	-0.122166626
206	0xbf319306	-0.69364965
207	0xbd584670	-0.05280155
208	0xbed0259a	-0.40653688
209	0x3d96ed78	0.07369512
210	0x3c93c3a8	0.018037632
211	0xbde30b96	-0.11086194
212	0xbe8a3e05	-0.27000442
213	0xbdfd87e6	-0.12379436
214	0xbee8b5be	-0.45451158
215	0xbc752e20	-0.01496461
216	0xbe9ca0af	-0.30591342
217	0xbe43040e	-0.19044515
218	0xbe81945d	-0.25308505
219	0xbec319d4	-0.38105643
220	0xbe8878e0	-0.2665472
221	0xbeccaa9f	-0.39973924
222	0xbda00bef	-0.07814776
223	0xbe661509	-0.22468962
224	0xbe47d34e	-0.195142
225	0xbe5fbb92	-0.21848896
226	0xbef43814	-0.47699034
227	0xbef26eb9	-0.473501
228	0xbeab3aae	-0.33443207
229	0xbd02fa51	-0.031977
230	0xbe3e41b5	-0.18579753
231	0xbdb21c41	-0.08696795
232	0xbd6c770e	-0.057730727
233	0xbe4cb329	-0.19990219
234	0xbe4272e3	-0.18989138
235	0xbf1b087c	-0.6055982
236	0xbe325489	-0.1741506
237	0xbf19c1e3	-0.6006147
238	0xbf2472c6	-0.6423763
239	0xbe0ed647	-0.13948928
240	0xbf20ae6d	-0.6276615
241	0xbeac61d5	-0.3366839
242	0xbebebde9	-0.37254265
243	0xbea2a5d1	-0.31767133
244	0xbdcf2b72	-0.101157084
245	0xbe217673	-0.15767841
246	0xbde3531a	-0.11099835
247	0xbe9c64a0	-0.3054552
248	0xbeaebf32	-0.34130245
249	0xbe1b853d	-0.15187545
250	0xbeabcc16	-0.33554143
251	0xbd91ee41	-0.071255215
252	0xbeeeb41a	-0.46621782
253	0xbec2fd13	-0.38083705
254	0xbeca8bca	-0.39559776
255	0xbeaac509	-0.3335345

fc2.weight f4 [128, 260]
0	0x3d24bb0f	0.040217455
1	0xbdb0dcd6	-0.08635871
2	0xbd0032de	-0.03129851
3	0xbc999af9	-0.018750655
4	0xbdb02259	-0.08600301
5	0x3d88d252	0.066807404
6	0x3d28aa7a	0.041178204
7	0xbda900b1	-0.08252085
8	0xbdc56f91	-0.0964042
9	0x3b31bdc3	0.0027121163
10	0x3d0799e2	0.03310574
11	0xbdc4a2ac	-0.0960134
12	0xbd19c402	-0.037540443
13	0x3d01c476	0.0316815
14	0x3d1d2013	0.038360666
15	0xbe2414d5	-0.16023572
16	0xbd0ddbd2	-0.034633465
17	0xbd84d017	-0.064850025
18	0xbb9bdbc7	-0.004756424
19	0xbe1fb9d4	-0.15598232
20	0x3d06ef12	0.03294284
21	0x3b148373	0.0022661358
22	0x3d86889c	0.06569025
23	0xbda2b1be	-0.07944058
24	0xbdab7074	-0.08371058
25	0xbd8b1ff0	-0.06793201
26	0xbbd31b56	-0.0064424677
27	0xbdaeb487	-0.085305266
28	0xbe016380	-0.12635612
29	0xbd30aa2d	-0.043131042
30	0xbda6c73b	-0.08143469
31	0x3c040768	0.008058406
32	0xbda90368	-0.08252603
33	0xbad75df3	-0.0016431197
34	0xbdb6d8ae	-0.08928047
35	0xbde1331a	-0.10996075
36	0xbc719b64	-0.014746521
37	0xbdc6d789	-0.09709079
38	0x3d2dc088	0.04241994
39	0x3c232fc8	0.009960122
40	0x3c78c950	0.015184715
41	0x3c22213f	0.009895622
42	0xb9ce4cd9	-0.00039348638
43	0x3c1ce169	0.009575226
44	0xbdd2dd66	-0.10296135
45	0xbdbe6f85	-0.092986144
46	0x3c63b393	0.013897794
47	0xbd0f6879	-0.035011742
48	0xbde62f55	-0.112394966
49	0xbd84bd65	-0.06481437
50	0xbe0e2306	-0.13880548
51	0xbdb362cb	-0.08759078
52	0xbda56ca9	-0.08077366
53	0xbda339aa	-0.07969983
54	0xbde5a9c2	-0.11214019
55	0xbd05553c	-0.03255199
56	0x3c40f5ba	0.011777336
57	0xbdc64bcf	-0.09682428
58	0xbc69912a	-0.014255801
59	0xbc6cf0ff	-0.014461755
60	0x3d01e35c	0.031710967
61	0x3cb4dfc9	0.022079365
62	0x3c81fb1a	0.015866805
63	0x3bf36d63	0.0074288114
64	0xbe1f857e	-0.15578267
65	0xbd4899ff	-0.048974987
66	0x3cbeb05d	0.023277456
67	0x3c866c36	0.01640902
68	0xbd100c1d	-0.035167802
69	0xbb87da98	-0.0041459315
70	0xbc0c6ecd	-0.008571339
71	0xbd8eaa5d	-0.06966088
72	0x3d9bbaf4	0.07604018
73	0x3c702e67	0.014659501
74	0xbc53e8b1	-0.012933896
75	0x3ca4e15d	0.020126993
76	0x3c888e51	0.016669424
77	0xbd6fb293	-0.05851991
78	0xbdacdfaf	-0.08441102
79	0xbdb70152	-0.08935799
80	0xbdbed5f7	-0.09318154
81	0x3d94e234	0.07269707
82	0x3d7316e5	0.059348006
83	0x3c9d9689	0.01923682
84	0xbdfc305f	-0.123139136
85	0xbcd1e2ec	-0.0256209
86	0xbdca24ef	-0.09870326
87	0xbd53b17b	-0.05168293
88	0xbd37311b	-0.044724565
89	0xbdde4581	-0.108531006
90	0xbdd69e64	-0.10479429
91	0x3c08d254	0.008350927
92	0xbd1ac777	-0.03778788
93	0xbd91dada	-0.07121821
94	0xbd75a100	-0.059967995
95	0xbd64c017	-0.055847254
96	0xbbb99f4d	-0.005664742
97	0xbdfb4de4	-0.12270716
98	0xbd587e56	-0.05285486
99	0xbcc13c96	-0.02358846
100	0xbe051c7a	-0.12999144
101	0xbd755dae	-0.059903793
102	0xbe2b326e	-0.16718456
103	0x3d07c839	0.03314993
104	0xbd81d296	-0.06338994
105	0x3c9c1d4a	0.019056935
106	0x3c07c2d0	0.008286193
107	0xbdfe5999	-0.12419433
108	0xbe132c11	-0.14372279
109	0xbde6ebe0	-0.11275458
110	0x3cd54aa1	0.026036562
111	0xbd548b79	-0.051890824
112	0x3cd3aefb	0.025840273
113	0xbdbaf5c8	-0.0912891
114	0x3ccb14a7	0.024790121
115	0xbc18be0a	-0.009322653
116	0xbbe3fb7d	-0.00695747
117	0xbd37fc7b	-0.04491852
118	0xbda36fc5	-0.07980303
119	0xbe12ee64	-0.14348751
120	0x3cb59bbc	0.022168986
121	0x3d6b92c0	0.057513
122	0xbdc8dbfb	-0.09807583
123	0xbc8ad431	-0.016946884
124	0xbd95cd52	-0.07314552
125	0xbdb2013f	-0.08691644
126	0x3afc466e	0.0019247064
127	0xbdaca2dd	-0.08429501
128	0x3cf9023a	0.03039657
129	0x3cc70a84	0.024297006
130	0xbd8275ab	-0.063701
131	0xbc429231	-0.011875675
132	0x3d2f86b1	0.04285306
133	0xbd8228ef	-0.06355464
134	0xbd5422d8	-0.051791042
135	0xbdc28605	-0.094982184
136	0x3d7dde1c	0.061979398
137	0xbd8110cd	-0.063020326
138	0x3c62d442	0.0138445515
139	0xbd89ff8f	-0.06738197
140	0x3d1118b1	0.03542394
141	0x3d4d69fd	0.050149906
142	0x3d19570d	0.037436534
143	0xbd0f34d1	-0.03496248
144	0xbd9b10a9	-0.07571537
145	0xbbc5e15d	-0.0060388283
146	0xbd973986	-0.073840186
147	0xbc767054	-0.01504143
148	0xbdf8cb4f	-0.12148153
149	0xbd7f8997	-0.062387075
150	0xbdaa5326	-0.083166406
151	0x3ceef4c8	0.029169455
152	0x3b838c32	0.0040145153
153	0xbc61ab05	-0.013773684
154	0xbe292ec5	-0.16521747
155	0x39f18ee6	0.0004607357
156	0x3d46f4eb	0.048573416
157	0xbdf47a3e	-0.11937378
158	0xbd930bee	-0.0718001
159	0xbc64b449	-0.013958999
160	0xbcb17a8c	-0.02166488
161	0xbd6c997d	-0.057763565
162	0xbdcd53d2	-0.10025753
163	0xbdd94956	-0.10609691
164	0x3c46eb32	0.012141036
165	0xbca3c793	-0.019992625
166	0xbd16ec18	-0.03684625
167	0x3d5e3c22	0.054256566
168	0x3cca9dfb	0.024733534
169	0x3bda3a61	0.0066597913
170	0x3d1e9a92	0.03872163
171	0xbd845ffb	-0.06463619
172	0xbd915b40	-0.07097483
173	0x3d9598ed	0.07304559
174	0xbcb8254c	-0.022478722
175	0xbd885326	-0.06656484
176	0xbc4f682f	-0.012659117
177	0xbda1abf9	-0.07894129
178	0xbdf79b1f	-0.12090134
179	0xbdae1479	-0.084999986
180	0xbd4a4d58	-0.049390167
181	0xbb49633b	-0.0030729312
182	0xbd688287	-0.056765106
183	0x3cf47f4e	0.02984586
184	0xbd13fd0f	-0.036130007
185	0xbc503169	-0.012707093
186	0xbdaadfdf	-0.08343481
187	0x3d46a071	0.048492853
188	0xbc0dd6d9	-0.008657181
189	0xbc2e771f	-0.010648518
190	0xbd106e23	-0.035261285
191	0xbc277e8f	-0.010223045
192	0xbd6409d6	-0.055673443
193	0xbdb8c377	-0.09021657
194	0xbdb1c9ca	-0.08681066
195	0xbd09f051	-0.03367645
196	0xbd12e145	-0.035859365
197	0xbdacc662	-0.08436276
198	0xbd98e714	-0.0746595
199	0xbb167a8e	-0.0022961232
200	0x3d7179e8	0.05895415
201	0xbc8c0467	-0.017091943
202	0xbdb28f9a	-0.08718796
203	0x3d716fcd	0.058944512
204	0xbd983be2	-0.07433297
205	0xbde7bd1a	-0.11315365
206	0xbd093ced	-0.03350537
207	0xbdb22ad5	-0.08699576
208	0xbd2259c7	-0.0396364
209	0xbd257945	-0.040398855
210	0xbda9215d	-0.08258317
211	0xbdb883cb	-0.090095125
212	0xbd5289a1	-0.051400784
213	0x3d817850	0.06321776
214	0xbdebe124	-0.115175515
215	0x3d3e9bed	0.04653542
216	0x3d83e239	0.06439633
217	0x3d62d5db	0.05537973
218	0xbc3bc4a8	-0.011460461
219	0xbcfba71e	-0.030719336
220	0xbdc77469	-0.09739
221	0xbdb0af2c	-0.086271614
222	0xbd14fab6	-0.03637191
223	0xbad8bfe2	-0.0016536678
224	0x3b5117f4	0.0031905146
225	0x3c693531	0.014233873
226	0x3cecea69	0.02892037
227	0x3d5e69f8	0.05430028
228	0xbd4afa83	-0.049555313
229	0x3d4a4fbe	0.049392454
230	0xbd4d4ef6	-0.05012413
231	0xbd27363e	-0.040823214
232	0xbd8cdcc0	-0.06878042
233	0xbc208982	-0.009798409
234	0xbcca9352	-0.02472845
235	0x3ce2731f	0.027642785
236	0x3d153a6b	0.036432665
237	0x3caa2261	0.020768346
238	0xbd5fc31b	-0.054629426
239	0xbc984e1c	-0.018591933
240	0x3b066796	0.002050852
241	0x3d15c8e8	0.036568552
242	0x3cf15982	0.029461626
243	0x3d11b425	0.03557219
244	0xbdaa3816	-0.08311479
245	0x3caad0b4	0.02085147
246	0xbca35353	-0.019937193
247	0x3ceac01e	0.028656062
248	0xbdcead13	-0.10091605
249	0xbd8db91a	-0.06920071
250	0x3dcad184	0.09903243
251	0xbd967546	-0.07346587
252	0x3d44bc60	0.04803121
253	0x3c954023	0.01821906
254	0xbddf9b0a	-0.10918243
255	0xbd0a48bc	-0.03376077

fc2.bias f4 [128]
0	0xbc178bed	-0.0092496695
1	0xbcb8fea0	-0.022582352
2	0xbd6b65c1	-0.057470087
3	0xbd5a775a	-0.05333648
4	0xbddc1b33	-0.10747375
5	0xbc80e43d	-0.015733832
6	0xbd620c36	-0.055187427
7	0x39f6b9d0	0.00047059217
8	0xbdffe8c6	-0.1249557
9	0xbd547496	-0.051868998
10	0xbcc7e73a	-0.02440225
11	0xbd3d2e66	-0.046186827
12	0xbdbdbfb3	-0.09265079
13	0xbd677401	-0.056507114
14	0x3bac3c79	0.0052562323
15	0xbd15a748	-0.036536485
16	0xbd3a5805	-0.0454941
17	0xbd591fde	-0.053008907
18	0xbd1c60d9	-0.0381783
19	0xbdc8e67d	-0.09809587
20	0xbd30650e	-0.043065123
21	0xbdda1cf8	-0.106500566
22	0xbe0da508	-0.13832486
23	0xbd963631	-0.07334555
24	0xbda3d200	-0.07999039
25	0xbdc80400	-0.09766388
26	0xbdb673bf	-0.089087956
27	0xbd657e2d	-0.056028534
28	0xbe0039ba	-0.12522021
29	0xbd990283	-0.07471182
30	0xbcaea2af	-0.021317808
31	0xbda40534	-0.08008805
32	0xbc58d487	-0.013234264
33	0xbdd22369	-0.1026066
34	0xbdbb30a5	-0.091401376
35	0xbd846beb	-0.06465896
36	0xbdb95337	-0.09049075
37	0xbc642a5a	-0.013926113
38	0xbd6bd7ed	-0.05757897
39	0xbe04089c	-0.12893909
40	0xbdfc42f1	-0.123174556
41	0xbd8ac981	-0.06776715
42	0xbd87b7f2	-0.06626882
43	0x3ea9f2f1	0.33193162
44	0xbdefda72	-0.11711587
45	0xbd424513	-0.047429156
46	0xbd809ae6	-0.062795445
47	0xbdd9831c	-0.1062071
48	0x3eaf2f43	0.34215745
49	0xbdc2d7d5	-0.09513823
50	0xbb5fb69b	-0.003413594
51	0xbd48f238	-0.049059123
52	0xbd8b292b	-0.067949615
53	0xbda10100	-0.07861519
54	0x3c4473cc	0.011990499
55	0xbdbab72c	-0.091169685
56	0xbe01f941	-0.12692739
57	0xbd06d684	-0.03291942
58	0xbdfa5574	-0.1222333
59	0xbd920ce5	-0.07131366
60	0xbdc5ca46	-0.09657721
61	0xbe0544b5	-0.13014491
62	0xbdb0ec5d	-0.08638833
63	0xbdd4c876	-0.103897974
64	0xbd60f3ce	-0.05492001
65	0xbdc3887b	-0.09547516
66	0xbdfb9e25	-0.12286023
67	0xbc3557fe	-0.011068342
68	0xbdce7d66	-0.100825116
69	0xbdbbb783	-0.091658615
70	0xbdc35419	-0.09537525
71	0xbda24a9d	-0.079243876
72	0x3ba7fa8c	0.005126303
73	0xbba4f5d1	-0.0050341864
74	0x3e904f22	0.28185374
75	0xbd073016	-0.033004843
76	0xbd8f4e4e	-0.06997357
77	0xbdad3639	-0.08457608
78	0xbd26dbdd	-0.04073702
79	0x3c08bf8c	0.00834645
80	0xbde86641	-0.113476284
81	0xbd8f9687	-0.07011133
82	0xbcdedba4	-0.027204342
83	0xbca57a2e	-0.020199861
84	0xba3e3730	-0.00072561484
85	0xbdd03820	-0.10166955
86	0xbd8a6407	-0.0675736
87	0xbb70c423	-0.0036738
88	0x3c1bff04	0.00952125
89	0xbdc6dbb4	-0.09709874
90	0xbd56bceb	-0.05242626
91	0xbd3d281c	-0.04618083
92	0xbd807cf3	-0.06273832
93	0xbde4caca	-0.111714914
94	0xbd7f3228	-0.062303692
95	0xbdadbbc2	-0.084830776
96	0xbcdfc742	-0.027316693
97	0xbd300d85	-0.042981643
98	0xbdc55277	-0.096348695
99	0x3bd3772e	0.0064534163
100	0x3c26b0dc	0.0101740025
101	0xbd89b6d7	-0.06724327
102	0xbdd57457	-0.10422581
103	0xbdc0a97f	-0.09407329
104	0xbdbb8810	-0.09156811
105	0xbdf70567	-0.12061577
106	0xbd1e3399	-0.038623426
107	0xbd340f99	-0.043960188
108	0x3c01421f	0.0078893
109	0x3c064a4b	0.008196424
110	0xbcbb8d1a	-0.02289443
111	0xbdb0da61	-0.086354025
112	0xbcc9762f	-0.024592487
113	0x3ee7b3c0	0.45254326
114	0xbccaaa44	-0.024739392
115	0xbd9604fe	-0.07325171
116	0x3d3423cd	0.043979455
117	0xbdb7f40a	-0.08982094
118	0xbac7d6ad	-0.0015246473
119	0xbdc6a010	-0.09698498
120	0xbce83b0c	-0.028348468
121	0xbc95a50d	-0.018267179
122	0xbdb178b8	-0.086656034
123	0xbd9f24e1	-0.07770706
124	0xbd81b0c2	-0.06332542
125	0xbc8c757a	-0.017145861
126	0xbd6f41e7	-0.05841246
127	0xbd81e2cd	-0.06342087

fc3.weight f4 [1, 128]
0	0x3c83493e	0.016026136
1	0xbc4eeffc	-0.012630459
2	0xbbf546d6	-0.007485251
3	0xbca5da51	-0.020245703
4	0x3af50787	0.001869426
5	0xbb4cacc9	-0.0031230918
6	0xbb1ce011	-0.0023937265
7	0xbb8b8845	-0.004258188
8	0xba5a8706	-0.000833616
9	0xbc77bc93	-0.015120643
10	0xbbcc0d85	-0.0062271976
11	0x3c2100c1	0.00982684
12	0xbc77be82	-0.015121104
13	0xbd06fd52	-0.03295643
14	0xba95a8f4	-0.001141815
15	0xba5a2a44	-0.0008322338
16	0x3cbfd7e0	0.023418367
17	0x3ba7dfa0	0.0051230937
18	0x3ac289e0	0.0014842115
19	0x3b8666fc	0.004101632
20	0x3caca90b	0.0210767
21	0x3bc45615	0.005991707
22	0x3cdb3210	0.02675727
23	0xbb3fa906	-0.0029245033
24	0x3b9e7446	0.004835638
25	0x3c2b8c58	0.010470472
26	0xbcc1a5f5	-0.023638705
27	0x3ba4f220	0.0050337464
28	0xbc2fa095	-0.010719438
29	0x3cae5b5f	0.021283804
30	0x3c8d0f6d	0.01721927
31	0xbc3c5a4b	-0.011496137
32	0xbce53cbc	-0.027983062
33	0x3c846b71	0.016164513
34	0xbc856d1b	-0.016287377
35	0x3c7cbd86	0.015426045
36	0x3ba05ca9	0.0048938585
37	0x3ca8800b	0.020568868
38	0x3c9aec8c	0.018911622
39	0xbc08ce6a	-0.008349994
40	0xbc6a5220	-0.014301807
41	0x3c344712	0.011003273
42	0x3c9695bf	0.018381951
43	0xbbde0689	-0.0067756814
44	0xbcb23865	-0.021755407
45	0xbcc46f59	-0.023978876
46	0x3cd406b2	0.025882099
47	0xbcaff997	-0.021481318
48	0x3caec419	0.021333741
49	0xb92c6f58	-0.00016444677
50	0x3bdeaf10	0.0067957714
51	0x3b314bf2	0.0027053324
52	0xbc033a84	-0.008009557
53	0xba316795	-0.0006767449
54	0x3c97e01e	0.018539485
55	0x3c62ee07	0.013850695
56	0x3cd61443	0.026132708
57	0x3c1ca5f9	0.009561055
58	0x3c47f24f	0.012203767
59	0x3c801a97	0.015637679
60	0xbba28741	-0.004959971
61	0x3893e9fc	7.053089e-05
62	0x3b77a5a1	0.0037787932
63	0xbbf71696	-0.0075405343
64	0xbb5b77f5	-0.0033488248
65	0x3ce85d7d	0.028364891
66	0xbb31f621	-0.002715476
67	0xbc8e5e8a	-0.017379064
68	0x3c5f3742	0.013624014
69	0x3bbfc2ba	0.0058520706
70	0x3b0d5d9c	0.0021570688
71	0xbb808762	-0.003922389
72	0xbc67cb1e	-0.014147548
73	0xbc1d3b15	-0.009596606
74	0x3d060054	0.032715157
75	0x3c3fe608	0.011712559
76	0x3c02a7b2	0.007974552
77	0x3b15bf44	0.00228496
78	0x3b5be763	0.0033554665
79	0x3b3a52ec	0.0028430773
80	0x3b1e6de1	0.002417438
81	0x3c040890	0.008058682
82	0xbc1de5e9	-0.009637334
83	0x3c9e93f1	0.019357653
84	0xbbbf0b42	-0.0058301995
85	0xbc9cb41b	-0.01912885
86	0x3b540f5b	0.0032357785
87	0x3b67dc1e	0.0035379003
88	0x3c269d62	0.010169359
89	0x3cba7360	0.022760093
90	0xbcf22af6	-0.029561501
91	0x3c805d34	0.015669443
92	0xbbff15c0	-0.007784575
93	0xbc7318dc	-0.01483747
94	0xbcb32795	-0.02186946
95	0x3b8e2254	0.0043375883
96	0xbbf6a5ee	-0.0075271046
97	0xbce0a451	-0.027422102
98	0x3b08c284	0.0020867893
99	0xbc6e71fe	-0.014553545
100	0xbc198d1f	-0.009372025
101	0x3ca0abb4	0.019613124
102	0xbb6f1e16	-0.0036486438
103	0xbb2e2392	-0.0026571495
104	0x3c763e91	0.015029565
105	0x3c3447b8	0.011003427
106	0xbb1aa02a	-0.0023594
107	0x3b4e7d32	0.0031507728
108	0x3c775447	0.015095777
109	0xbc1634fe	-0.009167908
110	0x3cf0f6cb	0.029414555
111	0x3bfa71b9	0.0076429513
112	0x3c2860fb	0.010277028
113	0x3cd85eb2	0.026412342
114	0x3b4f0160	0.0031586513
115	0xbc8b6a42	-0.017018441
116	0x3d0557f9	0.0325546
117	0xbc94e8e5	-0.018177459
118	0xbc1c1d8b	-0.009528528
119	0xbc25a1b5	-0.010109355
120	0xbbc0494b	-0.005868112
121	0xbc909615	-0.01764969
122	0xbca4491e	-0.020054396
123	0x3c1d982d	0.009618801
124	0x3bfbee85	0.007688346
125	0xbbbf4265	-0.0058367723
126	0x3b4213c3	0.002961383
127	0x3bff648f	0.00779397
