checkpoint.pth (torch_old, 1082 bytes, 3 tensors)

fc1.weight f4 [16, 2]
1.1108519 0.025940996 0.50601286 0.44198963 0.32445204 -0.22438711 -0.40230298 0.32417277
-1.0260664 0.49276826 0.10040169 -0.5008478 0.26269087 -0.20579422 -0.41392952 0.4383854
0.13437355 1.0149238 1.3681401 0.34383124 0.110227585 0.75134885 -0.8839815 -0.3593474
-0.082113124 0.24495725 0.22345175 0.119060725 0.4086107 0.034626544 0.28826773 0.19075072
00000000: 6530 8e3f 3682 d43c 0f8a 013f 774c e23e
00000010: 941e a63e bcc5 65be a8fa cdbe f9f9 a53e
00000020: 2556 83bf 1f4c fc3e 679f cd3d 9037 00bf
00000030: 6b7f 863e b8bb 52be 92ee d3be 0d74 e03e
00000040: 3899 093e 06e9 813f 371f af3f a60a b03e
00000050: 00bf e13d 6658 403f 9d4c 62bf 62fc b7be
00000060: ed2a a8bd 13d6 7a3e 89d0 643e 1cd6 f33d
00000070: 6c35 d13e 90d4 0d3d d497 933e 2854 433e

fc1.bias f4 [16]
-0.3760772 -0.24773487 -0.3277884 0.14915845 -0.10674542 0.85110325 0.032265756 0.8880296
-0.5455741 0.16456404 -0.6860657 -0.037140258 0.30667108 -0.3036642 -0.19008149 0.5139655
00000000: 318d c0be 36ae 7dbe e2d3 a7be febc 183e
00000010: 589d dabd e7e1 593f 1929 043d e855 633f
00000020: bfaa 0bbf 7a83 283e 00a2 2fbf 6220 18bd
00000030: fe03 9d3e e079 9bbe b9a4 42be 3e93 033f

fc2.weight f4 [1, 16]
1.0640459 -0.10931508 -0.3815664 -0.39077663 -0.0071347863 -0.44071192 0.17515968 0.36873314
-0.29602888 1.0263293 -0.37147203 0.25920692 0.13322125 1.1597109 -0.33411282 -0.062351726
00000000: a832 883f 96e0 dfbd ac5c c3be e013 c8be
00000010: edca e9bb fea4 e1be 0f5d 333e 97ca bc3e
00000020: 1991 97be c25e 833f 9531 bebe c5b6 843e
00000030: 276b 083e 6871 943f d610 abbe 8664 7fbd
