checkpoint_actor_v2.pth (torch_old, 52557 bytes, 6 tensors)

fc1.weight f4 [128, 33]
00000000: 5a51 4cbe c635 283e 361f 623d e40b 8abd
00000010: 6466 0b3d e7ae 33be 5170 18be cfb9 14bd
00000020: 32e5 30bd a57b 983d a99d d2bd 16cb db3d
00000030: 3ac1 5e3d f620 6dba e5a5 753d 5db7 b2bc
00000040: 9633 a23d ea69 27bd a860 bdbd aa61 343d
00000050: ce74 ef3d 1c4e 88be fa42 063e 45f4 c3bc
00000060: 001e b33b c931 a7bd 5f53 e33d a2aa 10bd
00000070: 4442 803e ea98 4e3d c1f1 f93d 3251 9abd
00000080: 2cde 893e a576 0bbd 9745 b63d 729f d2bb
00000090: 9503 b83a ca70 b7bc e161 733d 21dd ff3c
000000a0: 6efc 543e 3aa4 49be f29b 0d3d 10af 3d3d
000000b0: 4126 a6bd edae 35bd 8b0a 2c3d 1a91 2e3d
000000c0: 23a6 fcbd a6ad c73d efa1 933d 275e 153e
000000d0: 2ad9 313c 1ec6 a8b8 dd30 ac3c 3bf5 56be
000000e0: e091 3c3e f83a 1c3e a6c0 e0bd 75f9 9e3e
000000f0: 49bd cbbd c2d4 793d 61af 92bd ffef ff3d
00000100: 1c4b 63bd c4fd 93bf c4ad b83d d02d b0b7
00000110: 60ca f43b 0d4e c33c a233 b1be 44d2 253c
00000120: f835 fa3d f238 0dbd cd75 cfbd fb56 d53e
00000130: a73b 243e 4cb3 acbe 5620 c7bd 5631 15be
00000140: 49bd 423e 13a1 143e 6bdb 5abe 623a b23c
00000150: 6317 54bd b6b0 a0bd fa4d 42be 6d19 123c
00000160: be01 cebd 0285 963d 6279 a33d 4fb1 b13d
00000170: b2fd c8bd 6683 4bbd 995c 18bd cf1f 11bd
00000180: c114 a53c 609f 633c 6f51 293f fc31 0d3c
00000190: db0b ae3d d18d 67bc e9ba 0ebe dbb0 27bc
000001a0: efcc 853d c684 2a3d bdfa 78bc 538c 7fbd
000001b0: 0e66 093d a90a 00be 8d68 a0bd 86f2 2a3d
000001c0: cd9d 99be 184f dbbc f8e0 6c3d e247 55be
000001d0: 4c00 b23d ed02 05bd c04c c33d 9ca9 88bc
000001e0: d91b 09be 5c93 233e 89fa 89be bcae 593d
000001f0: 1481 97bd 0d89 2f3e 170f f83c 4176 4fbd
00000200: e82e 71bd 8687 ddbd b4fe f93c 07b5 8abe
00000210: ddd4 393c 9dd6 2dbe e7ad 6abe 9445 043c
00000220: 0006 febc 5061 083d 3549 d5bd 92b5 51bd
00000230: e00c 0c3c 0d9f e6bd 0a9b b93d 09f2 ce3c
00000240: 27a6 34bd efd9 763e ae0f ac3d e5e4 153e
00000250: 8af1 7cbe 7cdf a2bb 8055 073e df08 e63c
00000260: 3001 e23c c70d 4bbd c6dd 1f3d d8e3 d83c
00000270: 77c6 023d 3b19 de3d c499 c9bd dec9 2fbe
00000280: ba85 3cbe 56e1 a9bd 8c77 7e3d be65 3f3d
00000290: f99c 24bf 5c40 c93d c101 a53d 1522 993d
000002a0: 7fd1 4f3d 0daa d0bd 2f5d 133e d018 d8bd
000002b0: e36d 183e 0aff 633e 316b 913c 1b7a 65bd
000002c0: bb94 b83c d507 2fbd 4a61 d33c 2efd 96bc
000002d0: 1866 76bd cfc4 903d c5a8 8abd a207 4d3e
000002e0: a77a fbbd a245 ffbd 9761 f33d 8741 65bd
000002f0: 71d8 2cbc 34cd e5bd 983c 373e f36a 643d
00000300: a2f5 833d 31b0 4fbe d6db f2bc 9f0e 963c
00000310: 40fa 613c 8c16 103e ab1b 9c3e c8c4 12bd
00000320: dca7 1abe 0f4d 013e 33f7 553e a382 883d
00000330: 4252 12be b9bd eb3d 4b29 07be 5827 b03d
00000340: 365f c3bc 90f0 e8bc 9899 09bb 67fa ba3c
00000350: e66a 6abe f037 b43d f4cb 94bd 65b6 bcbb
00000360: 0d85 89bc 9187 133e a0f1 06bd d61b 153e
00000370: acb8 f83c ae9b 7abd a32a 5a3c b000 ecbc
00000380: 21ea 59be 6e02 4abd a462 8d3d 4135 11bd
00000390: 7de0 c93d 5008 34bd 58a8 5d3f cef2 1ebe
000003a0: d42e 36bd a5e7 ebbd 7b18 5ebc b843 c03c
000003b0: a506 873e 918b cc3c 4548 55be 786d 83bd
000003c0: 2709 debd e4d7 3cbd 692e 93bc eb32 ddbb
000003d0: 0ba9 ec3d 9736 2a3e 4910 c03d 8874 853c
000003e0: 4a32 9abe 10b9 ed3d 7b81 4dbd 5191 7cbc
000003f0: d601 44bd 3082 fd3c eb81 0bbe 7907 bb3d
-0.19952908 0.16426763 0.055205546 -0.06740549 0.034033194 -0.17547189 -0.14886595 -0.036310013
-0.043187328 0.07445458 -0.102839775 0.10732095 0.054383494 -0.0009045744 0.059972662 -0.02181595
0.079199955 -0.040872492 -0.09246951 0.044038452 0.116922006 -0.26622093 0.13111487 -0.023920188
0.0054662228 -0.08163793 0.11099886 -0.035318978 0.25050557 0.0504388 0.12204314 -0.07535018
0.26927316 -0.034048695 0.08899992 -0.006427699 0.0014039153 -0.02239265 0.059419516 0.031233372
0.2079942 -0.19691554 0.03457255 0.04630953 -0.08112765 -0.044356275 0.042002242 0.04261885
-0.123363756 0.09749918 0.07208621 0.14586698 0.010854999 -8.0477665e-05 0.021019394 -0.20991985
0.18415022 0.1525687 -0.10974245 0.31049696 -0.09948213 0.060993917 -0.07162357 0.124969475
-0.05549155 -1.1561818 0.09017518 -2.1002168e-05 0.007470414 0.023840928 -0.34609705 0.010120932
0.12217325 -0.034478135 -0.101298906 0.41667923 0.1603838 -0.33730543 -0.097229645 -0.14569601
0.19017519 0.1451457 -0.21372764 0.021756355 -0.051780116 -0.07846205 -0.18975058 0.008917195
-0.10058926 0.07349588 0.07982136 0.08676397 -0.098140135 -0.04968586 -0.037197683 -0.035430726
0.020151498 0.013892978 0.6613988 0.008617874 0.08498355 -0.014132933 -0.13938488 -0.010235037
0.065332286 0.04163053 -0.015196499 -0.062389683 0.033544593 -0.12504067 -0.078324415 0.041735195
-0.30003205 -0.026771113 0.057831734 -0.20828202 0.08691463 -0.032473493 0.09536123 -0.016682439
-0.1338953 0.15974182 -0.26948956 0.053145155 -0.073976666 0.17142124 0.030280633 -0.050649885
-0.058882624 -0.10816865 0.03051696 -0.27091238 0.0113422545 -0.169764 -0.22917901 0.008073229
-0.03100872 0.03329593 -0.10414354 -0.05119855 0.0085479915 -0.11260805 0.090627745 0.025261896
-0.044103768 0.24106573 0.08401428 0.14638098 -0.24701515 -0.004970489 0.1321621 0.028080402
0.027588457 -0.049573686 0.03902986 0.026475832 0.031927552 0.10844656 -0.098437816 -0.1716685
-0.18410388 -0.082949325 0.062125728 0.04672789 -0.6430202 0.09826729 0.08056975 0.07477204
0.0507369 -0.101886846 0.14391015 -0.105516076 0.14885668 0.22265258 0.017751308 -0.056024652
0.022531858 -0.04273208 0.025803227 -0.018431272 -0.060155958 0.07068788 -0.067704715 0.20022443
-0.122792535 -0.12464453 0.11883848 -0.055970695 -0.0105496505 -0.1122078 0.17894208 0.055766057
0.06443335 -0.20282055 -0.029645842 0.018317519 0.013792574 0.14071101 0.3048986 -0.035832196
-0.15103096 0.12627052 0.2089508 0.06665542 -0.14289191 0.11510796 -0.13199346 0.08601254
-0.023849111 -0.028435022 -0.002099609 0.02282448 -0.22892341 0.08799732 -0.072654635 -0.005759048
-0.016787076 0.14407183 -0.032945275 0.145614 0.030361496 -0.061183624 0.013315829 -0.028808922
-0.2128072 -0.049318723 0.0690358 -0.035451178 0.09857271 -0.04395324 0.86585 -0.1552231
-0.044478253 -0.11518792 -0.013555641 0.02346979 0.26372257 0.024968894 -0.2082835 -0.06417364
-0.108415894 -0.046104327 -0.017966466 -0.0067504547 0.1155568 0.16622387 0.09378106 0.016290918
-0.30116493 0.116075635 -0.05017231 -0.0154155055 -0.047853313 0.030945867 -0.13623779 0.09132285

fc1.bias f4 [128]
00000000: 8ad0 873e 5592 9c3d 59f8 90bd f37f 4e3c
00000010: dc36 803e 60fe 833d aa4f f03c bf85 66ba
00000020: 6ab9 98bd 620b b7bd 0f6e 21be d0ef aa3d
00000030: 281d 54bd 065f e83d 10fb 1d3d e0c4 963d
00000040: a23e 0e3e af13 dfbd 44c9 d43d 23e1 0b3d
00000050: 57b9 403e 8805 9abd 1349 2a3e 4a2d 213e
00000060: 61a2 15be beac 833d 907b 88bd bce0 cc3b
00000070: bddb d8bd 1cea febc 96bb df3c 04a1 f03d
00000080: 98ec e73d 5bf7 113d 2d01 41be f561 843d
00000090: 9e92 e73d 82dd 1f3e f3a8 23bd e21c 0e3e
000000a0: 439c 08be dd5d 6ebd 200c 0ebd b7d8 ee3c
000000b0: a690 1bbe 386a c6bc 24c7 77bd f724 743d
000000c0: 0a74 10be 5846 34bc adbd 66be 13f9 e33a
000000d0: f152 b4bd 17b6 703d 2bac 203e e1f7 343e
000000e0: db8b fc3c 1853 d43d 1c31 663d f35c 013e
000000f0: d1b2 3c3e 488b 3dbe 72b1 753e 8ad6 43be
00000100: d499 66bc 37cc cebc 39ca 843e eefd d23d
00000110: 7571 00bd 7b22 02bc c971 1f3e 0234 263d
00000120: a5eb 4f3d aa53 31bd f463 c53d 898d 5bbe
00000130: 1edc 1bbd 9e95 43be 4207 8bbe 7e2b e0bd
00000140: 5f2a 95bd 686b 943e a2ee 883e c47a 423e
00000150: e14e a2bd ac5d 4abe 9237 b33d 4428 8cbc
00000160: 2ec7 7dbe 7970 2fbe af3a 07bd 12e2 fd3c
00000170: a0c4 2d3e d8a6 5ebe 6828 423e 791b aabd
00000180: 32a1 71bd b269 6cbd b38a 333e 6de8 433e
00000190: 3cdc 72bd 21c6 173e 51a1 cfbd 5b8a 3bbe
000001a0: 0931 8abe ee15 e9bd b4b1 51bd 717c 153e
000001b0: a268 98bd 8db4 0abc e2d5 333e d337 d93d
000001c0: 202d 8d3d b59f 0c3e d43a 473e 1026 6c3b
000001d0: f0c0 e2bd 1d36 e53d da8e b73c fa6e 8cbd
000001e0: d67c 49be ad12 753e 20fd 87bd 356c c83d
000001f0: 19b7 aabd f937 033e 74d2 313e 103f 1a3e
0.2652629 0.07645098 -0.070786186 0.012603748 0.25041854 0.064450026 0.029334862 -0.00087937334
-0.0745724 -0.08937718 -0.1576464 0.08346522 -0.051785618 0.11346249 0.03856951 0.0736177
0.1389108 -0.10892426 0.10389951 0.034150254 0.18820702 -0.07520586 0.16629438 0.15739933
-0.14612724 0.06429432 -0.06664193 0.0062523764 -0.10588787 -0.031117491 0.027311128 0.11749461
0.113244236 0.035636287 -0.18848105 0.06463996 0.11307262 0.15611842 -0.039956044 0.13878205
-0.13340859 -0.058194984 -0.034679532 0.029156072 -0.15191898 -0.02422057 -0.06049265 0.059605565
-0.14106765 -0.011003099 -0.22533293 0.0017392955 -0.08804882 0.058767404 0.15690677 0.17672683
0.030828407 0.103674114 0.056199178 0.12633114 0.18427588 -0.18510163 0.23993471 -0.19124809
-0.014074761 -0.025243862 0.25935534 0.103023395 -0.0313582 -0.007942791 0.1557075 0.040576942
0.050761838 -0.04329268 0.09638205 -0.2144071 -0.038051717 -0.19100043 -0.27153975 -0.109457955
-0.07283472 0.28988194 0.26744562 0.18992144 -0.07925201 -0.19762295 0.087508336 -0.017109044
-0.24783012 -0.17132749 -0.03301495 0.030991588 0.16969538 -0.21743333 0.18960726 -0.08306021
-0.05899162 -0.057717986 0.17533378 0.19131632 -0.059292063 0.14821674 -0.101381905 -0.18314497
-0.26990536 -0.11381136 -0.05119486 0.14598252 -0.07441832 -0.008465898 0.17562059 0.10606351
0.068933725 0.13732798 0.19456035 0.003603343 -0.11071956 0.11191962 0.022406984 -0.068571046
-0.19676527 0.23932905 -0.06640077 0.09786264 -0.08335704 0.1281432 0.17365438 0.15063119

fc2.weight f4 [64, 128]
00000000: 1bd7 373e 6fd4 aebe 58db b4be 3f2a 803d
00000010: d1f4 663e 6c40 413d ac73 7abe 1448 2f3e
00000020: 44a2 8e3d b1b5 cabe 1de6 953e f897 23bd
00000030: 6356 e43d eb79 b53e 35c0 eb3d d910 b5bd
00000040: 2ac5 4e3e ca30 a6be 6c74 783e 34be 153d
00000050: ce31 5dbc b739 c73e 4933 613e 7f59 133e
00000060: ee69 523d 2b27 c03d b51b b3bc 5f54 033e
00000070: c28a 353e 8642 c6be 9149 273e 387b 4b3e
00000080: 3549 27be a25c c7bd 4ec7 953e 3151 703e
00000090: 2a99 e1bd 9c49 c2bd 9cd4 1abe 560b 68be
000000a0: d6ff de3d 201d 943c 674d a7be 827d 963d
000000b0: 45e7 3a3d 97ae 99be afd7 37bf e25a 13be
000000c0: 9771 e93d 3002 833c 8405 7ebe 86a6 43bd
000000d0: 0e85 b03e 6488 be3e ce74 bd3d 6a6c bcbe
000000e0: c6d9 4c3c 65a3 a7bd 4d9b 423e f2b4 20be
000000f0: 5e00 413e 702f 76bd 6314 e4bd f0d4 d3bd
00000100: 91d5 44be 78a1 e23e db9a 103d ac00 853e
00000110: fbf4 c6bc 0d87 ee3b fd48 c8be e836 fdbe
00000120: 7a3a b0bd 2f1e dabd 4976 ed3d be66 623e
00000130: 27e3 85bd 59e6 943e d8aa 82be 8613 533d
00000140: b26f f53d b539 54be b7ce afbd 16dd 8ebd
00000150: 6541 64be 2615 13be 6757 00bf cfb5 acbd
00000160: d096 133e e512 e9bb 56f9 893d e22c cc3d
00000170: 1595 19bd bd0a 25bf 7536 ff3d 8823 1bbe
00000180: f6a5 13be 75bd 8d3e 2588 9c3d 6949 e1bd
00000190: e187 eb3d fc69 85bd 2413 c3bd beca 9f3d
000001a0: d9c8 03bf c61a afbc c480 1fbe e609 433e
000001b0: f12c bd3c bcd1 a1be e5d2 06be 5f63 91be
000001c0: ae39 403d 6c1c 29bd 29df b2be 236c 7abd
000001d0: c02a cbbc 86a0 8c3e d4c5 de3d 5f34 e1bc
000001e0: 23ce 723e 5dea 0d3d b717 353d 6d33 3cbe
000001f0: 5322 2abe 1613 d2be 4109 6ebe 9c56 7c3e
00000200: 06e4 1f3e b91d c53d 46a9 8bbd 69e5 99bd
00000210: e82c f8bd 3625 863d 726e f6bd 9fde d9bd
00000220: 37c1 fa3d a65f 7c3e e402 df3c bfb7 15be
00000230: 97b8 f43d faea 2e3e f6be 04be 49fa 763c
00000240: 1770 7c3d 7628 103d 9190 253e 627e 2dbe
00000250: b0c0 dc3c 1eda 31be a3d0 6b3e 6b57 3b3e
00000260: 8ecd 8b3d 1cf0 cb3d 53af 483a 4b25 0f3b
00000270: 8e45 553e e520 093d e9a9 fd3d 15a2 2b3e
00000280: 8499 d0bc c511 1dbe 6c2c 113e 5089 10be
00000290: a02c 8a3d 6169 e9bd 79dc 423d ffc9 433e
000002a0: 5794 8ebd 4704 433e ea41 5fbe 0e53 e53d
000002b0: d62f 283e 280d 543e a754 7ebe be07 14be
000002c0: a159 183c 1c20 13be 075a 70bd 5ef1 dabb
000002d0: 7baf ae3e 5b77 923e 9761 f5bd 551d 5cbd
000002e0: 797f ca3e e358 1d3e 9313 8b3e a7b0 2fbe
000002f0: 5e1a 85be ec15 8ebc a22a 87bd 5353 cdbe
00000300: 64db f3bd 08df e63d 7971 27be 2868 f23d
00000310: 2506 3cbd 0ac5 b43d 4770 31be 73f4 8cbd
00000320: ac95 7dbd 217a 9bbd 57e5 683d 726d e73d
00000330: 108f 22be 4fc2 413e 0a1c 313e 1038 12bd
00000340: e73a 463d 27e2 833d a646 09be 137a fbbd
00000350: 7832 8f3d b611 3b3e 4e02 3f3d c374 87bc
00000360: db24 8b3e 52bb 693d 5fcf 033e a080 273e
00000370: 7127 ba3d cec2 8abe ea83 1f3c bd4c f23d
00000380: ac87 07be d261 083d 2a0d 9cbc 1825 d7bb
00000390: c862 af3d b29e 9cbe 60ee c63d f9cd 03bf
000003a0: 5b9b 4fbe c835 033d c8ba d2bd 4471 e53d
000003b0: 7f75 5a3e e6aa 073d 41ba 343e 4c4f 453e
000003c0: 07c4 f43d e771 773d 4a50 f03d b589 75bb
000003d0: f1b2 303e ab3f 163e 1161 663e 4f85 083e
000003e0: a3d2 403e d997 133b 09fc 233e 851a 2d3e
000003f0: 7646 413c 3700 93bc 7615 463e 0958 0c3e
0.1795315 -0.3414645 -0.35323596 0.06258058 0.22554328 0.047180578 -0.24458188 0.1711734
0.069645435 -0.39591745 0.29277125 -0.03993985 0.111492895 0.3544458 0.1151127 -0.08841104
0.201924 -0.32459098 0.24263161 0.036558345 -0.013500644 0.3891122 0.2199222 0.14389609
0.051370554 0.09382471 -0.021863798 0.12825154 0.17728713 -0.38722628 0.16336657 0.19871223
-0.1633652 -0.09734465 0.2925362 0.23468472 -0.11015542 -0.09486696 -0.15120167 -0.22660574
0.108886406 0.018080294 -0.3267624 0.073481575 0.045630712 -0.30016014 -0.7181348 -0.14390138
0.11398619 0.015992254 -0.24806792 -0.04776623 0.34476513 0.37213433 0.09250794 -0.36801463
0.012503093 -0.08185462 0.19004555 -0.15694025 0.18847796 -0.060103834 -0.11136701 -0.10343349
-0.19222094 0.44263816 0.03530393 0.25977075 -0.024286738 0.007279283 -0.39118186 -0.49455953
-0.086049035 -0.10650288 0.11594827 0.22109506 -0.065374665 0.2908199 -0.25520968 0.05153229
0.11984195 -0.20725138 -0.085843496 -0.069757625 -0.22290571 -0.14363536 -0.50133365 -0.08433115
0.14412999 -0.007112848 0.0673701 0.09969498 -0.03749569 -0.6446951 0.12461559 -0.15150273
-0.14418778 0.27683607 0.07643155 -0.1100033 0.11500526 -0.065143555 -0.09525135 0.07802342
-0.51478344 -0.021375071 -0.15576464 0.19046745 0.023092719 -0.31605327 -0.13166387 -0.28396127
0.046930008 -0.04128687 -0.34935883 -0.061138283 -0.024800658 0.2746622 0.108775765 -0.027490793
0.23711447 0.034647334 0.04421207 -0.18378992 -0.16614656 -0.41030186 -0.23245718 0.24642414
0.15614328 0.0962481 -0.06819396 -0.0751446 -0.1211794 0.06550066 -0.120327845 -0.10638165
0.12243884 0.24645862 0.027223058 -0.14620875 0.1194927 0.17081824 -0.12963471 0.015074321
0.061630335 0.035194837 0.16168429 -0.16942742 0.02694735 -0.17368361 0.23028807 0.18295066
0.06826316 0.099579066 0.000765552 0.0021842297 0.20827314 0.033478636 0.123859234 0.16761048
-0.025463827 -0.1533881 0.14177102 -0.1411488 0.06746793 -0.113970526 0.04757354 0.19120024
-0.06961887 0.190446 -0.21802488 0.11197482 0.16424498 0.20708144 -0.2483698 -0.14456078
0.009298713 -0.14367718 -0.058679607 -0.0066816052 0.34118256 0.28606686 -0.119815044 -0.05373891
0.3955038 0.15365939 0.2716337 -0.17157231 -0.2599668 -0.017344438 -0.065999284 -0.40102634
-0.1190708 0.112730086 -0.1635188 0.118362725 -0.045904297 0.08826645 -0.17327987 -0.068825625
-0.061910316 -0.075916536 0.05685934 0.11300172 -0.15874887 0.18921779 0.17295852 -0.035697997
0.048396017 0.064396195 -0.13405856 -0.12279143 0.06992048 0.18268475 0.046633057 -0.016535169
0.27176556 0.05706341 0.12872075 0.1635766 0.09089554 -0.2710175 0.009736041 0.11831043
-0.13235348 0.033296414 -0.019049246 -0.006565701 0.08563763 -0.30589825 0.09713435 -0.51486164
-0.20274107 0.03203371 -0.10289532 0.11203244 0.21333884 0.033121966 0.17649175 0.1926853
0.11951452 0.06041136 0.11734064 -0.0037466113 0.1725576 0.14672725 0.22497965 0.13332103
0.18830352 0.0022520928 0.16014113 0.16904648 0.011796584 -0.017944438 0.19344124 0.13705458

fc2.bias f4 [64]
00000000: 62e8 d3bc 51c4 a63b 73f5 473e 8dde 67bd
00000010: b4f7 f23d 5b7d bc3d bd16 ffbb 6e7e 1fbd
00000020: 1e51 e83d 097e 83bc 9648 973d a108 213d
00000030: d31d 04be c7bb af3c 28eb 643d d5e5 f83d
00000040: 06f5 42bc 0efd fabc 9b44 63be 93f6 bb3d
00000050: 3d92 393d 4eb4 ad3d 5bb7 81bd 0914 7a3d
00000060: 3b66 2abe e625 dcbc 152a c4bd d89e de3d
00000070: 4389 a1bb 0b60 babc f114 e6bc cf32 e03d
00000080: c566 d5bc 5927 933d eb95 d6bc 9f00 323e
00000090: 089f b03d 282e 2dbd fa66 b93d e3db 6c3d
000000a0: 7ea6 3bbd bff6 92bd 3cf0 36bc 2aa8 2a3d
000000b0: 798f b1bd 7c1b 70bc ef9b e63d 7fbd fa3b
000000c0: b43a a5bd 3ad7 21bd ce18 1d3d d2e8 e83c
000000d0: 0b6b c1bc bf9e d53d fff0 d2bd f141 7cbd
000000e0: fedf a63b e6b9 153e d35b d83d cca9 cc3d
000000f0: 2fb1 023d 05dd 083c c4f0 fe3c 1050 06be
-0.025867645 0.0050893207 0.19527225 -0.056608725 0.11863652 0.09203597 -0.007784693 -0.038938932
0.11343597 -0.01605131 0.073868915 0.03931487 -0.12902002 0.021451844 0.055888325 0.12153212
-0.011899238 -0.030638244 -0.2219414 0.0917789 0.04530548 0.08481656 -0.063338004 0.061054263
-0.1664056 -0.02687354 -0.09578339 0.10870141 -0.004929693 -0.022750875 -0.028086158 0.10947191
-0.02604998 0.07185239 -0.026194533 0.1738305 0.08624083 -0.042280346 0.09052844 0.057826888
-0.045813076 -0.07175969 -0.011165675 0.04166428 -0.08669943 -0.01465499 0.11260211 0.007651984
-0.08067837 -0.039511897 0.038353734 0.02843133 -0.023610612 0.10430669 -0.102998726 -0.061586324
0.00509262 0.14621696 0.10564389 0.09993324 0.031907257 0.008353476 0.031120665 -0.13116479

fc3.weight f4 [4, 64]
00000000: ee13 503f ca25 743e cd2e f5be 732b 623e
00000010: 17a9 a9be ce78 adbe 55bb 04bf f76e 90be
00000020: 3951 923e 9703 dcbd 61ca 8ebe ef97 3e3f
00000030: 5a1e 663e 40ef 2c3e 27d3 1b3f 4108 dd3e
00000040: bae9 a0be 529b 03be 3dda 52bf 9959 08bb
00000050: 6d54 8ebe 7a4a 5a3f 1fa1 02be a939 60bd
00000060: 7063 10be a483 103e 3756 5ebd 7f1e d7be
00000070: e033 093f 6dd1 d53e b72c eb3e 082c 903b
00000080: d29c 233f a98e afbc 35d3 92be 7827 743f
00000090: 484d 38be 4e46 573d d4d1 383e 5ee4 70be
000000a0: 2927 cc3e 8161 463f 577d 993d 719f 2f3e
000000b0: 9a18 fdbe 41e5 f33d cc1e e83e aae4 533d
000000c0: 9988 7fbd 819d 1d3f 44af 04bf fd03 c7be
000000d0: 244e 18be fcdc 9abe 4497 cebd 4f3e 703e
000000e0: 9d91 36bf 549b 433f 6380 b0be 5c84 293f
000000f0: 2337 99be baa7 12bf 09e1 96be 907e e53d
00000100: 1e7f 2abe 8c42 71be be04 5d3b a1e2 0dbf
00000110: 295e da3d 757f a13e 1b1b 12be 81d7 8ebd
00000120: 969b 513f 2344 863d c73d 163e 5154 173c
00000130: ac34 f7be 7b2c a13e 8b33 41bd 9189 27bf
00000140: 40b7 c43e 897c 313f 9a2e 11bf 0ec6 9ebd
00000150: eb78 93bc 9560 a23e 6278 32be e2e5 d8be
00000160: 9983 07bf 7ff3 86bd 7e01 443f 8079 9c3b
00000170: c677 14bf 0928 ce3e e0ad 243f eb0b 33bf
00000180: e96b 4fbe b499 95bd d5f6 dc3d 04f7 b43e
00000190: 1adf 993e fca7 21be a4e7 78be eeaa 86bd
000001a0: 34db efbe a6b0 ed3d 4447 44bf 2000 26be
000001b0: 1ce8 28be 9d66 efbd edeb 9e3e b60a ecbe
000001c0: 3b6a 12bd e845 e13d 5ca5 4f3e 48ec 2e3e
000001d0: 18e1 1d3f 460d 093d e624 1fbf 71a7 5dbf
000001e0: 914f dbbd c368 f03d 4dbf f03d b9f2 3c3d
000001f0: 0c15 5d3e 7784 85be 4d54 86bd 2057 92be
00000200: 2bfd bfbd e1b2 ae3e 3313 92bd 76ff fd3d
00000210: 348e 753f d49c 81bc efed 8ebe 16e4 19bf
00000220: 4de9 903d 33f7 a0be 463a 7dbd 9d84 19bc
00000230: d478 de3d fdf6 3cbd dbb6 4f3e dd31 da3e
00000240: 5e34 f9bd 6fae eebd 21c0 a0bf e5ca 113e
00000250: 2553 03bd 6acb b03c f01c a53e 6942 a43e
00000260: fc77 b0be bd74 c13e d458 423f 4e7b 9dbd
00000270: c2e6 1e3e a655 1fbd 717f ebbd a584 543f
00000280: f291 283f ef76 b23e 5c34 ecbd 5b6e c9bc
00000290: 9c7c 67bd 2ff6 6cbe 9d42 8f3e 4f19 eb3d
000002a0: c00b ca3e c25f b83d 5512 8c3e d586 c6be
000002b0: 6790 553e 809e 2d3f eac7 263e 82f2 84bd
000002c0: b6c7 a53e 5f1a 663c 55f8 33be 17ba c4bd
000002d0: d0f8 1b3f 588d 2cbe 701e c8bc 6a05 c73e
000002e0: dd2d 643e d874 d7bd 3a31 6bbd 2458 20be
000002f0: 4220 44be 6205 df3d 1db4 f2bd 1fbf f93d
00000300: 1ea4 6b3e 50eb ac3c 17a4 1ebf 016a efbe
00000310: f262 9cbe 54aa b63d d700 63bf e208 36be
00000320: baa4 e63c f2de 4ebd 59d5 033e 40f2 f0be
00000330: 0aa2 d73e 1c20 633d 427d 4abe 5dc2 2ebe
00000340: 6366 873e 5f20 953e 3d81 67bd 5bed 07bf
00000350: ab3c 4c3e 098b d13d ad34 4c3c 7dfb 8fbe
00000360: 1625 4a3e e5e6 e03d 76c2 4f3f db8a 0c3e
00000370: 7716 4abf 3289 26bf a57e 4b3e e8ed 20bf
00000380: 3321 ad3e 1817 e3bc 2bec bf3d c3a0 1e3e
00000390: 7661 3d3e 5b6b bebc 0a9c 913e 7ebe aabe
000003a0: 2717 bfbe 285d fb3d 3599 c73d 03f0 cbbe
000003b0: aaa9 313e 1cf3 bc3d aa22 b13e 3a89 b3be
000003c0: 128d be3e 6ba0 ad3e 276e 223e e059 123e
000003d0: 6138 033f fd4e f43c 5445 ebbd 62b8 30be
000003e0: 4c75 863e 9da0 e53b b35a 103e 0c56 6bbe
000003f0: 2fbf e93d 3922 1abf da44 0bbf b143 ad3e
0.8128041 0.2384254 -0.4788727 0.22086887 -0.33136818 -0.3388123 -0.51848346 -0.2820966
0.28577593 -0.10742872 -0.27888778 0.7445058 0.22472516 0.16888142 0.6086907 0.4317036
-0.3142832 -0.12852219 -0.82364255 -0.0020805357 -0.27798787 0.8526989 -0.12756775 -0.05474249
-0.14100432 0.14112717 -0.05428144 -0.42015454 0.5359478 0.41761342 0.45932552 0.00439978
0.63911164 -0.02143033 -0.28676763 0.95372725 -0.1799823 0.052557282 0.18048793 -0.23524615
0.39873627 0.7749253 0.0749461 0.17150666 -0.49432832 0.11908961 0.45335996 0.051731743
-0.06238613 0.61568457 -0.51829934 -0.3887023 -0.14873558 -0.30246723 -0.100874454 0.23461269
-0.7131594 0.76408887 -0.3447295 0.6621759 -0.29924878 -0.5728718 -0.29468563 0.112057805
-0.16650054 -0.23560542 0.003372475 -0.55423933 0.10662491 0.31542554 -0.14268152 -0.06974698
0.8187803 0.06555965 0.14672004 0.009236411 -0.48282373 0.31479248 -0.047168296 -0.65444285
0.3842106 0.6933065 -0.56711733 -0.0775262 -0.018001994 0.3171431 -0.17428735 -0.42362887
-0.5293518 -0.06589412 0.76564777 0.004775226 -0.5799526 0.4026492 0.6432781 -0.6994006
-0.20256008 -0.07304707 0.10789267 0.35344708 0.30053025 -0.15786737 -0.24307114 -0.06575571
-0.46846926 0.11605959 -0.7667124 -0.16210985 -0.16494793 -0.11689494 0.31039372 -0.46101922
-0.03574584 0.10999662 0.20277923 0.17082322 0.6167159 0.033459924 -0.6216568 -0.8658362
-0.107085355 0.11738732 0.11755238 0.046129916 0.2159006 -0.26077625 -0.06559048 -0.28582096
-0.0937446 0.3412085 -0.07132568 0.12402241 0.9592011 -0.015821852 -0.27915904 -0.60113657
0.070757486 -0.31438598 -0.061823152 -0.009369996 0.1086289 -0.046133984 0.20284598 0.42616168
-0.121681914 -0.11654364 -1.2558633 0.14237554 -0.032061715 0.02158137 0.3224864 0.32081917
-0.3446654 0.37784377 0.7591679 -0.07689534 0.15517715 -0.03890004 -0.11498917 0.830149
0.65847695 0.34856364 -0.11533424 -0.024588754 -0.05651532 -0.23140787 0.2798051 0.114794366
0.3946209 0.09002639 0.27357736 -0.38774744 0.20855866 0.67819977 0.16287199 -0.06491567
0.3237893 0.014044373 -0.175752 -0.09605806 0.6092653 -0.16850793 -0.024428576 0.38871318
0.2228312 -0.10520333 -0.057419993 -0.15658623 -0.1915293 0.108896986 -0.1185076 0.121946566
0.23011824 0.0211083 -0.6196913 -0.46760562 -0.3054424 0.08919206 -0.88673156 -0.17776826
0.02815472 -0.050505586 0.12874354 -0.47059822 0.42115813 0.055450544 -0.19774345 -0.17066331
0.26445302 0.2912626 -0.056519736 -0.5309655 0.19945018 0.10231597 0.012463731 -0.28121558
0.1974071 0.1098154 0.811561 0.13724844 -0.7894053 -0.65053093 0.1987253 -0.62863016
0.33814391 -0.027720973 0.09371217 0.15491013 0.1849421 -0.02324455 0.2843936 -0.3334846
-0.3732235 0.122736275 0.09746019 -0.39831552 0.17349878 0.09226057 0.3459676 -0.35065633
0.37217003 0.33911452 0.15862332 0.14292097 0.512579 0.02982282 -0.11487833 -0.17257836
0.26261365 0.007007672 0.14097099 -0.22982043 0.114134185 -0.6020847 -0.54401934 0.33840707

fc3.bias f4 [4]
00000000: 2db5 87be 9266 543e c3f7 b63d 0ad5 593b
-0.26505414 0.20742252 0.089339755 0.0033238553
