checkpoint_actor_v1.pth (torch_old, 169478 bytes, 6 tensors)

fc1.weight f4 [256, 33]
0.11513959 -0.07915809 0.048155066 0.030115552 0.052280296 -0.09407045 0.00226218 0.0060719526
-0.08872248 -0.08459277 0.039507348 -0.07996067 -0.047657274 0.16940095 -0.093773596 -0.009794114
-0.0386627 -0.13163728 0.032198463 0.04560508 0.014704897 -0.03393083 -0.05998861 -0.009939018
-0.013944947 -0.074290015 -0.09391441 0.03544448 0.018658401 -0.056019723 0.00062266976 -0.060338497
-0.063147746 -0.042717986 0.060780525 0.044282585 0.031230956 -0.07936978 0.037107594 0.10004802
-0.021463333 -0.17686085 0.026679454 -0.08710862 0.05845273 -0.010429457 -0.055639073 0.077141106
0.13903284 -0.0036189307 0.0848144 0.035425216 -0.043232616 0.023567168 0.037276 -0.084955074
0.07762698 -0.012582222 -0.010016384 0.12596439 -0.026513087 -0.12712358 -0.051142685 0.08344628
0.047416903 0.06821212 -0.08456533 0.038770545 0.0032322735 0.047924347 0.011773221 0.02555665
-0.025777683 -0.04033194 -0.015450372 -0.016049134 0.086772755 -0.03411281 -0.05800553 0.013430852
0.008814114 -0.04989004 0.048467766 -0.013725356 0.08468098 0.06439376 0.08539244 -0.085923955
0.008130079 0.10908936 -0.067077994 -0.03341549 -0.03788291 -0.007231975 -0.07726811 -0.036413863
-0.026030594 -0.0444818 0.054382503 -0.013969969 0.08864446 -0.024331873 0.10062294 0.011560749
0.033240806 0.09115635 -0.043408573 -0.012574013 0.0035246226 0.02087374 0.08431831 -0.11448424
0.04809289 0.11389773 0.07608566 -0.009919803 0.04120881 -0.08825979 0.0795231 0.09691032
-0.02642615 -0.0006539646 -0.0964304 0.11273786 -0.09465042 0.034499645 -0.0011852316 0.07022636
-0.0058169365 -0.002198055 -0.025500402 0.014773962 -0.036754098 0.000520532 -0.022219693 0.043029368
-0.04693638 0.04529318 0.069247365 0.014929926 -0.08150824 0.085901976 -0.025177088 0.0028056293
-0.07159317 -0.11395321 0.015383381 -0.022373067 -0.005411224 -0.038140934 0.07769771 0.020913422
0.021457983 0.073081 -0.035462927 -0.011318999 -0.014911705 -0.0025889121 0.18930775 -0.09952335
-0.029097823 0.054818906 0.06649296 0.015431829 0.080343515 -0.0032863158 0.07899897 0.027495593
0.018505009 0.033893127 -0.012534143 -0.05151165 -0.025983464 -0.071480684 0.020347537 0.045012865
0.09923872 0.01156058 -0.1294065 0.05287102 -0.024338372 -0.0103811845 0.0462994 0.027321115
-0.0015241955 -0.0041341884 0.012893119 -0.03903971 -0.0066306298 0.11775741 -0.09262414 0.052120086
0.035610024 -0.040782522 -0.03256733 -0.038966645 0.036707 0.07220306 -0.1301537 0.031754225
-0.07613053 -0.009305184 -0.0019387745 -0.054476537 -0.028545145 -0.01202401 0.043291077 -0.10087405
0.05097932 0.06929132 0.011622811 -0.06951931 0.069257475 -0.013011807 0.043922264 0.0043399488
-0.07596656 0.0057365787 0.041280665 0.06365091 -0.02832043 0.031168383 0.107400656 0.082953766
0.03213542 -0.004802402 -0.09269485 -0.02946657 0.007018141 -0.048919022 0.086863495 -0.093700625
-0.06927109 0.07198581 -0.033604156 -0.04262667 0.120948076 -0.01844144 -0.10103348 -0.07164767
0.03786297 -0.0937888 -0.048785597 0.0010756858 0.000106823354 -0.082400806 0.05707946 -0.004785193
0.04632451 -0.03519538 -0.045159914 -0.09965869 0.044112265 0.07183463 0.034111254 -0.008146257
00000000: 4ece eb3d a31d a2bd 3f3e 453d e4b4 f63c
00000010: dd23 563d 02a8 c0bd 1541 143b 3bf7 c63b
00000020: 22b4 b5bd f93e adbd 75d2 213d 6bc2 a3bd
00000030: 4634 43bd 7177 2d3e 5f0c c0bd 7e77 20bc
00000040: c85c 1ebd eccb 06be 89e2 033d 64cc 3a3d
00000050: cfec 703c 0efb 0abd 9eb6 75bd 43d7 22bc
00000060: 5979 64bc 5d25 98bd 3356 c0bd 3b2e 113d
00000070: 81d9 983c f074 65bd a93a 233a 8025 77bd
00000080: 9b53 81bd 0ef9 2ebd 00f5 783d a861 353d
00000090: 10d8 ff3c a08c a2bd 22fe 173d fae5 cc3d
000000a0: dfd3 afbc 031b 35be df8e da3c 0166 b2bd
000000b0: 216c 6f3d 50e0 2abc cce5 63bd 28fc 9d3d
000000c0: a05e 0e3e 952b 6dbb 2cb3 ad3d 081a 113d
000000d0: af14 31bd ef0f c13c b8ae 183d edfc adbd
000000e0: e5fa 9e3d aa25 4ebc c21b 24bc cffc 003e
000000f0: f931 d9bc af2c 02be fe7a 51bd e2e5 aa3d
00000100: 3a38 423d ccb2 8b3d 9630 adbd ddcd 1e3d
00000110: 8dd4 533b 524c 443d 78e4 403c 2e5c d13c
00000120: b82b d3bc 1b33 25bd 8f23 7dbc 7979 83bc
00000130: eab5 b13d e0b9 0bbd 3597 6dbd 140d 5c3c
00000140: 1369 103c 8059 4cbd 2386 463d 51e0 60bc
00000150: 396d ad3d e0e0 833d 3be2 ae3d e6f8 afbd
00000160: 0634 053c 3e6a df3d 3060 89bd aede 08bd
00000170: 1c2b 1bbd 34fa ecbb be3e 9ebd b426 15bd
00000180: 1d3e d5bc 8c32 36bd 30c0 5e3d 4ce2 64bc
00000190: 3a8b b53d a353 c7bc 6613 ce3d 4c69 3d3c
000001a0: 8327 083d 2eb0 ba3d 30cd 31bd 3c03 4ebc
000001b0: 5bfd 663b 68ff aa3c 14af ac3d b776 eabd
000001c0: 0dfd 443d 3743 e93d ccd2 9b3d ab86 22bc
000001d0: 92ca 283d 8cc1 b4bd 02dd a23d eb78 c63d
000001e0: a77b d8bc d26e 2bba 4d7d c5bd 1be3 e63d
000001f0: 14d8 c1bd 804f 0d3d c659 9bba d6d2 8f3d
00000200: 009c bebb 3e0d 10bb 38e6 d0bc 7d0e 723c
00000210: 778b 16bd 5074 083a 1306 b6bc 903f 303d
00000220: 5d40 40bd 5785 393d 90d1 8d3d a69c 743c
00000230: cbed a6bd 60ed af3d 2e40 cebc a6de 373b
00000240: 719f 92bd 4d60 e9bd 940a 7c3c b947 b7bc
00000250: a350 b1bb ab39 1cbd fa1f 9f3d a052 ab3c
00000260: a7c8 af3c 7eab 953d 9341 11bd 5373 39bc
00000270: 3950 74bc bdaa 29bb e4d9 413e e6d2 cbbd
00000280: 8f5e eebc ca89 603d 762d 883d c8d5 7c3c
00000290: 248b a43d 3b5f 57bb 36ca a13d 703e e13c
000002a0: d197 973c 85d3 0a3d 025c 4dbc e1fd 52bd
000002b0: 46db d4bc 7764 92bd e1af a63c 695f 383d
000002c0: ac3d cb3d 9668 3d3c 2383 04be 488f 583d
000002d0: 4461 c7bc d815 2abc 71a4 3d3d 88d0 df3c
000002e0: 84c7 c7ba 1678 87bb a93d 533c 1ae8 1fbd
000002f0: c145 d9bb cc2a f13d bab1 bdbd df7b 553d
00000300: d1db 113d 930b 27bd 5265 05bd 7d9b 1fbd
00000310: 145a 163d 33df 933d 0347 05be b810 023d
00000320: 53ea 9bbd c574 18bc 7a1e feba ca22 5fbd
00000330: 82d7 e9bc 5a00 45bc fc51 313d 0e97 cebd
00000340: b1cf 503d 9ce8 8d3d 9a6d 3e3c 2460 8ebd
00000350: ddd6 8d3d 792f 55bc d5e7 333d 2136 8e3b
00000360: 5b94 9bbd e9f9 bb3b ea15 293d 695b 823d
00000370: 3f00 e8bc d654 ff3c e0f4 db3d aae3 a93d
00000380: 6ea0 033d 785d 9dbb ccd6 bdbd e063 f1bc
00000390: 6ff8 e53b 505f 48bd 7de5 b13d 1de6 bfbd
000003a0: 00de 8dbd 4c6d 933d 83a4 09bd 4e99 2ebd
000003b0: a0b3 f73d 8112 97bc a4ea cebd 03bc 92bd
000003c0: 3416 1b3d 5814 c0bd 68d3 47bd 07fe 8c3a
000003d0: 5a06 e038 c1c1 a8bd 27cc 693d 1ccd 9cbb
000003e0: c5be 3d3d 0829 10bd 9af9 38bd db19 ccbd
000003f0: 10af 343d 091e 933d 3eb8 0b3d e177 05bc

fc1.bias f4 [256]
0.11265417 0.0055847517 -0.05996899 -0.10006896 0.041239828 0.036697116 -0.108233854 0.24212977
-0.0790583 -0.057853427 -0.024315916 -0.0024267735 0.1009571 0.24155648 0.06383268 0.21960619
-0.0545481 -0.02900818 0.016195832 0.030938797 0.15983112 0.033987828 0.21734469 0.13083485
0.20351128 0.01902727 -0.109730944 0.094705686 -0.16881095 0.15620704 0.14076667 -0.09907063
0.1383292 0.14333811 -0.025725797 0.22150542 0.27251178 -0.08341325 0.11233619 0.02773705
-0.083441444 0.20116855 0.109794445 0.26966158 -0.15996853 0.12570223 0.15246461 -0.11619491
0.10800943 0.15560646 -0.03816753 0.07604328 -0.009945813 -0.06630385 -0.12011279 0.21376039
0.07949993 -0.072064415 -0.04380306 -0.02269416 0.0030932399 0.013139469 0.0858849 0.2218326
0.18633412 0.114286214 0.15154031 0.18442123 0.07357238 0.12587154 0.0027962374 0.24531594
0.0043466315 0.13423207 0.22656149 -0.04082665 0.13674708 -0.14849219 0.10803021 -0.13727051
-0.081233025 0.02131119 -0.057189368 -0.03485943 0.047418434 -0.13269398 0.018257162 -0.01546425
0.03757387 0.044361383 0.019484054 0.15187901 0.034005664 -0.023197303 0.17301059 0.027953502
0.18782865 -0.017316617 0.00834715 0.073143415 0.18809518 -0.115732834 -0.118963204 -0.1289236
0.1953593 0.0450512 0.0022335704 0.064557284 -0.073781796 0.00020686798 0.22781856 -0.0153678665
0.29999834 -0.011952234 0.25075012 -0.12837012 0.09733347 -0.03406475 -0.048148092 0.05430266
-0.11230743 0.049100835 0.06518667 0.053039588 -0.072017625 0.16222206 0.06983087 0.26612574
0.05436761 0.15774575 0.014241345 0.2845978 0.12667857 0.06959941 0.16782708 0.06003719
0.08893403 0.115273766 0.08561813 -0.006680065 -0.054736212 -0.06650817 0.18441418 0.16520536
0.20476083 -0.08345017 -0.07870576 -0.0095274635 0.04333443 -0.10960832 0.047679935 0.0065486855
0.13312098 0.021412777 0.10923345 -0.09625885 0.122627005 0.1163653 0.14968541 -0.12346266
0.07014268 -0.018432055 0.028677128 -0.017083649 -0.13288589 0.24598022 -0.008640049 -0.019620527
0.09287613 0.22822918 0.20419577 0.038074717 -0.009200398 0.13017853 -0.080855764 -0.0080175
-0.17258206 -0.09031018 0.03169051 0.1986098 0.0055253673 -0.021013075 0.14670779 -0.0024652553
0.0296901 0.16967978 0.10473786 0.04854463 0.06991241 0.11458033 0.071909055 0.0034547495
-0.071964055 -0.02326672 0.19587255 0.059547488 -0.062700406 0.1312756 -0.0067612 0.14038803
-0.03127824 0.18664785 -0.067101955 -0.041987218 0.035955578 0.034700863 -0.115057014 0.28037325
0.17872496 0.16967124 0.08777415 0.23692672 0.22018085 0.21990465 -0.06608931 0.14896563
-0.16183044 -0.12827228 0.18958555 -0.015541668 -0.17060716 -0.04447574 0.056717377 0.068790644
0.02420236 -0.14263825 -0.08060546 -0.07771517 -0.1732483 0.14506121 -0.0013021027 0.09683763
0.15844214 0.22473586 0.07053538 0.07812399 0.08301773 0.045252588 -0.040260863 0.02301578
-0.15508033 -0.13249157 0.09091684 -0.061847694 0.017102601 0.05752934 0.2199702 0.022032695
-0.063043065 0.170675 -0.12590131 0.015073725 -0.102092035 -0.079176046 -0.1538348 -0.15833074
00000000: 3bb7 e63d 4b00 b73b 0ba2 75bd f4f0 ccbd
00000010: 18eb 283d b74f 163d b6a9 ddbd def0 773e
00000020: 51e9 a1bd b7f7 6cbd 2c32 c7bc 810a 1fbb
00000030: 99c2 ce3d 955a 773e b5ba 823d 72e0 603e
00000040: d46d 5fbd 90a2 edbc 1fad 843c 5c73 fd3c
00000050: c5aa 233e d236 0b3d 9b8f 5e3e 92f9 053e
00000060: 4365 503e 14df 9b3c 9eba e0bd 0ef5 c13d
00000070: c7dc 2cbe bdf4 1f3e 2325 103e 8be5 cabd
00000080: 2ba6 0d3e 3ac7 123e e8be d2bc 51d2 623e
00000090: aa86 8b3e 91d4 aabd 8410 e63d cf38 e33c
000000a0: 59e3 aabd 21ff 4d3e e9db e03d 1511 8a3e
000000b0: cace 23be 16b8 003e af1f 1c3e 99f7 edbd
000000c0: 0c34 dd3d 4d57 1f3e 8e55 1cbd 94bc 9b3d
000000d0: c3f3 22bc 50ca 87bd b2fd f5bd 01e4 5a3e
000000e0: dcd0 a23d 8296 93bd d66a 33bd 1ae9 b9bc
000000f0: f4b7 4a3b ed46 573c 6ce4 af3d 1628 633e
00000100: 5fce 3e3e e40e ea3d 622d 1b3e ebd8 3c3e
00000110: 1ead 963d 78e4 003e 1441 373b 1a34 7b3e
00000120: 306e 8e3b 2274 093e bcff 673e d839 27bd
00000130: 6d07 0c3e 560e 18be f13e dd3d a490 0cbe
00000140: 805d a6bd ce94 ae3c 663f 6abd c3c8 0ebd
00000150: d539 423d eee0 07be 0b90 953c c45d 7dbc
00000160: 0fe7 193d 48b4 353d 069d 9f3c 2c86 1b3e
00000170: 8649 0b3d 4508 bebc b029 313e befe e43c
00000180: 2756 403e 94db 8dbc 7cc2 083c 37cc 953d
00000190: 069c 403e 5605 edbd fba2 f3bd 8c04 04be
000001a0: 450c 483e 9b87 383d 1861 123b 9c36 843d
000001b0: e91a 97bd b3ea 5839 4549 693e 81c9 7bbc
000001c0: 6299 993e 4ed3 43bc 5262 803e 7573 03be
000001d0: c556 c73d 7b87 0bbd ef36 45bd 776c 5e3d
000001e0: 7001 e6bd f51d 493d 9780 853d 0a40 593d
000001f0: fa7d 93bd 8a1d 263e 7d03 8f3d a241 883e
00000200: 92b0 5e3d 1a88 213e 8854 693c ceb6 913e
00000210: 07b8 013e 238a 8e3d ddda 2b3e 8ee9 753d
00000220: 0b23 b63d a714 ec3d 8f58 af3d 72e4 dabb
00000230: 1433 60bd 6f35 88bd 12d7 3c3e 982b 293e
00000240: d3ac 513e ece7 aabd 7c30 a1bd 1419 1cbc
00000250: 717f 313d 547a e0bd 094c 433d 5b96 d63b
00000260: de50 083e d969 af3c c9b5 df3d 5c23 c5bd
00000270: de23 fb3d ee50 ee3d 2247 193e fed9 fcbd
00000280: f7a6 8f3d d2fe 96bc 4cec ea3c 02f3 8bbc
00000290: 3d13 08be 3de2 7b3e fe8e 0dbc 3abb a0bc
000002a0: d735 be3d e9b4 693e b218 513e 3cf4 1b3d
000002b0: 44bd 16bc 854d 053e b597 a5bd d55b 03bc
000002c0: 5ab9 30be 8bf4 b8bd e9cd 013d 5e60 4b3e
000002d0: 240e b53b 9d23 acbc 913a 163e 1f90 21bb
000002e0: a738 f33c 89c0 2d3e ce80 d63d bcd6 463d
000002f0: 3d2e 8f3d 18a9 ea3d 0e45 933d 1469 623b
00000300: e461 93bd d999 bebc d092 483e 11e8 733d
00000310: 1269 80bd 1c6d 063e 0e8d ddbb e1c1 0f3e
00000320: 9d1d 00bd 9d20 3f3e c06c 89bd cafa 2bbd
00000330: 2846 133d 7e22 0e3d 03a3 ebbd 158d 8f3e
00000340: ad03 373e 4cbe 2d3e efc2 b33d eb9c 723e
00000350: 1777 613e af2e 613e d559 87bd 728a 183e
00000360: e1b6 25be cf59 03be b722 423e 7ba2 7ebc
00000370: a5b3 2ebe 322c 36bd 7b50 683d 1ce2 8c3d
00000380: 0744 c63c c30f 12be 7a14 a5bd 2229 9fbd
00000390: 0168 31be ed8a 143e 51ab aaba cf52 c63d
000003a0: a83e 223e 2821 663e da74 903d 78ff 9f3d
000003b0: 3305 aa3d c75a 393d 93e8 24bd 978b bc3c
000003c0: 61cd 1ebe dfab 07be 9c32 ba3d 0254 7dbd
000003d0: c11a 8c3c e3a3 6b3d de3f 613e e97d b43c
000003e0: b91c 81bd 6dc5 2e3e 46ec 00be c9f7 763c
000003f0: a115 d1bd 0d27 a2bd df86 1dbe 7421 22be

fc2.weight f4 [128, 256]
-0.009098416 0.050304208 -0.014711479 0.08540252 0.001962452 0.06203619 0.09239622 -0.054054063
0.09370573 0.09624692 0.014538586 -0.13165739 0.039902918 0.04707744 0.097764745 -0.036873307
-0.10584626 0.00038802362 0.059754565 0.102418184 -0.123118594 0.14268732 -0.03339573 -0.08135458
-0.016141644 -0.0814621 0.0262425 0.04177016 0.18424489 -0.00032013337 -0.078560136 0.0027013114
0.045318786 0.081948414 0.10694114 0.080346756 0.0049503557 -0.033569854 0.087004684 0.06746169
-0.06005599 0.13691169 0.020314794 -0.08257029 0.08370938 0.16163953 0.073318474 0.09089921
-0.017792152 0.064389236 0.089586444 0.019696075 -0.043046612 0.049261093 0.041120104 -0.07229792
0.030909223 0.069188856 0.07658185 -0.13248962 -0.026952902 -0.037417553 0.012925578 0.02888557
-0.04187106 -0.04655279 0.07940921 0.011303311 0.0026222835 0.04473516 -0.10921955 -0.053639363
0.061871774 0.07069371 -0.042302504 0.035365295 -0.049675327 0.14092638 -0.15303236 0.05969902
-0.11084566 -0.0740674 0.14596906 -0.014617778 0.08258759 -0.038125034 -0.048033595 -0.067055434
-0.029694626 0.16632256 0.115813084 0.07447126 -0.022259517 -0.10713013 -0.019787366 -0.04638177
0.0026537376 -0.019876944 -0.042527717 0.017820356 0.036123026 0.07690791 -0.0033821147 0.07296327
-0.013993549 0.09923 -0.049577445 -0.032430712 0.05022119 -0.022521771 -0.065190874 0.08219178
-0.045085426 -0.022785207 -0.07015605 0.006133968 -0.007671781 0.10346604 -0.15070842 -0.028789708
0.021620361 0.1117079 0.112321705 -0.033911474 0.049160775 0.05895271 -0.14791378 -0.026825553
-0.06625219 -0.044328224 0.1350696 0.07453566 -0.03299776 -0.116434336 0.043432936 0.10331075
-0.030355748 0.032650653 0.13770622 0.06358909 -8.190433e-05 0.07017823 -0.0067993742 0.084917516
-0.10181353 0.07553332 0.11168548 0.13281426 -0.02747992 0.053795815 0.01987727 0.038857017
-0.07165532 -0.058473594 0.0043226928 -0.027607901 0.10191422 -0.116763026 0.08350125 0.0111315185
-0.107666306 -0.004219018 0.025473835 0.10161979 0.14814329 0.04185134 0.07129198 0.0153195355
0.12754843 -0.07634594 -0.031601056 0.0859821 0.05004953 -0.056881737 -0.006194044 -0.15245312
-0.06868488 -0.026011854 -0.023233885 -0.086587496 0.009834092 0.113303065 -0.109434515 0.07403006
0.06571236 0.13125646 0.0550269 0.1254899 0.0507805 -0.0677094 0.015270715 0.052633688
0.07184187 0.06912756 0.038487192 0.023210851 -0.01627091 0.14355819 0.088143855 -0.048922956
0.09125874 0.023888718 -0.07446286 -0.023364322 -0.041069567 0.018353324 0.055715334 0.054319184
0.02914353 -0.11016578 0.019981844 -0.07766232 -0.05730443 0.0021450438 -0.030006114 -0.10613085
0.064234346 0.059802815 -0.044753764 -0.03827269 0.046671834 0.025697066 -0.028799525 0.07232307
0.11517655 -0.0070623476 0.07531598 -0.029312847 0.086143285 0.013210928 0.06313278 0.0918811
0.0076502613 -0.009830441 -0.056600947 0.010023933 -0.014710229 0.13683015 -0.1145228 0.027276887
0.08441195 0.05501083 -0.059752766 0.03259412 0.00020892883 0.10633302 0.078782655 -0.08736509
-0.0749817 0.032127596 -0.0042909533 -0.053791422 -0.05008283 0.050331406 0.051247146 0.07093986
00000000: 8611 15bc c90b 4e3d 6a08 71bc 84e7 ae3d
00000010: 7b9c 003b a919 7e3d 3b3a bd3d cb67 5dbd
00000020: cae8 bf3d 1b1d c53d 4033 6e3c 32d1 06be
00000030: 3e71 233d 46d4 403d e238 c83d 7708 17bd
00000040: edc5 d8bd a66f cb39 34c1 743d a0c0 d13d
00000050: 9a25 fcbd a01c 123e f6c9 08bd 3b9d a6bd
00000060: 7b3b 84bc 9ad5 a6bd 83fa d63c 3017 2b3d
00000070: b1aa 3c3e 93d7 a7b9 23e4 a0bd 7c08 313b
00000080: 31a0 393d 92d4 a73d f503 db3d d78c a43d
00000090: 9836 a23b 8b80 09bd 832f b23d 5b29 8a3d
000000a0: 45fd 75bd 9432 0c3e 366b a63c 9d1a a9bd
000000b0: d36f ab3d d584 253e ff27 963d 5d29 ba3d
000000c0: d9c0 91bc 81de 833d 1979 b73d aa59 a13c
000000d0: a551 30bd 00c6 493d 8e6d 283d ef10 94bd
000000e0: 5735 fd3c e3b2 8d3d f2d6 9c3d 5cab 07be
000000f0: 55cc dcbc 2643 19bd cec5 533c 6ea1 ec3c
00000100: fd80 2bbd 23ae 3ebd 4ca1 a23d 8631 393c
00000110: 9eda 2b3b 373c 373d 80ae dfbd f3b4 5bbd
00000120: 426d 7d3d ddc7 903d 6445 2dbd 33db 103d
00000130: 5b78 4bbd 014f 103e 84b4 1cbe f686 743d
00000140: 0d03 e3bd a6b0 97bd ea78 153e 687f 6fbc
00000150: af23 a93d ff28 1cbd e0be 44bd 5c54 89bd
00000160: 2542 f3bc 7650 2a3e 692f ed3d 6384 983d
00000170: 9759 b6bc 0b67 dbbd 1d19 a2bc d0fa 3dbd
00000180: 54ea 2d3b f9d4 a2bc 8b31 2ebd fffb 913c
00000190: bdf5 133d e581 9d3d 78a6 5dbb c46d 953d
000001a0: 3345 65bc 1939 cb3d b811 4bbd 11d6 04bd
000001b0: bcb4 4d3d 947f b8bc cb82 85bd 2a54 a83d
000001c0: 7fab 38bd 0ba8 babc faad 8fbd 74ff c83b
000001d0: 9063 fbbb 01e6 d33d 4f53 1abe 65d8 ebbc
000001e0: 2f1d b13c 1dc7 e43d ec08 e63d c2e6 0abd
000001f0: cf5c 493d 6678 713d b676 17be 43c1 dbbc
00000200: 3aaf 87bd 8391 35bd af4f 0a3e 27a6 983d
00000210: a928 07bd 2075 eebd bce6 313d 9694 d33d
00000220: 9eac f8bc b1bc 053d dc02 0d3e ff3a 823d
00000230: 0dc4 abb8 9bb9 8f3d 49cd debb 3ce9 ad3d
00000240: 9d83 d0bd 37b1 9a3d 5bbb e43d 7600 083e
00000250: 921d e1bc 0059 5c3d a8d5 a23c 8928 1f3d
00000260: 06c0 92bd 0282 6fbd 60a5 8d3b f729 e2bc
00000270: 67b8 d03d 7421 efbd b402 ab3d f960 363c
00000280: 2780 dcbd b03f 8abb 81ae d03c 091e d03d
00000290: e0b2 173e 506c 2b3d 8801 923d cafe 7a3c
000002a0: 0e9c 023e 435b 9cbd 1c70 01bd 6217 b03d
000002b0: bc00 4d3d d3fc 68bd 68f7 cabb ac1c 1cbe
000002c0: a9aa 8cbd d016 d5bc fd54 bebc c954 b1bd
000002d0: 2c1f 213c 700b e83d 341f e0bd 129d 973d
000002e0: 3494 863d 1868 063e e363 613d 6d80 003e
000002f0: 37ff 4f3d 3aab 8abd 0532 7a3c 6c96 573d
00000300: d521 933d c092 8d3d bfa4 1d3d af24 be3c
00000310: 924a 85bc eb00 133e c484 b43d 7063 48bd
00000320: dde5 ba3d 46b2 c33c fc7f 98bd 8966 bfbc
00000330: 9038 28bd b659 963c c335 643d cb7d 5e3d
00000340: 6abe ee3c 999e e1bd f7b0 a33c 6c0d 9fbd
00000350: 0db8 6abd dd93 0c3b 62cf f5bc 225b d9bd
00000360: 4c8d 833d ccf3 743d b94f 37bd d3c3 1cbd
00000370: f72a 3f3d a782 d23c fbec ebbc 1e1e 943d
00000380: afe1 eb3d 446b e7bb 443f 9a3d 7f21 f0bc
00000390: e46b b03d a672 583c c24b 813d 282c bc3d
000003a0: 0baf fa3b dc0f 21bc 65d6 67bd 6c3b 243c
000003b0: 2c03 71bc 341d 0c3e ee8a eabd c773 df3c
000003c0: 2ce0 ac3d 0953 613d 51bf 74bd 6981 053d
000003d0: e813 5b39 20c5 d93d cd58 a13d 78ec b2bd
000003e0: 0190 99bd 3a98 033d 209b 8cbb 6554 5cbd
000003f0: a723 4dbd 4e28 4e3d 87e8 513d eb48 913d

fc2.bias f4 [128]
-0.043373592 0.02117773 0.07948228 0.04447639 -0.08247298 -0.018575883 -0.029624805 0.07682092
0.039045233 -0.05563446 0.07196737 0.009009062 -0.0077954973 -0.0515918 0.0976079 0.006494754
0.06612574 0.13820936 0.017246062 0.07900218 0.08579788 0.016112972 -0.08397096 0.042959742
0.016062068 -0.07847177 -0.020125763 0.12691125 -0.02504616 0.070803836 -0.07468712 0.018977894
-0.07222775 0.02859128 0.09289298 0.02922424 -0.03145957 0.06167864 -0.05330104 0.034501582
0.067952685 0.075761385 0.059703775 0.1458409 -0.037307657 -0.053688206 0.14744864 -0.0071794
-0.09205882 -0.054301497 0.07732378 -0.05003629 -0.007444675 0.007776603 0.09283319 0.12438461
-0.029437134 0.020376882 -0.03137861 0.13494211 0.12246355 0.03883248 0.02196151 0.006067824
0.12170792 0.06196526 -0.04018832 -0.019126907 -0.08140715 0.08164639 -0.033472143 -0.025199534
0.104047455 0.09021707 0.0010678197 0.08711519 -0.03973487 0.071589634 0.15075009 -0.029441148
-0.06560274 0.061580617 0.075517856 0.032668434 -0.004636739 -0.0586242 0.013011061 0.016039496
-0.019560322 0.11088914 -0.04996646 -0.009965854 0.089402564 0.089191504 -0.050921496 -0.04421683
0.112073295 0.07893417 -0.023089414 0.12699185 -0.043092314 0.028227033 0.14775786 -0.06990397
0.0966218 0.011082337 0.0012488863 0.089181006 -0.095341384 -0.021415142 -0.027952258 -0.05024418
0.062468775 0.15923233 0.08461641 -0.029516885 0.17021899 0.16161563 0.054686002 0.041517
-0.07908509 0.0662838 0.016107088 -0.056732345 0.09920116 0.024348242 0.033773817 0.1289021
00000000: 82a8 31bd eb7c ad3c 9bc7 a23d e02c 363d
00000010: 98e7 a8bd 732c 98bc b8af f2bc 4954 9d3d
00000020: e5ed 1f3d f6e0 63bd a163 933d bf9a 133c
00000030: 5f71 ffbb ec51 53bd a7e6 c73d f2d1 d43b
00000040: ef6c 873d c186 0d3e 9d47 8d3c e5cb a13d
00000050: cdb6 af3d 5aff 833c f7f8 abbd 8ef6 2f3d
00000060: 9994 833c cfb5 a0bd c9de a4bc 06f5 013e
00000070: 9b2d cdbc 9a01 913d 90f5 98bd 8777 9b3c
00000080: 25ec 93bd 4338 ea3c ad3e be3d ac67 ef3c
00000090: c0db 00bd bea2 7c3d 3152 5abd 8851 0d3d
000000a0: c72a 8b3d c928 9b3d f28b 743d 5157 153e
000000b0: eacf 18bd 2ae8 5bbd c7fc 163e 2c41 ebbb
000000c0: 5689 bcbd 3f6b 5ebd ee5b 9e3d daf2 4cbd
000000d0: 76f2 f3bb e0d2 fe3b 541f be3d 5cbd fe3d
000000e0: 2526 f1bc 6bed a63c db86 00bd 442e 0a3e
000000f0: 2bce fa3d ce0e 1f3d a0e8 b33c 99d4 c63b
00000100: 0142 f93d 49cf 7d3d 829c 24bd 08b0 9cbc
00000110: cbb8 a6bd 3936 a73d 161a 09bd 416f cebc
00000120: d516 d53d bac3 b83d 15f6 8b3a 7369 b23d
00000130: 08c1 22bd 969d 923d 3b5e 1a3e 902e f1bc
00000140: bb5a 86bd f53b 7c3d 1ba9 9a3d 56cf 053d
00000150: c9ef 97bb ee1f 70bd 582c 553c 4365 833c
00000160: f83c a0bc d819 e33d a1a9 4cbd d247 23bc
00000170: b118 b73d 09aa b63d 0f93 50bd b51c 35bd
00000180: af86 e53d 3da8 a13d 0326 bdbc 270a 023e
00000190: 9181 30bd 613c e73c d64d 173e d029 8fbd
000001a0: a6e1 c53d b192 353c acb1 a33a 88a4 b63d
000001b0: 5842 c3bd cf6e afbc 22fc e4bc d7cc 4dbd
000001c0: 42df 7f3d cd0d 233e 5e4b ad3d 65cd f1bc
000001d0: e34d 2e3e 917e 253e 6efe 5f3d bb0d 2a3d
000001e0: 5df7 a1bd cdbf 873d 03f3 833c 2d60 68bd
000001f0: fa29 cb3d f775 c73c 6a56 0a3d e9fe 033e

fc3.weight f4 [4, 128]
-0.063546546 -0.0070791934 -0.069625795 -0.018803054 -0.03192752 -0.042445973 -0.048339628 0.007175872
-0.07382952 -0.02858819 -0.02123896 0.026047045 -0.029571222 -0.062863335 -0.06933845 0.011268007
-0.024488624 -0.10702361 -0.029743804 -0.017288694 -0.040916823 -0.0646435 -0.002694905 -0.027474856
-0.026837803 -0.004197172 -0.06783764 -0.02283618 -0.033917695 -0.08588059 -0.003436431 -0.034600373
-0.061408438 -0.07010699 -0.026037777 -0.09451331 -0.027114209 -0.059321254 0.010125631 -0.028329536
-0.07085503 -0.0032315212 -0.06279361 -0.09989616 -0.035747066 -0.053775392 -0.09576422 -0.016844857
-0.044917785 -0.011987906 0.0036513237 -0.058134727 -0.02568963 -0.034072503 -0.0253319 0.02393101
-0.049385183 -0.014734653 -0.0115123335 0.021454226 -0.047315214 0.008671079 -0.034858357 -0.02529338
-0.032965608 -0.03190112 -0.019392287 -0.03406993 -0.04185007 -0.07449268 0.0015674669 -0.013088937
-0.04233997 -0.0129410345 -0.020511677 -0.025935011 -0.036567118 -0.054914914 -0.025021033 0.0066327723
-0.020189306 -0.07212124 0.0010588947 -0.023327198 0.008427574 0.013378335 -0.0046710814 -0.032032903
-0.04883649 -0.059882 -0.018203126 -0.006827857 -0.06617069 -0.024015922 -0.012779439 -0.06200518
-0.0509271 0.010562606 -0.025250135 -0.09235216 -0.012439015 0.0025504157 -0.073134005 -0.0407995
-0.07945242 -0.050769184 -0.0071152323 -0.10075398 -0.026550146 -0.05086664 -0.04980563 -0.057985883
-0.016701957 0.010606502 0.017678102 -0.041433997 0.021847876 -0.011658643 -0.007732059 -0.044373777
0.01089918 -0.019615207 -0.0011517981 0.0033763903 -0.04007705 -0.055412333 -0.0014909881 -0.04264977
0.07494611 0.022253705 0.03118751 0.037727837 0.068259045 0.03700248 0.04673988 -0.050100442
0.07676777 0.030672094 -0.0067048194 0.12131681 0.07078438 0.06796406 0.012018015 0.075314045
0.024081921 0.024606919 0.039690122 0.02502462 0.03786786 0.03048468 0.09134414 0.062923156
0.06262465 -0.004158802 0.079172134 0.026408555 0.049707357 0.023216195 0.103123546 0.03715459
-0.030057818 0.040485535 0.038929768 0.010553156 0.09296149 0.05496435 0.09445048 0.05661118
0.049148932 -0.024541173 0.029419294 0.023815345 0.05297941 0.04887809 0.038057305 0.08980223
0.019841507 -0.0018169554 0.0027586801 0.018361054 0.0038951628 0.055703036 0.054145716 0.023444517
0.02904469 0.048949074 -0.061647326 -0.036075793 0.07327816 -0.020543128 0.030498505 0.07161868
0.01709085 0.047644768 0.07473385 0.049738187 0.029215647 0.03234246 -0.011209451 0.0068751476
0.08159618 0.037242766 0.018273542 0.0018981898 0.04158355 0.04483808 -0.024653582 -0.009125514
0.050136928 0.048099335 0.024073785 0.0594462 -0.0243917 -0.008161 0.042242352 0.05725387
0.019648144 0.028247489 0.07919357 -0.0022600216 0.04455499 0.02327883 0.020303318 0.035808183
0.04726965 -0.011035776 0.03614026 0.031551063 -0.048138943 0.074847475 0.047217056 0.008386666
0.0903087 0.03878898 0.088361435 0.034474783 0.039733823 0.025056308 0.07635238 0.06188053
0.06871719 0.028530175 -0.061684728 0.027324531 -0.03588237 -0.016608248 -0.001001477 0.027082184
0.09296172 -0.0019994644 -0.021630391 0.13644868 0.033033375 0.02281023 -0.03395427 0.018750774
00000000: b124 82bd 94f8 e7bb f897 8ebd dd08 9abc
00000010: 6ec6 02bd d4db 2dbd c6ff 45bd 9423 eb3b
00000020: ee33 97bd c831 eabc 54fd adbc 9d60 d53c
00000030: 593f f2bc 7ebe 80bd 5101 8ebd 729d 383c
00000040: 5e9c c8bc 322f dbbd 47a9 f3bc 05a1 8dbc
00000050: 6698 27bd d063 84bd 019d 30bb f312 e1bc
00000060: f4da dbbc 6e88 89bb 76ee 8abd f112 bbbc
00000070: 48ed 0abd 2ae2 afbd bf35 61bb 1fb9 0dbd
00000080: 6a87 7bbd 4194 8fbd 2d4d d5bc 3290 c1bd
00000090: 9e1e debc d8fa 72bd f9e5 253c 5813 e8bc
000000a0: 711c 91bd eec7 53bb f099 80bd 5c96 ccbd
000000b0: 846b 12bd 9643 5cbd 0820 c4bd 3afe 89bc
000000c0: b6fb 37bd ec68 44bc 0c4b 6f3b ae1e 6ebd
000000d0: 0f73 d2bc 9c8f 0bbd d884 cfbc f70a c43c
000000e0: 1e48 4abd 9d69 71bc 3a9e 3cbc c6c0 af3c
000000f0: 99cd 41bd 2411 0e3c a3c7 0ebd 1034 cfbc
00000100: f206 07bd c0aa 02bd 93dc 9ebc e98c 0bbd
00000110: fb6a 2bbd 9e8f 98bd 7673 cd3a fb72 56bc
00000120: ad6c 2dbd a206 54bc 1b08 a8bc a975 d4bc
00000130: 67c7 15bd 76ee 60bd e9f8 ccbc ba57 d93b
00000140: 0b64 a5bc 4db4 93bd 9cca 8a3a ae18 bfbc
00000150: cf13 0a3c ce30 5b3c df0f 99bb ef34 03bd
00000160: c508 48bd d446 75bd b91e 95bc 37bc dfbb
00000170: 8084 87bd 0abd c4bc da60 51bc 25f9 7dbd
00000180: ef98 50bd c80e 2d3c 5fd9 cebc 2123 bdbd
00000190: 03cd 4bbc e024 273b 48c7 95bd 601d 27bd
000001a0: f3b7 a2bd 59f3 4fbd e526 e9bb 1a58 cebd
000001b0: b17f d9bc 8a59 50bd fd00 4cbd 9b82 6dbd
000001c0: 8bd2 88bc e5c6 2d3c abd1 903c b2b6 29bd
000001d0: 51fa b23c e503 3fbc 365d fdbb 47c1 35bd
000001e0: 7992 323c 12b0 a0bc eef7 96ba 6e46 5d3b
000001f0: d527 24bd 0bf8 62bd 426d c3ba 86b1 2ebd
00000200: 597d 993d 674d b63c f37c ff3c 8188 1a3d
00000210: 66cb 8b3d ea8f 173d 5172 3f3d 1f36 4dbd
00000220: 6c38 9d3d 0b44 fb3c 1ab4 dbbb f374 f83d
00000230: 67f7 903d be30 8b3d 35e7 443c 403e 9a3d
00000240: 7347 c53c 7394 c93c 1c92 223d 6f00 cd3c
00000250: 541b 1b3d 02bb f93c a312 bb3d dbdd 803d
00000260: 5a41 803d 8f46 88bb 0025 a23d c156 d83c
00000270: f199 4b3d e42f be3c 7032 d33d 692f 183d
00000280: d03b f6bc 29d4 253d d274 1f3d 25e7 2c3c
00000290: 9862 be3d 4c22 613d 416f c13d 20e1 673d
000002a0: 6450 493d 920a c9bc bb00 f13c 6618 c33c
000002b0: f000 593d 6434 483d fae1 1b3d 3bea b73d
000002c0: a88a a23c e826 eeba f9ca 343b ec69 963c
000002d0: fd45 7f3b de28 643d e6c7 5d3d b70e c03c
000002e0: 21ef ed3c d37e 483d e881 7cbd 36c4 13bd
000002f0: dc12 963d 104a a8bc 00d8 f93c d1ac 923d
00000300: 1c02 8c3c 2927 433d 100e 993d 45ba 4b3d
00000310: a755 ef3c 8779 043d d8a7 37bc eb48 e13b
00000320: e61b a73d df8b 183d 65b2 953c aecc f83a
00000330: 8353 2a3d 22a8 373d 4ff6 c9bc 2e83 15bc
00000340: 615c 4d3d cf03 453d 6336 c53c dc7d 733d
00000350: 1ad1 c7bc b7b5 05bc 5106 2d3d 0983 6a3d
00000360: 25f5 a03c 4767 e73c 3d30 a23d df1c 14bb
00000370: 4b7f 363d 3fb3 be3c 2553 a63c 9aab 123d
00000380: d29d 413d 66cf 34bc cf07 143d b03b 013d
00000390: 572d 45bd a249 993d ac66 413d 3a68 093c
000003a0: c5f3 b83d 32e1 1e3d d7f6 b43d 6e35 0d3d
000003b0: efbf 223d e342 cd3c a35e 9c3d 7076 7d3d
000003c0: 99bb 8c3d 1db8 e93c 20a9 7cbd b2d7 df3c
000003d0: 64f9 12bd 050e 88bc fe43 83ba 75db dd3c
000003e0: b762 be3d 7209 03bb 3832 b1bc 34b9 0b3e
000003f0: 014e 073d 85dc ba3c a213 0bbd 399b 993c

fc3.bias f4 [4]
-0.012844329 0.12525734 0.027484272 0.013103903
00000000: 0571 52bc 7643 003e b226 e13c c1b1 563c
